program start
seed set
[PhysicalDevice(name='/physical_device:GPU:0', device_type='GPU')]
Model: "model_22"
__________________________________________________________________________________________________
Layer (type)                    Output Shape         Param #     Connected to                     
==================================================================================================
input_12 (InputLayer)           [(None, 150, 150, 7) 0                                            
__________________________________________________________________________________________________
lambda_55 (Lambda)              (None, 150, 150, 7)  0           input_12[0][0]                   
__________________________________________________________________________________________________
conv2d_187 (Conv2D)             (None, 150, 150, 32) 2048        lambda_55[0][0]                  
__________________________________________________________________________________________________
max_pooling2d_187 (MaxPooling2D (None, 75, 75, 32)   0           conv2d_187[0][0]                 
__________________________________________________________________________________________________
lambda_56 (Lambda)              (None, 75, 75, 7)    0           lambda_55[0][0]                  
__________________________________________________________________________________________________
lambda_57 (Lambda)              (None, 75, 75, 7)    0           lambda_55[0][0]                  
__________________________________________________________________________________________________
lambda_58 (Lambda)              (None, 75, 75, 7)    0           lambda_55[0][0]                  
__________________________________________________________________________________________________
lambda_59 (Lambda)              (None, 75, 75, 7)    0           lambda_55[0][0]                  
__________________________________________________________________________________________________
conv2d_188 (Conv2D)             (None, 75, 75, 32)   9248        max_pooling2d_187[0][0]          
__________________________________________________________________________________________________
conv2d_191 (Conv2D)             (None, 75, 75, 32)   2048        lambda_56[0][0]                  
__________________________________________________________________________________________________
conv2d_194 (Conv2D)             (None, 75, 75, 32)   2048        lambda_57[0][0]                  
__________________________________________________________________________________________________
conv2d_197 (Conv2D)             (None, 75, 75, 32)   2048        lambda_58[0][0]                  
__________________________________________________________________________________________________
conv2d_200 (Conv2D)             (None, 75, 75, 32)   2048        lambda_59[0][0]                  
__________________________________________________________________________________________________
max_pooling2d_188 (MaxPooling2D (None, 38, 38, 32)   0           conv2d_188[0][0]                 
__________________________________________________________________________________________________
max_pooling2d_191 (MaxPooling2D (None, 38, 38, 32)   0           conv2d_191[0][0]                 
__________________________________________________________________________________________________
max_pooling2d_194 (MaxPooling2D (None, 38, 38, 32)   0           conv2d_194[0][0]                 
__________________________________________________________________________________________________
max_pooling2d_197 (MaxPooling2D (None, 38, 38, 32)   0           conv2d_197[0][0]                 
__________________________________________________________________________________________________
max_pooling2d_200 (MaxPooling2D (None, 38, 38, 32)   0           conv2d_200[0][0]                 
__________________________________________________________________________________________________
conv2d_189 (Conv2D)             (None, 38, 38, 64)   18496       max_pooling2d_188[0][0]          
__________________________________________________________________________________________________
conv2d_192 (Conv2D)             (None, 38, 38, 64)   18496       max_pooling2d_191[0][0]          
__________________________________________________________________________________________________
conv2d_195 (Conv2D)             (None, 38, 38, 64)   18496       max_pooling2d_194[0][0]          
__________________________________________________________________________________________________
conv2d_198 (Conv2D)             (None, 38, 38, 64)   18496       max_pooling2d_197[0][0]          
__________________________________________________________________________________________________
conv2d_201 (Conv2D)             (None, 38, 38, 64)   18496       max_pooling2d_200[0][0]          
__________________________________________________________________________________________________
max_pooling2d_189 (MaxPooling2D (None, 19, 19, 64)   0           conv2d_189[0][0]                 
__________________________________________________________________________________________________
max_pooling2d_192 (MaxPooling2D (None, 19, 19, 64)   0           conv2d_192[0][0]                 
__________________________________________________________________________________________________
max_pooling2d_195 (MaxPooling2D (None, 19, 19, 64)   0           conv2d_195[0][0]                 
__________________________________________________________________________________________________
max_pooling2d_198 (MaxPooling2D (None, 19, 19, 64)   0           conv2d_198[0][0]                 
__________________________________________________________________________________________________
max_pooling2d_201 (MaxPooling2D (None, 19, 19, 64)   0           conv2d_201[0][0]                 
__________________________________________________________________________________________________
conv2d_190 (Conv2D)             (None, 19, 19, 128)  73856       max_pooling2d_189[0][0]          
__________________________________________________________________________________________________
conv2d_193 (Conv2D)             (None, 19, 19, 128)  73856       max_pooling2d_192[0][0]          
__________________________________________________________________________________________________
conv2d_196 (Conv2D)             (None, 19, 19, 128)  73856       max_pooling2d_195[0][0]          
__________________________________________________________________________________________________
conv2d_199 (Conv2D)             (None, 19, 19, 128)  73856       max_pooling2d_198[0][0]          
__________________________________________________________________________________________________
conv2d_202 (Conv2D)             (None, 19, 19, 128)  73856       max_pooling2d_201[0][0]          
__________________________________________________________________________________________________
max_pooling2d_190 (MaxPooling2D (None, 10, 10, 128)  0           conv2d_190[0][0]                 
__________________________________________________________________________________________________
max_pooling2d_193 (MaxPooling2D (None, 10, 10, 128)  0           conv2d_193[0][0]                 
__________________________________________________________________________________________________
max_pooling2d_196 (MaxPooling2D (None, 10, 10, 128)  0           conv2d_196[0][0]                 
__________________________________________________________________________________________________
max_pooling2d_199 (MaxPooling2D (None, 10, 10, 128)  0           conv2d_199[0][0]                 
__________________________________________________________________________________________________
max_pooling2d_202 (MaxPooling2D (None, 10, 10, 128)  0           conv2d_202[0][0]                 
__________________________________________________________________________________________________
concatenate_11 (Concatenate)    (None, 10, 10, 640)  0           max_pooling2d_190[0][0]          
                                                                 max_pooling2d_193[0][0]          
                                                                 max_pooling2d_196[0][0]          
                                                                 max_pooling2d_199[0][0]          
                                                                 max_pooling2d_202[0][0]          
__________________________________________________________________________________________________
flatten_451 (Flatten)           (None, 64000)        0           concatenate_11[0][0]             
__________________________________________________________________________________________________
dense_33 (Dense)                (None, 1024)         65537024    flatten_451[0][0]                
__________________________________________________________________________________________________
dropout_22 (Dropout)            (None, 1024)         0           dense_33[0][0]                   
__________________________________________________________________________________________________
dense_34 (Dense)                (None, 1024)         1049600     dropout_22[0][0]                 
__________________________________________________________________________________________________
dropout_23 (Dropout)            (None, 1024)         0           dense_34[0][0]                   
__________________________________________________________________________________________________
dense_35 (Dense)                (None, 5)            5125        dropout_23[0][0]                 
==================================================================================================
Total params: 67,072,997
Trainable params: 67,072,997
Non-trainable params: 0
__________________________________________________________________________________________________
start loading dataset ...
load "Big" complete
load "Long" complete
load "Mitotic" complete
…
           3       0.93      0.73      0.82        56
           4       0.80      0.21      0.34        56

    accuracy                           0.70       260
   macro avg       0.81      0.70      0.68       260
weighted avg       0.83      0.70      0.70       260

Model: "model_23"
__________________________________________________________________________________________________
Layer (type)                    Output Shape         Param #     Connected to                     
==================================================================================================
input_12 (InputLayer)           [(None, 150, 150, 7) 0                                            
__________________________________________________________________________________________________
lambda_55 (Lambda)              (None, 150, 150, 7)  0           input_12[0][0]                   
__________________________________________________________________________________________________
conv2d_187 (Conv2D)             (None, 150, 150, 32) 2048        lambda_55[0][0]                  
__________________________________________________________________________________________________
max_pooling2d_187 (MaxPooling2D (None, 75, 75, 32)   0           conv2d_187[0][0]                 
__________________________________________________________________________________________________
lambda_56 (Lambda)              (None, 75, 75, 7)    0           lambda_55[0][0]                  
__________________________________________________________________________________________________
lambda_57 (Lambda)              (None, 75, 75, 7)    0           lambda_55[0][0]                  
__________________________________________________________________________________________________
lambda_58 (Lambda)              (None, 75, 75, 7)    0           lambda_55[0][0]                  
__________________________________________________________________________________________________
lambda_59 (Lambda)              (None, 75, 75, 7)    0           lambda_55[0][0]                  
__________________________________________________________________________________________________
conv2d_188 (Conv2D)             (None, 75, 75, 32)   9248        max_pooling2d_187[0][0]          
__________________________________________________________________________________________________
conv2d_191 (Conv2D)             (None, 75, 75, 32)   2048        lambda_56[0][0]                  
__________________________________________________________________________________________________
conv2d_194 (Conv2D)             (None, 75, 75, 32)   2048        lambda_57[0][0]                  
__________________________________________________________________________________________________
conv2d_197 (Conv2D)             (None, 75, 75, 32)   2048        lambda_58[0][0]                  
__________________________________________________________________________________________________
conv2d_200 (Conv2D)             (None, 75, 75, 32)   2048        lambda_59[0][0]                  
__________________________________________________________________________________________________
max_pooling2d_188 (MaxPooling2D (None, 38, 38, 32)   0           conv2d_188[0][0]                 
__________________________________________________________________________________________________
max_pooling2d_191 (MaxPooling2D (None, 38, 38, 32)   0           conv2d_191[0][0]                 
__________________________________________________________________________________________________
max_pooling2d_194 (MaxPooling2D (None, 38, 38, 32)   0           conv2d_194[0][0]                 
__________________________________________________________________________________________________
max_pooling2d_197 (MaxPooling2D (None, 38, 38, 32)   0           conv2d_197[0][0]                 
__________________________________________________________________________________________________
max_pooling2d_200 (MaxPooling2D (None, 38, 38, 32)   0           conv2d_200[0][0]                 
__________________________________________________________________________________________________
conv2d_189 (Conv2D)             (None, 38, 38, 64)   18496       max_pooling2d_188[0][0]          
__________________________________________________________________________________________________
conv2d_192 (Conv2D)             (None, 38, 38, 64)   18496       max_pooling2d_191[0][0]          
__________________________________________________________________________________________________
conv2d_195 (Conv2D)             (None, 38, 38, 64)   18496       max_pooling2d_194[0][0]          
__________________________________________________________________________________________________
conv2d_198 (Conv2D)             (None, 38, 38, 64)   18496       max_pooling2d_197[0][0]          
__________________________________________________________________________________________________
conv2d_201 (Conv2D)             (None, 38, 38, 64)   18496       max_pooling2d_200[0][0]          
__________________________________________________________________________________________________
max_pooling2d_189 (MaxPooling2D (None, 19, 19, 64)   0           conv2d_189[0][0]                 
__________________________________________________________________________________________________
max_pooling2d_192 (MaxPooling2D (None, 19, 19, 64)   0           conv2d_192[0][0]                 
__________________________________________________________________________________________________
max_pooling2d_195 (MaxPooling2D (None, 19, 19, 64)   0           conv2d_195[0][0]                 
__________________________________________________________________________________________________
max_pooling2d_198 (MaxPooling2D (None, 19, 19, 64)   0           conv2d_198[0][0]                 
__________________________________________________________________________________________________
max_pooling2d_201 (MaxPooling2D (None, 19, 19, 64)   0           conv2d_201[0][0]                 
__________________________________________________________________________________________________
conv2d_190 (Conv2D)             (None, 19, 19, 128)  73856       max_pooling2d_189[0][0]          
__________________________________________________________________________________________________
conv2d_193 (Conv2D)             (None, 19, 19, 128)  73856       max_pooling2d_192[0][0]          
__________________________________________________________________________________________________
conv2d_196 (Conv2D)             (None, 19, 19, 128)  73856       max_pooling2d_195[0][0]          
__________________________________________________________________________________________________
conv2d_199 (Conv2D)             (None, 19, 19, 128)  73856       max_pooling2d_198[0][0]          
__________________________________________________________________________________________________
conv2d_202 (Conv2D)             (None, 19, 19, 128)  73856       max_pooling2d_201[0][0]          
__________________________________________________________________________________________________
max_pooling2d_190 (MaxPooling2D (None, 10, 10, 128)  0           conv2d_190[0][0]                 
__________________________________________________________________________________________________
max_pooling2d_193 (MaxPooling2D (None, 10, 10, 128)  0           conv2d_193[0][0]                 
__________________________________________________________________________________________________
max_pooling2d_196 (MaxPooling2D (None, 10, 10, 128)  0           conv2d_196[0][0]                 
__________________________________________________________________________________________________
max_pooling2d_199 (MaxPooling2D (None, 10, 10, 128)  0           conv2d_199[0][0]                 
__________________________________________________________________________________________________
max_pooling2d_202 (MaxPooling2D (None, 10, 10, 128)  0           conv2d_202[0][0]                 
__________________________________________________________________________________________________
concatenate_11 (Concatenate)    (None, 10, 10, 640)  0           max_pooling2d_190[0][0]          
                                                                 max_pooling2d_193[0][0]          
                                                                 max_pooling2d_196[0][0]          
                                                                 max_pooling2d_199[0][0]          
                                                                 max_pooling2d_202[0][0]          
__________________________________________________________________________________________________
flatten_451 (Flatten)           (None, 64000)        0           concatenate_11[0][0]             
==================================================================================================
Total params: 481,248
Trainable params: 481,248
Non-trainable params: 0
__________________________________________________________________________________________________
get cnn model
(1052, 64000)
[303.31342   31.277706 186.5837    72.85099  105.89027    0.
…
