program start
seed set
[PhysicalDevice(name='/physical_device:GPU:0', device_type='GPU')]
Model: "model_26"
__________________________________________________________________________________________________
Layer (type)                    Output Shape         Param #     Connected to                     
==================================================================================================
input_14 (InputLayer)           [(None, 150, 150, 7) 0                                            
__________________________________________________________________________________________________
lambda_65 (Lambda)              (None, 150, 150, 7)  0           input_14[0][0]                   
__________________________________________________________________________________________________
conv2d_221 (Conv2D)             (None, 150, 150, 32) 2048        lambda_65[0][0]                  
__________________________________________________________________________________________________
max_pooling2d_221 (MaxPooling2D (None, 75, 75, 32)   0           conv2d_221[0][0]                 
__________________________________________________________________________________________________
lambda_66 (Lambda)              (None, 75, 75, 7)    0           lambda_65[0][0]                  
__________________________________________________________________________________________________
lambda_67 (Lambda)              (None, 75, 75, 7)    0           lambda_65[0][0]                  
__________________________________________________________________________________________________
lambda_68 (Lambda)              (None, 75, 75, 7)    0           lambda_65[0][0]                  
__________________________________________________________________________________________________
lambda_69 (Lambda)              (None, 75, 75, 7)    0           lambda_65[0][0]                  
__________________________________________________________________________________________________
conv2d_222 (Conv2D)             (None, 75, 75, 32)   9248        max_pooling2d_221[0][0]          
__________________________________________________________________________________________________
conv2d_225 (Conv2D)             (None, 75, 75, 32)   2048        lambda_66[0][0]                  
__________________________________________________________________________________________________
conv2d_228 (Conv2D)             (None, 75, 75, 32)   2048        lambda_67[0][0]                  
__________________________________________________________________________________________________
conv2d_231 (Conv2D)             (None, 75, 75, 32)   2048        lambda_68[0][0]                  
__________________________________________________________________________________________________
conv2d_234 (Conv2D)             (None, 75, 75, 32)   2048        lambda_69[0][0]                  
__________________________________________________________________________________________________
max_pooling2d_222 (MaxPooling2D (None, 38, 38, 32)   0           conv2d_222[0][0]                 
__________________________________________________________________________________________________
max_pooling2d_225 (MaxPooling2D (None, 38, 38, 32)   0           conv2d_225[0][0]                 
__________________________________________________________________________________________________
max_pooling2d_228 (MaxPooling2D (None, 38, 38, 32)   0           conv2d_228[0][0]                 
__________________________________________________________________________________________________
max_pooling2d_231 (MaxPooling2D (None, 38, 38, 32)   0           conv2d_231[0][0]                 
__________________________________________________________________________________________________
max_pooling2d_234 (MaxPooling2D (None, 38, 38, 32)   0           conv2d_234[0][0]                 
__________________________________________________________________________________________________
conv2d_223 (Conv2D)             (None, 38, 38, 64)   18496       max_pooling2d_222[0][0]          
__________________________________________________________________________________________________
conv2d_226 (Conv2D)             (None, 38, 38, 64)   18496       max_pooling2d_225[0][0]          
__________________________________________________________________________________________________
conv2d_229 (Conv2D)             (None, 38, 38, 64)   18496       max_pooling2d_228[0][0]          
__________________________________________________________________________________________________
conv2d_232 (Conv2D)             (None, 38, 38, 64)   18496       max_pooling2d_231[0][0]          
__________________________________________________________________________________________________
conv2d_235 (Conv2D)             (None, 38, 38, 64)   18496       max_pooling2d_234[0][0]          
__________________________________________________________________________________________________
max_pooling2d_223 (MaxPooling2D (None, 19, 19, 64)   0           conv2d_223[0][0]                 
__________________________________________________________________________________________________
max_pooling2d_226 (MaxPooling2D (None, 19, 19, 64)   0           conv2d_226[0][0]                 
__________________________________________________________________________________________________
max_pooling2d_229 (MaxPooling2D (None, 19, 19, 64)   0           conv2d_229[0][0]                 
__________________________________________________________________________________________________
max_pooling2d_232 (MaxPooling2D (None, 19, 19, 64)   0           conv2d_232[0][0]                 
__________________________________________________________________________________________________
max_pooling2d_235 (MaxPooling2D (None, 19, 19, 64)   0           conv2d_235[0][0]                 
__________________________________________________________________________________________________
conv2d_224 (Conv2D)             (None, 19, 19, 128)  73856       max_pooling2d_223[0][0]          
__________________________________________________________________________________________________
conv2d_227 (Conv2D)             (None, 19, 19, 128)  73856       max_pooling2d_226[0][0]          
__________________________________________________________________________________________________
conv2d_230 (Conv2D)             (None, 19, 19, 128)  73856       max_pooling2d_229[0][0]          
__________________________________________________________________________________________________
conv2d_233 (Conv2D)             (None, 19, 19, 128)  73856       max_pooling2d_232[0][0]          
__________________________________________________________________________________________________
conv2d_236 (Conv2D)             (None, 19, 19, 128)  73856       max_pooling2d_235[0][0]          
__________________________________________________________________________________________________
max_pooling2d_224 (MaxPooling2D (None, 10, 10, 128)  0           conv2d_224[0][0]                 
__________________________________________________________________________________________________
max_pooling2d_227 (MaxPooling2D (None, 10, 10, 128)  0           conv2d_227[0][0]                 
__________________________________________________________________________________________________
max_pooling2d_230 (MaxPooling2D (None, 10, 10, 128)  0           conv2d_230[0][0]                 
__________________________________________________________________________________________________
max_pooling2d_233 (MaxPooling2D (None, 10, 10, 128)  0           conv2d_233[0][0]                 
__________________________________________________________________________________________________
max_pooling2d_236 (MaxPooling2D (None, 10, 10, 128)  0           conv2d_236[0][0]                 
__________________________________________________________________________________________________
concatenate_13 (Concatenate)    (None, 10, 10, 640)  0           max_pooling2d_224[0][0]          
                                                                 max_pooling2d_227[0][0]          
                                                                 max_pooling2d_230[0][0]          
                                                                 max_pooling2d_233[0][0]          
                                                                 max_pooling2d_236[0][0]          
__________________________________________________________________________________________________
flatten_533 (Flatten)           (None, 64000)        0           concatenate_13[0][0]             
__________________________________________________________________________________________________
dense_39 (Dense)                (None, 1024)         65537024    flatten_533[0][0]                
__________________________________________________________________________________________________
dropout_26 (Dropout)            (None, 1024)         0           dense_39[0][0]                   
__________________________________________________________________________________________________
dense_40 (Dense)                (None, 1024)         1049600     dropout_26[0][0]                 
__________________________________________________________________________________________________
dropout_27 (Dropout)            (None, 1024)         0           dense_40[0][0]                   
__________________________________________________________________________________________________
dense_41 (Dense)                (None, 5)            5125        dropout_27[0][0]                 
==================================================================================================
Total params: 67,072,997
Trainable params: 67,072,997
Non-trainable params: 0
__________________________________________________________________________________________________
start loading dataset ...
load "Big" complete
load "Long" complete
load "Mitotic" complete
…
           3       0.80      0.91      0.85        56
           4       1.00      0.09      0.16        56

    accuracy                           0.72       260
   macro avg       0.79      0.71      0.66       260
weighted avg       0.78      0.72      0.66       260

Model: "model_27"
__________________________________________________________________________________________________
Layer (type)                    Output Shape         Param #     Connected to                     
==================================================================================================
input_14 (InputLayer)           [(None, 150, 150, 7) 0                                            
__________________________________________________________________________________________________
lambda_65 (Lambda)              (None, 150, 150, 7)  0           input_14[0][0]                   
__________________________________________________________________________________________________
conv2d_221 (Conv2D)             (None, 150, 150, 32) 2048        lambda_65[0][0]                  
__________________________________________________________________________________________________
max_pooling2d_221 (MaxPooling2D (None, 75, 75, 32)   0           conv2d_221[0][0]                 
__________________________________________________________________________________________________
lambda_66 (Lambda)              (None, 75, 75, 7)    0           lambda_65[0][0]                  
__________________________________________________________________________________________________
lambda_67 (Lambda)              (None, 75, 75, 7)    0           lambda_65[0][0]                  
__________________________________________________________________________________________________
lambda_68 (Lambda)              (None, 75, 75, 7)    0           lambda_65[0][0]                  
__________________________________________________________________________________________________
lambda_69 (Lambda)              (None, 75, 75, 7)    0           lambda_65[0][0]                  
__________________________________________________________________________________________________
conv2d_222 (Conv2D)             (None, 75, 75, 32)   9248        max_pooling2d_221[0][0]          
__________________________________________________________________________________________________
conv2d_225 (Conv2D)             (None, 75, 75, 32)   2048        lambda_66[0][0]                  
__________________________________________________________________________________________________
conv2d_228 (Conv2D)             (None, 75, 75, 32)   2048        lambda_67[0][0]                  
__________________________________________________________________________________________________
conv2d_231 (Conv2D)             (None, 75, 75, 32)   2048        lambda_68[0][0]                  
__________________________________________________________________________________________________
conv2d_234 (Conv2D)             (None, 75, 75, 32)   2048        lambda_69[0][0]                  
__________________________________________________________________________________________________
max_pooling2d_222 (MaxPooling2D (None, 38, 38, 32)   0           conv2d_222[0][0]                 
__________________________________________________________________________________________________
max_pooling2d_225 (MaxPooling2D (None, 38, 38, 32)   0           conv2d_225[0][0]                 
__________________________________________________________________________________________________
max_pooling2d_228 (MaxPooling2D (None, 38, 38, 32)   0           conv2d_228[0][0]                 
__________________________________________________________________________________________________
max_pooling2d_231 (MaxPooling2D (None, 38, 38, 32)   0           conv2d_231[0][0]                 
__________________________________________________________________________________________________
max_pooling2d_234 (MaxPooling2D (None, 38, 38, 32)   0           conv2d_234[0][0]                 
__________________________________________________________________________________________________
conv2d_223 (Conv2D)             (None, 38, 38, 64)   18496       max_pooling2d_222[0][0]          
__________________________________________________________________________________________________
conv2d_226 (Conv2D)             (None, 38, 38, 64)   18496       max_pooling2d_225[0][0]          
__________________________________________________________________________________________________
conv2d_229 (Conv2D)             (None, 38, 38, 64)   18496       max_pooling2d_228[0][0]          
__________________________________________________________________________________________________
conv2d_232 (Conv2D)             (None, 38, 38, 64)   18496       max_pooling2d_231[0][0]          
__________________________________________________________________________________________________
conv2d_235 (Conv2D)             (None, 38, 38, 64)   18496       max_pooling2d_234[0][0]          
__________________________________________________________________________________________________
max_pooling2d_223 (MaxPooling2D (None, 19, 19, 64)   0           conv2d_223[0][0]                 
__________________________________________________________________________________________________
max_pooling2d_226 (MaxPooling2D (None, 19, 19, 64)   0           conv2d_226[0][0]                 
__________________________________________________________________________________________________
max_pooling2d_229 (MaxPooling2D (None, 19, 19, 64)   0           conv2d_229[0][0]                 
__________________________________________________________________________________________________
max_pooling2d_232 (MaxPooling2D (None, 19, 19, 64)   0           conv2d_232[0][0]                 
__________________________________________________________________________________________________
max_pooling2d_235 (MaxPooling2D (None, 19, 19, 64)   0           conv2d_235[0][0]                 
__________________________________________________________________________________________________
conv2d_224 (Conv2D)             (None, 19, 19, 128)  73856       max_pooling2d_223[0][0]          
__________________________________________________________________________________________________
conv2d_227 (Conv2D)             (None, 19, 19, 128)  73856       max_pooling2d_226[0][0]          
__________________________________________________________________________________________________
conv2d_230 (Conv2D)             (None, 19, 19, 128)  73856       max_pooling2d_229[0][0]          
__________________________________________________________________________________________________
conv2d_233 (Conv2D)             (None, 19, 19, 128)  73856       max_pooling2d_232[0][0]          
__________________________________________________________________________________________________
conv2d_236 (Conv2D)             (None, 19, 19, 128)  73856       max_pooling2d_235[0][0]          
__________________________________________________________________________________________________
max_pooling2d_224 (MaxPooling2D (None, 10, 10, 128)  0           conv2d_224[0][0]                 
__________________________________________________________________________________________________
max_pooling2d_227 (MaxPooling2D (None, 10, 10, 128)  0           conv2d_227[0][0]                 
__________________________________________________________________________________________________
max_pooling2d_230 (MaxPooling2D (None, 10, 10, 128)  0           conv2d_230[0][0]                 
__________________________________________________________________________________________________
max_pooling2d_233 (MaxPooling2D (None, 10, 10, 128)  0           conv2d_233[0][0]                 
__________________________________________________________________________________________________
max_pooling2d_236 (MaxPooling2D (None, 10, 10, 128)  0           conv2d_236[0][0]                 
__________________________________________________________________________________________________
concatenate_13 (Concatenate)    (None, 10, 10, 640)  0           max_pooling2d_224[0][0]          
                                                                 max_pooling2d_227[0][0]          
                                                                 max_pooling2d_230[0][0]          
                                                                 max_pooling2d_233[0][0]          
                                                                 max_pooling2d_236[0][0]          
__________________________________________________________________________________________________
flatten_533 (Flatten)           (None, 64000)        0           concatenate_13[0][0]             
==================================================================================================
Total params: 481,248
Trainable params: 481,248
Non-trainable params: 0
__________________________________________________________________________________________________
get cnn model
(1052, 64000)
[  0.         8.644862  40.34037  110.05125  117.962776  72.994125
…
