program start
seed set
[PhysicalDevice(name='/physical_device:GPU:0', device_type='GPU')]
Model: "model_30"
__________________________________________________________________________________________________
Layer (type)                    Output Shape         Param #     Connected to                     
==================================================================================================
input_16 (InputLayer)           [(None, 150, 150, 7) 0                                            
__________________________________________________________________________________________________
lambda_75 (Lambda)              (None, 150, 150, 7)  0           input_16[0][0]                   
__________________________________________________________________________________________________
conv2d_255 (Conv2D)             (None, 150, 150, 32) 2048        lambda_75[0][0]                  
__________________________________________________________________________________________________
max_pooling2d_255 (MaxPooling2D (None, 75, 75, 32)   0           conv2d_255[0][0]                 
__________________________________________________________________________________________________
lambda_76 (Lambda)              (None, 75, 75, 7)    0           lambda_75[0][0]                  
__________________________________________________________________________________________________
lambda_77 (Lambda)              (None, 75, 75, 7)    0           lambda_75[0][0]                  
__________________________________________________________________________________________________
lambda_78 (Lambda)              (None, 75, 75, 7)    0           lambda_75[0][0]                  
__________________________________________________________________________________________________
lambda_79 (Lambda)              (None, 75, 75, 7)    0           lambda_75[0][0]                  
__________________________________________________________________________________________________
conv2d_256 (Conv2D)             (None, 75, 75, 32)   9248        max_pooling2d_255[0][0]          
__________________________________________________________________________________________________
conv2d_259 (Conv2D)             (None, 75, 75, 32)   2048        lambda_76[0][0]                  
__________________________________________________________________________________________________
conv2d_262 (Conv2D)             (None, 75, 75, 32)   2048        lambda_77[0][0]                  
__________________________________________________________________________________________________
conv2d_265 (Conv2D)             (None, 75, 75, 32)   2048        lambda_78[0][0]                  
__________________________________________________________________________________________________
conv2d_268 (Conv2D)             (None, 75, 75, 32)   2048        lambda_79[0][0]                  
__________________________________________________________________________________________________
max_pooling2d_256 (MaxPooling2D (None, 38, 38, 32)   0           conv2d_256[0][0]                 
__________________________________________________________________________________________________
max_pooling2d_259 (MaxPooling2D (None, 38, 38, 32)   0           conv2d_259[0][0]                 
__________________________________________________________________________________________________
max_pooling2d_262 (MaxPooling2D (None, 38, 38, 32)   0           conv2d_262[0][0]                 
__________________________________________________________________________________________________
max_pooling2d_265 (MaxPooling2D (None, 38, 38, 32)   0           conv2d_265[0][0]                 
__________________________________________________________________________________________________
max_pooling2d_268 (MaxPooling2D (None, 38, 38, 32)   0           conv2d_268[0][0]                 
__________________________________________________________________________________________________
conv2d_257 (Conv2D)             (None, 38, 38, 64)   18496       max_pooling2d_256[0][0]          
__________________________________________________________________________________________________
conv2d_260 (Conv2D)             (None, 38, 38, 64)   18496       max_pooling2d_259[0][0]          
__________________________________________________________________________________________________
conv2d_263 (Conv2D)             (None, 38, 38, 64)   18496       max_pooling2d_262[0][0]          
__________________________________________________________________________________________________
conv2d_266 (Conv2D)             (None, 38, 38, 64)   18496       max_pooling2d_265[0][0]          
__________________________________________________________________________________________________
conv2d_269 (Conv2D)             (None, 38, 38, 64)   18496       max_pooling2d_268[0][0]          
__________________________________________________________________________________________________
max_pooling2d_257 (MaxPooling2D (None, 19, 19, 64)   0           conv2d_257[0][0]                 
__________________________________________________________________________________________________
max_pooling2d_260 (MaxPooling2D (None, 19, 19, 64)   0           conv2d_260[0][0]                 
__________________________________________________________________________________________________
max_pooling2d_263 (MaxPooling2D (None, 19, 19, 64)   0           conv2d_263[0][0]                 
__________________________________________________________________________________________________
max_pooling2d_266 (MaxPooling2D (None, 19, 19, 64)   0           conv2d_266[0][0]                 
__________________________________________________________________________________________________
max_pooling2d_269 (MaxPooling2D (None, 19, 19, 64)   0           conv2d_269[0][0]                 
__________________________________________________________________________________________________
conv2d_258 (Conv2D)             (None, 19, 19, 128)  73856       max_pooling2d_257[0][0]          
__________________________________________________________________________________________________
conv2d_261 (Conv2D)             (None, 19, 19, 128)  73856       max_pooling2d_260[0][0]          
__________________________________________________________________________________________________
conv2d_264 (Conv2D)             (None, 19, 19, 128)  73856       max_pooling2d_263[0][0]          
__________________________________________________________________________________________________
conv2d_267 (Conv2D)             (None, 19, 19, 128)  73856       max_pooling2d_266[0][0]          
__________________________________________________________________________________________________
conv2d_270 (Conv2D)             (None, 19, 19, 128)  73856       max_pooling2d_269[0][0]          
__________________________________________________________________________________________________
max_pooling2d_258 (MaxPooling2D (None, 10, 10, 128)  0           conv2d_258[0][0]                 
__________________________________________________________________________________________________
max_pooling2d_261 (MaxPooling2D (None, 10, 10, 128)  0           conv2d_261[0][0]                 
__________________________________________________________________________________________________
max_pooling2d_264 (MaxPooling2D (None, 10, 10, 128)  0           conv2d_264[0][0]                 
__________________________________________________________________________________________________
max_pooling2d_267 (MaxPooling2D (None, 10, 10, 128)  0           conv2d_267[0][0]                 
__________________________________________________________________________________________________
max_pooling2d_270 (MaxPooling2D (None, 10, 10, 128)  0           conv2d_270[0][0]                 
__________________________________________________________________________________________________
concatenate_15 (Concatenate)    (None, 10, 10, 640)  0           max_pooling2d_258[0][0]          
                                                                 max_pooling2d_261[0][0]          
                                                                 max_pooling2d_264[0][0]          
                                                                 max_pooling2d_267[0][0]          
                                                                 max_pooling2d_270[0][0]          
__________________________________________________________________________________________________
flatten_615 (Flatten)           (None, 64000)        0           concatenate_15[0][0]             
__________________________________________________________________________________________________
dense_45 (Dense)                (None, 1024)         65537024    flatten_615[0][0]                
__________________________________________________________________________________________________
dropout_30 (Dropout)            (None, 1024)         0           dense_45[0][0]                   
__________________________________________________________________________________________________
dense_46 (Dense)                (None, 1024)         1049600     dropout_30[0][0]                 
__________________________________________________________________________________________________
dropout_31 (Dropout)            (None, 1024)         0           dense_46[0][0]                   
__________________________________________________________________________________________________
dense_47 (Dense)                (None, 5)            5125        dropout_31[0][0]                 
==================================================================================================
Total params: 67,072,997
Trainable params: 67,072,997
Non-trainable params: 0
__________________________________________________________________________________________________
start loading dataset ...
load "Big" complete
load "Long" complete
load "Mitotic" complete
…
avg': {'precision': 0.8050262342570477, 'recall': 0.7343473877720452, 'f1-score': 0.6598364058958559, 'support': 260.0}, 'weighted avg': {'precision': 0.8114813888403137, 'recall': 0.7307692307692307, 'f1-score': 0.6553791803915754, 'support': 260.0}}
Model: "model_31"
__________________________________________________________________________________________________
Layer (type)                    Output Shape         Param #     Connected to                     
==================================================================================================
input_16 (InputLayer)           [(None, 150, 150, 7) 0                                            
__________________________________________________________________________________________________
lambda_75 (Lambda)              (None, 150, 150, 7)  0           input_16[0][0]                   
__________________________________________________________________________________________________
conv2d_255 (Conv2D)             (None, 150, 150, 32) 2048        lambda_75[0][0]                  
__________________________________________________________________________________________________
max_pooling2d_255 (MaxPooling2D (None, 75, 75, 32)   0           conv2d_255[0][0]                 
__________________________________________________________________________________________________
lambda_76 (Lambda)              (None, 75, 75, 7)    0           lambda_75[0][0]                  
__________________________________________________________________________________________________
lambda_77 (Lambda)              (None, 75, 75, 7)    0           lambda_75[0][0]                  
__________________________________________________________________________________________________
lambda_78 (Lambda)              (None, 75, 75, 7)    0           lambda_75[0][0]                  
__________________________________________________________________________________________________
lambda_79 (Lambda)              (None, 75, 75, 7)    0           lambda_75[0][0]                  
__________________________________________________________________________________________________
conv2d_256 (Conv2D)             (None, 75, 75, 32)   9248        max_pooling2d_255[0][0]          
__________________________________________________________________________________________________
conv2d_259 (Conv2D)             (None, 75, 75, 32)   2048        lambda_76[0][0]                  
__________________________________________________________________________________________________
conv2d_262 (Conv2D)             (None, 75, 75, 32)   2048        lambda_77[0][0]                  
__________________________________________________________________________________________________
conv2d_265 (Conv2D)             (None, 75, 75, 32)   2048        lambda_78[0][0]                  
__________________________________________________________________________________________________
conv2d_268 (Conv2D)             (None, 75, 75, 32)   2048        lambda_79[0][0]                  
__________________________________________________________________________________________________
max_pooling2d_256 (MaxPooling2D (None, 38, 38, 32)   0           conv2d_256[0][0]                 
__________________________________________________________________________________________________
max_pooling2d_259 (MaxPooling2D (None, 38, 38, 32)   0           conv2d_259[0][0]                 
__________________________________________________________________________________________________
max_pooling2d_262 (MaxPooling2D (None, 38, 38, 32)   0           conv2d_262[0][0]                 
__________________________________________________________________________________________________
max_pooling2d_265 (MaxPooling2D (None, 38, 38, 32)   0           conv2d_265[0][0]                 
__________________________________________________________________________________________________
max_pooling2d_268 (MaxPooling2D (None, 38, 38, 32)   0           conv2d_268[0][0]                 
__________________________________________________________________________________________________
conv2d_257 (Conv2D)             (None, 38, 38, 64)   18496       max_pooling2d_256[0][0]          
__________________________________________________________________________________________________
conv2d_260 (Conv2D)             (None, 38, 38, 64)   18496       max_pooling2d_259[0][0]          
__________________________________________________________________________________________________
conv2d_263 (Conv2D)             (None, 38, 38, 64)   18496       max_pooling2d_262[0][0]          
__________________________________________________________________________________________________
conv2d_266 (Conv2D)             (None, 38, 38, 64)   18496       max_pooling2d_265[0][0]          
__________________________________________________________________________________________________
conv2d_269 (Conv2D)             (None, 38, 38, 64)   18496       max_pooling2d_268[0][0]          
__________________________________________________________________________________________________
max_pooling2d_257 (MaxPooling2D (None, 19, 19, 64)   0           conv2d_257[0][0]                 
__________________________________________________________________________________________________
max_pooling2d_260 (MaxPooling2D (None, 19, 19, 64)   0           conv2d_260[0][0]                 
__________________________________________________________________________________________________
max_pooling2d_263 (MaxPooling2D (None, 19, 19, 64)   0           conv2d_263[0][0]                 
__________________________________________________________________________________________________
max_pooling2d_266 (MaxPooling2D (None, 19, 19, 64)   0           conv2d_266[0][0]                 
__________________________________________________________________________________________________
max_pooling2d_269 (MaxPooling2D (None, 19, 19, 64)   0           conv2d_269[0][0]                 
__________________________________________________________________________________________________
conv2d_258 (Conv2D)             (None, 19, 19, 128)  73856       max_pooling2d_257[0][0]          
__________________________________________________________________________________________________
conv2d_261 (Conv2D)             (None, 19, 19, 128)  73856       max_pooling2d_260[0][0]          
__________________________________________________________________________________________________
conv2d_264 (Conv2D)             (None, 19, 19, 128)  73856       max_pooling2d_263[0][0]          
__________________________________________________________________________________________________
conv2d_267 (Conv2D)             (None, 19, 19, 128)  73856       max_pooling2d_266[0][0]          
__________________________________________________________________________________________________
conv2d_270 (Conv2D)             (None, 19, 19, 128)  73856       max_pooling2d_269[0][0]          
__________________________________________________________________________________________________
max_pooling2d_258 (MaxPooling2D (None, 10, 10, 128)  0           conv2d_258[0][0]                 
__________________________________________________________________________________________________
max_pooling2d_261 (MaxPooling2D (None, 10, 10, 128)  0           conv2d_261[0][0]                 
__________________________________________________________________________________________________
max_pooling2d_264 (MaxPooling2D (None, 10, 10, 128)  0           conv2d_264[0][0]                 
__________________________________________________________________________________________________
max_pooling2d_267 (MaxPooling2D (None, 10, 10, 128)  0           conv2d_267[0][0]                 
__________________________________________________________________________________________________
max_pooling2d_270 (MaxPooling2D (None, 10, 10, 128)  0           conv2d_270[0][0]                 
__________________________________________________________________________________________________
concatenate_15 (Concatenate)    (None, 10, 10, 640)  0           max_pooling2d_258[0][0]          
                                                                 max_pooling2d_261[0][0]          
                                                                 max_pooling2d_264[0][0]          
                                                                 max_pooling2d_267[0][0]          
                                                                 max_pooling2d_270[0][0]          
__________________________________________________________________________________________________
flatten_615 (Flatten)           (None, 64000)        0           concatenate_15[0][0]             
==================================================================================================
Total params: 481,248
Trainable params: 481,248
Non-trainable params: 0
__________________________________________________________________________________________________
get cnn model
(1052, 64000)
[131.74126 107.23882   0.        0.      217.83824   0.        0.
…
