program start
seed set
[PhysicalDevice(name='/physical_device:GPU:0', device_type='GPU')]
Model: "model_32"
__________________________________________________________________________________________________
Layer (type)                    Output Shape         Param #     Connected to                     
==================================================================================================
input_17 (InputLayer)           [(None, 150, 150, 7) 0                                            
__________________________________________________________________________________________________
lambda_80 (Lambda)              (None, 150, 150, 7)  0           input_17[0][0]                   
__________________________________________________________________________________________________
conv2d_272 (Conv2D)             (None, 150, 150, 32) 2048        lambda_80[0][0]                  
__________________________________________________________________________________________________
max_pooling2d_272 (MaxPooling2D (None, 75, 75, 32)   0           conv2d_272[0][0]                 
__________________________________________________________________________________________________
lambda_81 (Lambda)              (None, 75, 75, 7)    0           lambda_80[0][0]                  
__________________________________________________________________________________________________
lambda_82 (Lambda)              (None, 75, 75, 7)    0           lambda_80[0][0]                  
__________________________________________________________________________________________________
lambda_83 (Lambda)              (None, 75, 75, 7)    0           lambda_80[0][0]                  
__________________________________________________________________________________________________
lambda_84 (Lambda)              (None, 75, 75, 7)    0           lambda_80[0][0]                  
__________________________________________________________________________________________________
conv2d_273 (Conv2D)             (None, 75, 75, 32)   9248        max_pooling2d_272[0][0]          
__________________________________________________________________________________________________
conv2d_276 (Conv2D)             (None, 75, 75, 32)   2048        lambda_81[0][0]                  
__________________________________________________________________________________________________
conv2d_279 (Conv2D)             (None, 75, 75, 32)   2048        lambda_82[0][0]                  
__________________________________________________________________________________________________
conv2d_282 (Conv2D)             (None, 75, 75, 32)   2048        lambda_83[0][0]                  
__________________________________________________________________________________________________
conv2d_285 (Conv2D)             (None, 75, 75, 32)   2048        lambda_84[0][0]                  
__________________________________________________________________________________________________
max_pooling2d_273 (MaxPooling2D (None, 38, 38, 32)   0           conv2d_273[0][0]                 
__________________________________________________________________________________________________
max_pooling2d_276 (MaxPooling2D (None, 38, 38, 32)   0           conv2d_276[0][0]                 
__________________________________________________________________________________________________
max_pooling2d_279 (MaxPooling2D (None, 38, 38, 32)   0           conv2d_279[0][0]                 
__________________________________________________________________________________________________
max_pooling2d_282 (MaxPooling2D (None, 38, 38, 32)   0           conv2d_282[0][0]                 
__________________________________________________________________________________________________
max_pooling2d_285 (MaxPooling2D (None, 38, 38, 32)   0           conv2d_285[0][0]                 
__________________________________________________________________________________________________
conv2d_274 (Conv2D)             (None, 38, 38, 64)   18496       max_pooling2d_273[0][0]          
__________________________________________________________________________________________________
conv2d_277 (Conv2D)             (None, 38, 38, 64)   18496       max_pooling2d_276[0][0]          
__________________________________________________________________________________________________
conv2d_280 (Conv2D)             (None, 38, 38, 64)   18496       max_pooling2d_279[0][0]          
__________________________________________________________________________________________________
conv2d_283 (Conv2D)             (None, 38, 38, 64)   18496       max_pooling2d_282[0][0]          
__________________________________________________________________________________________________
conv2d_286 (Conv2D)             (None, 38, 38, 64)   18496       max_pooling2d_285[0][0]          
__________________________________________________________________________________________________
max_pooling2d_274 (MaxPooling2D (None, 19, 19, 64)   0           conv2d_274[0][0]                 
__________________________________________________________________________________________________
max_pooling2d_277 (MaxPooling2D (None, 19, 19, 64)   0           conv2d_277[0][0]                 
__________________________________________________________________________________________________
max_pooling2d_280 (MaxPooling2D (None, 19, 19, 64)   0           conv2d_280[0][0]                 
__________________________________________________________________________________________________
max_pooling2d_283 (MaxPooling2D (None, 19, 19, 64)   0           conv2d_283[0][0]                 
__________________________________________________________________________________________________
max_pooling2d_286 (MaxPooling2D (None, 19, 19, 64)   0           conv2d_286[0][0]                 
__________________________________________________________________________________________________
conv2d_275 (Conv2D)             (None, 19, 19, 128)  73856       max_pooling2d_274[0][0]          
__________________________________________________________________________________________________
conv2d_278 (Conv2D)             (None, 19, 19, 128)  73856       max_pooling2d_277[0][0]          
__________________________________________________________________________________________________
conv2d_281 (Conv2D)             (None, 19, 19, 128)  73856       max_pooling2d_280[0][0]          
__________________________________________________________________________________________________
conv2d_284 (Conv2D)             (None, 19, 19, 128)  73856       max_pooling2d_283[0][0]          
__________________________________________________________________________________________________
conv2d_287 (Conv2D)             (None, 19, 19, 128)  73856       max_pooling2d_286[0][0]          
__________________________________________________________________________________________________
max_pooling2d_275 (MaxPooling2D (None, 10, 10, 128)  0           conv2d_275[0][0]                 
__________________________________________________________________________________________________
max_pooling2d_278 (MaxPooling2D (None, 10, 10, 128)  0           conv2d_278[0][0]                 
__________________________________________________________________________________________________
max_pooling2d_281 (MaxPooling2D (None, 10, 10, 128)  0           conv2d_281[0][0]                 
__________________________________________________________________________________________________
max_pooling2d_284 (MaxPooling2D (None, 10, 10, 128)  0           conv2d_284[0][0]                 
__________________________________________________________________________________________________
max_pooling2d_287 (MaxPooling2D (None, 10, 10, 128)  0           conv2d_287[0][0]                 
__________________________________________________________________________________________________
concatenate_16 (Concatenate)    (None, 10, 10, 640)  0           max_pooling2d_275[0][0]          
                                                                 max_pooling2d_278[0][0]          
                                                                 max_pooling2d_281[0][0]          
                                                                 max_pooling2d_284[0][0]          
                                                                 max_pooling2d_287[0][0]          
__________________________________________________________________________________________________
flatten_656 (Flatten)           (None, 64000)        0           concatenate_16[0][0]             
__________________________________________________________________________________________________
dense_48 (Dense)                (None, 1024)         65537024    flatten_656[0][0]                
__________________________________________________________________________________________________
dropout_32 (Dropout)            (None, 1024)         0           dense_48[0][0]                   
__________________________________________________________________________________________________
dense_49 (Dense)                (None, 1024)         1049600     dropout_32[0][0]                 
__________________________________________________________________________________________________
dropout_33 (Dropout)            (None, 1024)         0           dense_49[0][0]                   
__________________________________________________________________________________________________
dense_50 (Dense)                (None, 5)            5125        dropout_33[0][0]                 
==================================================================================================
Total params: 67,072,997
Trainable params: 67,072,997
Non-trainable params: 0
__________________________________________________________________________________________________
start loading dataset ...
load "Big" complete
load "Long" complete
load "Mitotic" complete
…
           3       0.97      0.66      0.79        56
           4       0.93      0.25      0.39        56

    accuracy                           0.75       260
   macro avg       0.80      0.76      0.71       260
weighted avg       0.83      0.75      0.72       260

Model: "model_33"
__________________________________________________________________________________________________
Layer (type)                    Output Shape         Param #     Connected to                     
==================================================================================================
input_17 (InputLayer)           [(None, 150, 150, 7) 0                                            
__________________________________________________________________________________________________
lambda_80 (Lambda)              (None, 150, 150, 7)  0           input_17[0][0]                   
__________________________________________________________________________________________________
conv2d_272 (Conv2D)             (None, 150, 150, 32) 2048        lambda_80[0][0]                  
__________________________________________________________________________________________________
max_pooling2d_272 (MaxPooling2D (None, 75, 75, 32)   0           conv2d_272[0][0]                 
__________________________________________________________________________________________________
lambda_81 (Lambda)              (None, 75, 75, 7)    0           lambda_80[0][0]                  
__________________________________________________________________________________________________
lambda_82 (Lambda)              (None, 75, 75, 7)    0           lambda_80[0][0]                  
__________________________________________________________________________________________________
lambda_83 (Lambda)              (None, 75, 75, 7)    0           lambda_80[0][0]                  
__________________________________________________________________________________________________
lambda_84 (Lambda)              (None, 75, 75, 7)    0           lambda_80[0][0]                  
__________________________________________________________________________________________________
conv2d_273 (Conv2D)             (None, 75, 75, 32)   9248        max_pooling2d_272[0][0]          
__________________________________________________________________________________________________
conv2d_276 (Conv2D)             (None, 75, 75, 32)   2048        lambda_81[0][0]                  
__________________________________________________________________________________________________
conv2d_279 (Conv2D)             (None, 75, 75, 32)   2048        lambda_82[0][0]                  
__________________________________________________________________________________________________
conv2d_282 (Conv2D)             (None, 75, 75, 32)   2048        lambda_83[0][0]                  
__________________________________________________________________________________________________
conv2d_285 (Conv2D)             (None, 75, 75, 32)   2048        lambda_84[0][0]                  
__________________________________________________________________________________________________
max_pooling2d_273 (MaxPooling2D (None, 38, 38, 32)   0           conv2d_273[0][0]                 
__________________________________________________________________________________________________
max_pooling2d_276 (MaxPooling2D (None, 38, 38, 32)   0           conv2d_276[0][0]                 
__________________________________________________________________________________________________
max_pooling2d_279 (MaxPooling2D (None, 38, 38, 32)   0           conv2d_279[0][0]                 
__________________________________________________________________________________________________
max_pooling2d_282 (MaxPooling2D (None, 38, 38, 32)   0           conv2d_282[0][0]                 
__________________________________________________________________________________________________
max_pooling2d_285 (MaxPooling2D (None, 38, 38, 32)   0           conv2d_285[0][0]                 
__________________________________________________________________________________________________
conv2d_274 (Conv2D)             (None, 38, 38, 64)   18496       max_pooling2d_273[0][0]          
__________________________________________________________________________________________________
conv2d_277 (Conv2D)             (None, 38, 38, 64)   18496       max_pooling2d_276[0][0]          
__________________________________________________________________________________________________
conv2d_280 (Conv2D)             (None, 38, 38, 64)   18496       max_pooling2d_279[0][0]          
__________________________________________________________________________________________________
conv2d_283 (Conv2D)             (None, 38, 38, 64)   18496       max_pooling2d_282[0][0]          
__________________________________________________________________________________________________
conv2d_286 (Conv2D)             (None, 38, 38, 64)   18496       max_pooling2d_285[0][0]          
__________________________________________________________________________________________________
max_pooling2d_274 (MaxPooling2D (None, 19, 19, 64)   0           conv2d_274[0][0]                 
__________________________________________________________________________________________________
max_pooling2d_277 (MaxPooling2D (None, 19, 19, 64)   0           conv2d_277[0][0]                 
__________________________________________________________________________________________________
max_pooling2d_280 (MaxPooling2D (None, 19, 19, 64)   0           conv2d_280[0][0]                 
__________________________________________________________________________________________________
max_pooling2d_283 (MaxPooling2D (None, 19, 19, 64)   0           conv2d_283[0][0]                 
__________________________________________________________________________________________________
max_pooling2d_286 (MaxPooling2D (None, 19, 19, 64)   0           conv2d_286[0][0]                 
__________________________________________________________________________________________________
conv2d_275 (Conv2D)             (None, 19, 19, 128)  73856       max_pooling2d_274[0][0]          
__________________________________________________________________________________________________
conv2d_278 (Conv2D)             (None, 19, 19, 128)  73856       max_pooling2d_277[0][0]          
__________________________________________________________________________________________________
conv2d_281 (Conv2D)             (None, 19, 19, 128)  73856       max_pooling2d_280[0][0]          
__________________________________________________________________________________________________
conv2d_284 (Conv2D)             (None, 19, 19, 128)  73856       max_pooling2d_283[0][0]          
__________________________________________________________________________________________________
conv2d_287 (Conv2D)             (None, 19, 19, 128)  73856       max_pooling2d_286[0][0]          
__________________________________________________________________________________________________
max_pooling2d_275 (MaxPooling2D (None, 10, 10, 128)  0           conv2d_275[0][0]                 
__________________________________________________________________________________________________
max_pooling2d_278 (MaxPooling2D (None, 10, 10, 128)  0           conv2d_278[0][0]                 
__________________________________________________________________________________________________
max_pooling2d_281 (MaxPooling2D (None, 10, 10, 128)  0           conv2d_281[0][0]                 
__________________________________________________________________________________________________
max_pooling2d_284 (MaxPooling2D (None, 10, 10, 128)  0           conv2d_284[0][0]                 
__________________________________________________________________________________________________
max_pooling2d_287 (MaxPooling2D (None, 10, 10, 128)  0           conv2d_287[0][0]                 
__________________________________________________________________________________________________
concatenate_16 (Concatenate)    (None, 10, 10, 640)  0           max_pooling2d_275[0][0]          
                                                                 max_pooling2d_278[0][0]          
                                                                 max_pooling2d_281[0][0]          
                                                                 max_pooling2d_284[0][0]          
                                                                 max_pooling2d_287[0][0]          
__________________________________________________________________________________________________
flatten_656 (Flatten)           (None, 64000)        0           concatenate_16[0][0]             
==================================================================================================
Total params: 481,248
Trainable params: 481,248
Non-trainable params: 0
__________________________________________________________________________________________________
get cnn model
(1052, 64000)
[  0.        34.339684   0.       104.52723  153.00613  352.80188
…
