program start
seed set
[PhysicalDevice(name='/physical_device:GPU:0', device_type='GPU')]
Model: "model_36"
__________________________________________________________________________________________________
Layer (type)                    Output Shape         Param #     Connected to                     
==================================================================================================
input_19 (InputLayer)           [(None, 150, 150, 7) 0                                            
__________________________________________________________________________________________________
lambda_90 (Lambda)              (None, 150, 150, 7)  0           input_19[0][0]                   
__________________________________________________________________________________________________
conv2d_306 (Conv2D)             (None, 150, 150, 32) 2048        lambda_90[0][0]                  
__________________________________________________________________________________________________
max_pooling2d_306 (MaxPooling2D (None, 75, 75, 32)   0           conv2d_306[0][0]                 
__________________________________________________________________________________________________
lambda_91 (Lambda)              (None, 75, 75, 7)    0           lambda_90[0][0]                  
__________________________________________________________________________________________________
lambda_92 (Lambda)              (None, 75, 75, 7)    0           lambda_90[0][0]                  
__________________________________________________________________________________________________
lambda_93 (Lambda)              (None, 75, 75, 7)    0           lambda_90[0][0]                  
__________________________________________________________________________________________________
lambda_94 (Lambda)              (None, 75, 75, 7)    0           lambda_90[0][0]                  
__________________________________________________________________________________________________
conv2d_307 (Conv2D)             (None, 75, 75, 32)   9248        max_pooling2d_306[0][0]          
__________________________________________________________________________________________________
conv2d_310 (Conv2D)             (None, 75, 75, 32)   2048        lambda_91[0][0]                  
__________________________________________________________________________________________________
conv2d_313 (Conv2D)             (None, 75, 75, 32)   2048        lambda_92[0][0]                  
__________________________________________________________________________________________________
conv2d_316 (Conv2D)             (None, 75, 75, 32)   2048        lambda_93[0][0]                  
__________________________________________________________________________________________________
conv2d_319 (Conv2D)             (None, 75, 75, 32)   2048        lambda_94[0][0]                  
__________________________________________________________________________________________________
max_pooling2d_307 (MaxPooling2D (None, 38, 38, 32)   0           conv2d_307[0][0]                 
__________________________________________________________________________________________________
max_pooling2d_310 (MaxPooling2D (None, 38, 38, 32)   0           conv2d_310[0][0]                 
__________________________________________________________________________________________________
max_pooling2d_313 (MaxPooling2D (None, 38, 38, 32)   0           conv2d_313[0][0]                 
__________________________________________________________________________________________________
max_pooling2d_316 (MaxPooling2D (None, 38, 38, 32)   0           conv2d_316[0][0]                 
__________________________________________________________________________________________________
max_pooling2d_319 (MaxPooling2D (None, 38, 38, 32)   0           conv2d_319[0][0]                 
__________________________________________________________________________________________________
conv2d_308 (Conv2D)             (None, 38, 38, 64)   18496       max_pooling2d_307[0][0]          
__________________________________________________________________________________________________
conv2d_311 (Conv2D)             (None, 38, 38, 64)   18496       max_pooling2d_310[0][0]          
__________________________________________________________________________________________________
conv2d_314 (Conv2D)             (None, 38, 38, 64)   18496       max_pooling2d_313[0][0]          
__________________________________________________________________________________________________
conv2d_317 (Conv2D)             (None, 38, 38, 64)   18496       max_pooling2d_316[0][0]          
__________________________________________________________________________________________________
conv2d_320 (Conv2D)             (None, 38, 38, 64)   18496       max_pooling2d_319[0][0]          
__________________________________________________________________________________________________
max_pooling2d_308 (MaxPooling2D (None, 19, 19, 64)   0           conv2d_308[0][0]                 
__________________________________________________________________________________________________
max_pooling2d_311 (MaxPooling2D (None, 19, 19, 64)   0           conv2d_311[0][0]                 
__________________________________________________________________________________________________
max_pooling2d_314 (MaxPooling2D (None, 19, 19, 64)   0           conv2d_314[0][0]                 
__________________________________________________________________________________________________
max_pooling2d_317 (MaxPooling2D (None, 19, 19, 64)   0           conv2d_317[0][0]                 
__________________________________________________________________________________________________
max_pooling2d_320 (MaxPooling2D (None, 19, 19, 64)   0           conv2d_320[0][0]                 
__________________________________________________________________________________________________
conv2d_309 (Conv2D)             (None, 19, 19, 128)  73856       max_pooling2d_308[0][0]          
__________________________________________________________________________________________________
conv2d_312 (Conv2D)             (None, 19, 19, 128)  73856       max_pooling2d_311[0][0]          
__________________________________________________________________________________________________
conv2d_315 (Conv2D)             (None, 19, 19, 128)  73856       max_pooling2d_314[0][0]          
__________________________________________________________________________________________________
conv2d_318 (Conv2D)             (None, 19, 19, 128)  73856       max_pooling2d_317[0][0]          
__________________________________________________________________________________________________
conv2d_321 (Conv2D)             (None, 19, 19, 128)  73856       max_pooling2d_320[0][0]          
__________________________________________________________________________________________________
max_pooling2d_309 (MaxPooling2D (None, 10, 10, 128)  0           conv2d_309[0][0]                 
__________________________________________________________________________________________________
max_pooling2d_312 (MaxPooling2D (None, 10, 10, 128)  0           conv2d_312[0][0]                 
__________________________________________________________________________________________________
max_pooling2d_315 (MaxPooling2D (None, 10, 10, 128)  0           conv2d_315[0][0]                 
__________________________________________________________________________________________________
max_pooling2d_318 (MaxPooling2D (None, 10, 10, 128)  0           conv2d_318[0][0]                 
__________________________________________________________________________________________________
max_pooling2d_321 (MaxPooling2D (None, 10, 10, 128)  0           conv2d_321[0][0]                 
__________________________________________________________________________________________________
concatenate_18 (Concatenate)    (None, 10, 10, 640)  0           max_pooling2d_309[0][0]          
                                                                 max_pooling2d_312[0][0]          
                                                                 max_pooling2d_315[0][0]          
                                                                 max_pooling2d_318[0][0]          
                                                                 max_pooling2d_321[0][0]          
__________________________________________________________________________________________________
flatten_738 (Flatten)           (None, 64000)        0           concatenate_18[0][0]             
__________________________________________________________________________________________________
dense_54 (Dense)                (None, 1024)         65537024    flatten_738[0][0]                
__________________________________________________________________________________________________
dropout_36 (Dropout)            (None, 1024)         0           dense_54[0][0]                   
__________________________________________________________________________________________________
dense_55 (Dense)                (None, 1024)         1049600     dropout_36[0][0]                 
__________________________________________________________________________________________________
dropout_37 (Dropout)            (None, 1024)         0           dense_55[0][0]                   
__________________________________________________________________________________________________
dense_56 (Dense)                (None, 5)            5125        dropout_37[0][0]                 
==================================================================================================
Total params: 67,072,997
Trainable params: 67,072,997
Non-trainable params: 0
__________________________________________________________________________________________________
start loading dataset ...
load "Big" complete
load "Long" complete
load "Mitotic" complete
…
avg': {'precision': 0.8051021967953575, 'recall': 0.7659891478384631, 'f1-score': 0.7202021310378748, 'support': 260.0}, 'weighted avg': {'precision': 0.8295136762604614, 'recall': 0.7615384615384615, 'f1-score': 0.7277831342886008, 'support': 260.0}}
Model: "model_37"
__________________________________________________________________________________________________
Layer (type)                    Output Shape         Param #     Connected to                     
==================================================================================================
input_19 (InputLayer)           [(None, 150, 150, 7) 0                                            
__________________________________________________________________________________________________
lambda_90 (Lambda)              (None, 150, 150, 7)  0           input_19[0][0]                   
__________________________________________________________________________________________________
conv2d_306 (Conv2D)             (None, 150, 150, 32) 2048        lambda_90[0][0]                  
__________________________________________________________________________________________________
max_pooling2d_306 (MaxPooling2D (None, 75, 75, 32)   0           conv2d_306[0][0]                 
__________________________________________________________________________________________________
lambda_91 (Lambda)              (None, 75, 75, 7)    0           lambda_90[0][0]                  
__________________________________________________________________________________________________
lambda_92 (Lambda)              (None, 75, 75, 7)    0           lambda_90[0][0]                  
__________________________________________________________________________________________________
lambda_93 (Lambda)              (None, 75, 75, 7)    0           lambda_90[0][0]                  
__________________________________________________________________________________________________
lambda_94 (Lambda)              (None, 75, 75, 7)    0           lambda_90[0][0]                  
__________________________________________________________________________________________________
conv2d_307 (Conv2D)             (None, 75, 75, 32)   9248        max_pooling2d_306[0][0]          
__________________________________________________________________________________________________
conv2d_310 (Conv2D)             (None, 75, 75, 32)   2048        lambda_91[0][0]                  
__________________________________________________________________________________________________
conv2d_313 (Conv2D)             (None, 75, 75, 32)   2048        lambda_92[0][0]                  
__________________________________________________________________________________________________
conv2d_316 (Conv2D)             (None, 75, 75, 32)   2048        lambda_93[0][0]                  
__________________________________________________________________________________________________
conv2d_319 (Conv2D)             (None, 75, 75, 32)   2048        lambda_94[0][0]                  
__________________________________________________________________________________________________
max_pooling2d_307 (MaxPooling2D (None, 38, 38, 32)   0           conv2d_307[0][0]                 
__________________________________________________________________________________________________
max_pooling2d_310 (MaxPooling2D (None, 38, 38, 32)   0           conv2d_310[0][0]                 
__________________________________________________________________________________________________
max_pooling2d_313 (MaxPooling2D (None, 38, 38, 32)   0           conv2d_313[0][0]                 
__________________________________________________________________________________________________
max_pooling2d_316 (MaxPooling2D (None, 38, 38, 32)   0           conv2d_316[0][0]                 
__________________________________________________________________________________________________
max_pooling2d_319 (MaxPooling2D (None, 38, 38, 32)   0           conv2d_319[0][0]                 
__________________________________________________________________________________________________
conv2d_308 (Conv2D)             (None, 38, 38, 64)   18496       max_pooling2d_307[0][0]          
__________________________________________________________________________________________________
conv2d_311 (Conv2D)             (None, 38, 38, 64)   18496       max_pooling2d_310[0][0]          
__________________________________________________________________________________________________
conv2d_314 (Conv2D)             (None, 38, 38, 64)   18496       max_pooling2d_313[0][0]          
__________________________________________________________________________________________________
conv2d_317 (Conv2D)             (None, 38, 38, 64)   18496       max_pooling2d_316[0][0]          
__________________________________________________________________________________________________
conv2d_320 (Conv2D)             (None, 38, 38, 64)   18496       max_pooling2d_319[0][0]          
__________________________________________________________________________________________________
max_pooling2d_308 (MaxPooling2D (None, 19, 19, 64)   0           conv2d_308[0][0]                 
__________________________________________________________________________________________________
max_pooling2d_311 (MaxPooling2D (None, 19, 19, 64)   0           conv2d_311[0][0]                 
__________________________________________________________________________________________________
max_pooling2d_314 (MaxPooling2D (None, 19, 19, 64)   0           conv2d_314[0][0]                 
__________________________________________________________________________________________________
max_pooling2d_317 (MaxPooling2D (None, 19, 19, 64)   0           conv2d_317[0][0]                 
__________________________________________________________________________________________________
max_pooling2d_320 (MaxPooling2D (None, 19, 19, 64)   0           conv2d_320[0][0]                 
__________________________________________________________________________________________________
conv2d_309 (Conv2D)             (None, 19, 19, 128)  73856       max_pooling2d_308[0][0]          
__________________________________________________________________________________________________
conv2d_312 (Conv2D)             (None, 19, 19, 128)  73856       max_pooling2d_311[0][0]          
__________________________________________________________________________________________________
conv2d_315 (Conv2D)             (None, 19, 19, 128)  73856       max_pooling2d_314[0][0]          
__________________________________________________________________________________________________
conv2d_318 (Conv2D)             (None, 19, 19, 128)  73856       max_pooling2d_317[0][0]          
__________________________________________________________________________________________________
conv2d_321 (Conv2D)             (None, 19, 19, 128)  73856       max_pooling2d_320[0][0]          
__________________________________________________________________________________________________
max_pooling2d_309 (MaxPooling2D (None, 10, 10, 128)  0           conv2d_309[0][0]                 
__________________________________________________________________________________________________
max_pooling2d_312 (MaxPooling2D (None, 10, 10, 128)  0           conv2d_312[0][0]                 
__________________________________________________________________________________________________
max_pooling2d_315 (MaxPooling2D (None, 10, 10, 128)  0           conv2d_315[0][0]                 
__________________________________________________________________________________________________
max_pooling2d_318 (MaxPooling2D (None, 10, 10, 128)  0           conv2d_318[0][0]                 
__________________________________________________________________________________________________
max_pooling2d_321 (MaxPooling2D (None, 10, 10, 128)  0           conv2d_321[0][0]                 
__________________________________________________________________________________________________
concatenate_18 (Concatenate)    (None, 10, 10, 640)  0           max_pooling2d_309[0][0]          
                                                                 max_pooling2d_312[0][0]          
                                                                 max_pooling2d_315[0][0]          
                                                                 max_pooling2d_318[0][0]          
                                                                 max_pooling2d_321[0][0]          
__________________________________________________________________________________________________
flatten_738 (Flatten)           (None, 64000)        0           concatenate_18[0][0]             
==================================================================================================
Total params: 481,248
Trainable params: 481,248
Non-trainable params: 0
__________________________________________________________________________________________________
get cnn model
(1052, 64000)
[ 48.126335  326.59677    84.85595     0.         84.14027     5.8602147
…
