program start
seed set
[PhysicalDevice(name='/physical_device:GPU:0', device_type='GPU')]
Model: "model_46"
__________________________________________________________________________________________________
Layer (type)                    Output Shape         Param #     Connected to                     
==================================================================================================
input_24 (InputLayer)           [(None, 150, 150, 7) 0                                            
__________________________________________________________________________________________________
lambda_115 (Lambda)             (None, 150, 150, 7)  0           input_24[0][0]                   
__________________________________________________________________________________________________
conv2d_391 (Conv2D)             (None, 150, 150, 32) 2048        lambda_115[0][0]                 
__________________________________________________________________________________________________
max_pooling2d_391 (MaxPooling2D (None, 75, 75, 32)   0           conv2d_391[0][0]                 
__________________________________________________________________________________________________
lambda_116 (Lambda)             (None, 75, 75, 7)    0           lambda_115[0][0]                 
__________________________________________________________________________________________________
lambda_117 (Lambda)             (None, 75, 75, 7)    0           lambda_115[0][0]                 
__________________________________________________________________________________________________
lambda_118 (Lambda)             (None, 75, 75, 7)    0           lambda_115[0][0]                 
__________________________________________________________________________________________________
lambda_119 (Lambda)             (None, 75, 75, 7)    0           lambda_115[0][0]                 
__________________________________________________________________________________________________
conv2d_392 (Conv2D)             (None, 75, 75, 32)   9248        max_pooling2d_391[0][0]          
__________________________________________________________________________________________________
conv2d_395 (Conv2D)             (None, 75, 75, 32)   2048        lambda_116[0][0]                 
__________________________________________________________________________________________________
conv2d_398 (Conv2D)             (None, 75, 75, 32)   2048        lambda_117[0][0]                 
__________________________________________________________________________________________________
conv2d_401 (Conv2D)             (None, 75, 75, 32)   2048        lambda_118[0][0]                 
__________________________________________________________________________________________________
conv2d_404 (Conv2D)             (None, 75, 75, 32)   2048        lambda_119[0][0]                 
__________________________________________________________________________________________________
max_pooling2d_392 (MaxPooling2D (None, 38, 38, 32)   0           conv2d_392[0][0]                 
__________________________________________________________________________________________________
max_pooling2d_395 (MaxPooling2D (None, 38, 38, 32)   0           conv2d_395[0][0]                 
__________________________________________________________________________________________________
max_pooling2d_398 (MaxPooling2D (None, 38, 38, 32)   0           conv2d_398[0][0]                 
__________________________________________________________________________________________________
max_pooling2d_401 (MaxPooling2D (None, 38, 38, 32)   0           conv2d_401[0][0]                 
__________________________________________________________________________________________________
max_pooling2d_404 (MaxPooling2D (None, 38, 38, 32)   0           conv2d_404[0][0]                 
__________________________________________________________________________________________________
conv2d_393 (Conv2D)             (None, 38, 38, 64)   18496       max_pooling2d_392[0][0]          
__________________________________________________________________________________________________
conv2d_396 (Conv2D)             (None, 38, 38, 64)   18496       max_pooling2d_395[0][0]          
__________________________________________________________________________________________________
conv2d_399 (Conv2D)             (None, 38, 38, 64)   18496       max_pooling2d_398[0][0]          
__________________________________________________________________________________________________
conv2d_402 (Conv2D)             (None, 38, 38, 64)   18496       max_pooling2d_401[0][0]          
__________________________________________________________________________________________________
conv2d_405 (Conv2D)             (None, 38, 38, 64)   18496       max_pooling2d_404[0][0]          
__________________________________________________________________________________________________
max_pooling2d_393 (MaxPooling2D (None, 19, 19, 64)   0           conv2d_393[0][0]                 
__________________________________________________________________________________________________
max_pooling2d_396 (MaxPooling2D (None, 19, 19, 64)   0           conv2d_396[0][0]                 
__________________________________________________________________________________________________
max_pooling2d_399 (MaxPooling2D (None, 19, 19, 64)   0           conv2d_399[0][0]                 
__________________________________________________________________________________________________
max_pooling2d_402 (MaxPooling2D (None, 19, 19, 64)   0           conv2d_402[0][0]                 
__________________________________________________________________________________________________
max_pooling2d_405 (MaxPooling2D (None, 19, 19, 64)   0           conv2d_405[0][0]                 
__________________________________________________________________________________________________
conv2d_394 (Conv2D)             (None, 19, 19, 128)  73856       max_pooling2d_393[0][0]          
__________________________________________________________________________________________________
conv2d_397 (Conv2D)             (None, 19, 19, 128)  73856       max_pooling2d_396[0][0]          
__________________________________________________________________________________________________
conv2d_400 (Conv2D)             (None, 19, 19, 128)  73856       max_pooling2d_399[0][0]          
__________________________________________________________________________________________________
conv2d_403 (Conv2D)             (None, 19, 19, 128)  73856       max_pooling2d_402[0][0]          
__________________________________________________________________________________________________
conv2d_406 (Conv2D)             (None, 19, 19, 128)  73856       max_pooling2d_405[0][0]          
__________________________________________________________________________________________________
max_pooling2d_394 (MaxPooling2D (None, 10, 10, 128)  0           conv2d_394[0][0]                 
__________________________________________________________________________________________________
max_pooling2d_397 (MaxPooling2D (None, 10, 10, 128)  0           conv2d_397[0][0]                 
__________________________________________________________________________________________________
max_pooling2d_400 (MaxPooling2D (None, 10, 10, 128)  0           conv2d_400[0][0]                 
__________________________________________________________________________________________________
max_pooling2d_403 (MaxPooling2D (None, 10, 10, 128)  0           conv2d_403[0][0]                 
__________________________________________________________________________________________________
max_pooling2d_406 (MaxPooling2D (None, 10, 10, 128)  0           conv2d_406[0][0]                 
__________________________________________________________________________________________________
concatenate_23 (Concatenate)    (None, 10, 10, 640)  0           max_pooling2d_394[0][0]          
                                                                 max_pooling2d_397[0][0]          
                                                                 max_pooling2d_400[0][0]          
                                                                 max_pooling2d_403[0][0]          
                                                                 max_pooling2d_406[0][0]          
__________________________________________________________________________________________________
flatten_943 (Flatten)           (None, 64000)        0           concatenate_23[0][0]             
__________________________________________________________________________________________________
dense_69 (Dense)                (None, 1024)         65537024    flatten_943[0][0]                
__________________________________________________________________________________________________
dropout_46 (Dropout)            (None, 1024)         0           dense_69[0][0]                   
__________________________________________________________________________________________________
dense_70 (Dense)                (None, 1024)         1049600     dropout_46[0][0]                 
__________________________________________________________________________________________________
dropout_47 (Dropout)            (None, 1024)         0           dense_70[0][0]                   
__________________________________________________________________________________________________
dense_71 (Dense)                (None, 5)            5125        dropout_47[0][0]                 
==================================================================================================
Total params: 67,072,997
Trainable params: 67,072,997
Non-trainable params: 0
__________________________________________________________________________________________________
start loading dataset ...
load "Big" complete
load "Long" complete
load "Mitotic" complete
…
           3       0.57      0.93      0.70        56
           4       0.88      0.25      0.39        56

    accuracy                           0.70       260
   macro avg       0.75      0.69      0.67       260
weighted avg       0.75      0.70      0.67       260

Model: "model_47"
__________________________________________________________________________________________________
Layer (type)                    Output Shape         Param #     Connected to                     
==================================================================================================
input_24 (InputLayer)           [(None, 150, 150, 7) 0                                            
__________________________________________________________________________________________________
lambda_115 (Lambda)             (None, 150, 150, 7)  0           input_24[0][0]                   
__________________________________________________________________________________________________
conv2d_391 (Conv2D)             (None, 150, 150, 32) 2048        lambda_115[0][0]                 
__________________________________________________________________________________________________
max_pooling2d_391 (MaxPooling2D (None, 75, 75, 32)   0           conv2d_391[0][0]                 
__________________________________________________________________________________________________
lambda_116 (Lambda)             (None, 75, 75, 7)    0           lambda_115[0][0]                 
__________________________________________________________________________________________________
lambda_117 (Lambda)             (None, 75, 75, 7)    0           lambda_115[0][0]                 
__________________________________________________________________________________________________
lambda_118 (Lambda)             (None, 75, 75, 7)    0           lambda_115[0][0]                 
__________________________________________________________________________________________________
lambda_119 (Lambda)             (None, 75, 75, 7)    0           lambda_115[0][0]                 
__________________________________________________________________________________________________
conv2d_392 (Conv2D)             (None, 75, 75, 32)   9248        max_pooling2d_391[0][0]          
__________________________________________________________________________________________________
conv2d_395 (Conv2D)             (None, 75, 75, 32)   2048        lambda_116[0][0]                 
__________________________________________________________________________________________________
conv2d_398 (Conv2D)             (None, 75, 75, 32)   2048        lambda_117[0][0]                 
__________________________________________________________________________________________________
conv2d_401 (Conv2D)             (None, 75, 75, 32)   2048        lambda_118[0][0]                 
__________________________________________________________________________________________________
conv2d_404 (Conv2D)             (None, 75, 75, 32)   2048        lambda_119[0][0]                 
__________________________________________________________________________________________________
max_pooling2d_392 (MaxPooling2D (None, 38, 38, 32)   0           conv2d_392[0][0]                 
__________________________________________________________________________________________________
max_pooling2d_395 (MaxPooling2D (None, 38, 38, 32)   0           conv2d_395[0][0]                 
__________________________________________________________________________________________________
max_pooling2d_398 (MaxPooling2D (None, 38, 38, 32)   0           conv2d_398[0][0]                 
__________________________________________________________________________________________________
max_pooling2d_401 (MaxPooling2D (None, 38, 38, 32)   0           conv2d_401[0][0]                 
__________________________________________________________________________________________________
max_pooling2d_404 (MaxPooling2D (None, 38, 38, 32)   0           conv2d_404[0][0]                 
__________________________________________________________________________________________________
conv2d_393 (Conv2D)             (None, 38, 38, 64)   18496       max_pooling2d_392[0][0]          
__________________________________________________________________________________________________
conv2d_396 (Conv2D)             (None, 38, 38, 64)   18496       max_pooling2d_395[0][0]          
__________________________________________________________________________________________________
conv2d_399 (Conv2D)             (None, 38, 38, 64)   18496       max_pooling2d_398[0][0]          
__________________________________________________________________________________________________
conv2d_402 (Conv2D)             (None, 38, 38, 64)   18496       max_pooling2d_401[0][0]          
__________________________________________________________________________________________________
conv2d_405 (Conv2D)             (None, 38, 38, 64)   18496       max_pooling2d_404[0][0]          
__________________________________________________________________________________________________
max_pooling2d_393 (MaxPooling2D (None, 19, 19, 64)   0           conv2d_393[0][0]                 
__________________________________________________________________________________________________
max_pooling2d_396 (MaxPooling2D (None, 19, 19, 64)   0           conv2d_396[0][0]                 
__________________________________________________________________________________________________
max_pooling2d_399 (MaxPooling2D (None, 19, 19, 64)   0           conv2d_399[0][0]                 
__________________________________________________________________________________________________
max_pooling2d_402 (MaxPooling2D (None, 19, 19, 64)   0           conv2d_402[0][0]                 
__________________________________________________________________________________________________
max_pooling2d_405 (MaxPooling2D (None, 19, 19, 64)   0           conv2d_405[0][0]                 
__________________________________________________________________________________________________
conv2d_394 (Conv2D)             (None, 19, 19, 128)  73856       max_pooling2d_393[0][0]          
__________________________________________________________________________________________________
conv2d_397 (Conv2D)             (None, 19, 19, 128)  73856       max_pooling2d_396[0][0]          
__________________________________________________________________________________________________
conv2d_400 (Conv2D)             (None, 19, 19, 128)  73856       max_pooling2d_399[0][0]          
__________________________________________________________________________________________________
conv2d_403 (Conv2D)             (None, 19, 19, 128)  73856       max_pooling2d_402[0][0]          
__________________________________________________________________________________________________
conv2d_406 (Conv2D)             (None, 19, 19, 128)  73856       max_pooling2d_405[0][0]          
__________________________________________________________________________________________________
max_pooling2d_394 (MaxPooling2D (None, 10, 10, 128)  0           conv2d_394[0][0]                 
__________________________________________________________________________________________________
max_pooling2d_397 (MaxPooling2D (None, 10, 10, 128)  0           conv2d_397[0][0]                 
__________________________________________________________________________________________________
max_pooling2d_400 (MaxPooling2D (None, 10, 10, 128)  0           conv2d_400[0][0]                 
__________________________________________________________________________________________________
max_pooling2d_403 (MaxPooling2D (None, 10, 10, 128)  0           conv2d_403[0][0]                 
__________________________________________________________________________________________________
max_pooling2d_406 (MaxPooling2D (None, 10, 10, 128)  0           conv2d_406[0][0]                 
__________________________________________________________________________________________________
concatenate_23 (Concatenate)    (None, 10, 10, 640)  0           max_pooling2d_394[0][0]          
                                                                 max_pooling2d_397[0][0]          
                                                                 max_pooling2d_400[0][0]          
                                                                 max_pooling2d_403[0][0]          
                                                                 max_pooling2d_406[0][0]          
__________________________________________________________________________________________________
flatten_943 (Flatten)           (None, 64000)        0           concatenate_23[0][0]             
==================================================================================================
Total params: 481,248
Trainable params: 481,248
Non-trainable params: 0
__________________________________________________________________________________________________
get cnn model
(1052, 64000)
[164.68755  146.0912   114.21161   19.579493 289.44992  163.77579
…
