program start
seed set
[PhysicalDevice(name='/physical_device:GPU:0', device_type='GPU')]
Model: "model_48"
__________________________________________________________________________________________________
Layer (type)                    Output Shape         Param #     Connected to                     
==================================================================================================
input_25 (InputLayer)           [(None, 150, 150, 7) 0                                            
__________________________________________________________________________________________________
lambda_120 (Lambda)             (None, 150, 150, 7)  0           input_25[0][0]                   
__________________________________________________________________________________________________
conv2d_408 (Conv2D)             (None, 150, 150, 32) 2048        lambda_120[0][0]                 
__________________________________________________________________________________________________
max_pooling2d_408 (MaxPooling2D (None, 75, 75, 32)   0           conv2d_408[0][0]                 
__________________________________________________________________________________________________
lambda_121 (Lambda)             (None, 75, 75, 7)    0           lambda_120[0][0]                 
__________________________________________________________________________________________________
lambda_122 (Lambda)             (None, 75, 75, 7)    0           lambda_120[0][0]                 
__________________________________________________________________________________________________
lambda_123 (Lambda)             (None, 75, 75, 7)    0           lambda_120[0][0]                 
__________________________________________________________________________________________________
lambda_124 (Lambda)             (None, 75, 75, 7)    0           lambda_120[0][0]                 
__________________________________________________________________________________________________
conv2d_409 (Conv2D)             (None, 75, 75, 32)   9248        max_pooling2d_408[0][0]          
__________________________________________________________________________________________________
conv2d_412 (Conv2D)             (None, 75, 75, 32)   2048        lambda_121[0][0]                 
__________________________________________________________________________________________________
conv2d_415 (Conv2D)             (None, 75, 75, 32)   2048        lambda_122[0][0]                 
__________________________________________________________________________________________________
conv2d_418 (Conv2D)             (None, 75, 75, 32)   2048        lambda_123[0][0]                 
__________________________________________________________________________________________________
conv2d_421 (Conv2D)             (None, 75, 75, 32)   2048        lambda_124[0][0]                 
__________________________________________________________________________________________________
max_pooling2d_409 (MaxPooling2D (None, 38, 38, 32)   0           conv2d_409[0][0]                 
__________________________________________________________________________________________________
max_pooling2d_412 (MaxPooling2D (None, 38, 38, 32)   0           conv2d_412[0][0]                 
__________________________________________________________________________________________________
max_pooling2d_415 (MaxPooling2D (None, 38, 38, 32)   0           conv2d_415[0][0]                 
__________________________________________________________________________________________________
max_pooling2d_418 (MaxPooling2D (None, 38, 38, 32)   0           conv2d_418[0][0]                 
__________________________________________________________________________________________________
max_pooling2d_421 (MaxPooling2D (None, 38, 38, 32)   0           conv2d_421[0][0]                 
__________________________________________________________________________________________________
conv2d_410 (Conv2D)             (None, 38, 38, 64)   18496       max_pooling2d_409[0][0]          
__________________________________________________________________________________________________
conv2d_413 (Conv2D)             (None, 38, 38, 64)   18496       max_pooling2d_412[0][0]          
__________________________________________________________________________________________________
conv2d_416 (Conv2D)             (None, 38, 38, 64)   18496       max_pooling2d_415[0][0]          
__________________________________________________________________________________________________
conv2d_419 (Conv2D)             (None, 38, 38, 64)   18496       max_pooling2d_418[0][0]          
__________________________________________________________________________________________________
conv2d_422 (Conv2D)             (None, 38, 38, 64)   18496       max_pooling2d_421[0][0]          
__________________________________________________________________________________________________
max_pooling2d_410 (MaxPooling2D (None, 19, 19, 64)   0           conv2d_410[0][0]                 
__________________________________________________________________________________________________
max_pooling2d_413 (MaxPooling2D (None, 19, 19, 64)   0           conv2d_413[0][0]                 
__________________________________________________________________________________________________
max_pooling2d_416 (MaxPooling2D (None, 19, 19, 64)   0           conv2d_416[0][0]                 
__________________________________________________________________________________________________
max_pooling2d_419 (MaxPooling2D (None, 19, 19, 64)   0           conv2d_419[0][0]                 
__________________________________________________________________________________________________
max_pooling2d_422 (MaxPooling2D (None, 19, 19, 64)   0           conv2d_422[0][0]                 
__________________________________________________________________________________________________
conv2d_411 (Conv2D)             (None, 19, 19, 128)  73856       max_pooling2d_410[0][0]          
__________________________________________________________________________________________________
conv2d_414 (Conv2D)             (None, 19, 19, 128)  73856       max_pooling2d_413[0][0]          
__________________________________________________________________________________________________
conv2d_417 (Conv2D)             (None, 19, 19, 128)  73856       max_pooling2d_416[0][0]          
__________________________________________________________________________________________________
conv2d_420 (Conv2D)             (None, 19, 19, 128)  73856       max_pooling2d_419[0][0]          
__________________________________________________________________________________________________
conv2d_423 (Conv2D)             (None, 19, 19, 128)  73856       max_pooling2d_422[0][0]          
__________________________________________________________________________________________________
max_pooling2d_411 (MaxPooling2D (None, 10, 10, 128)  0           conv2d_411[0][0]                 
__________________________________________________________________________________________________
max_pooling2d_414 (MaxPooling2D (None, 10, 10, 128)  0           conv2d_414[0][0]                 
__________________________________________________________________________________________________
max_pooling2d_417 (MaxPooling2D (None, 10, 10, 128)  0           conv2d_417[0][0]                 
__________________________________________________________________________________________________
max_pooling2d_420 (MaxPooling2D (None, 10, 10, 128)  0           conv2d_420[0][0]                 
__________________________________________________________________________________________________
max_pooling2d_423 (MaxPooling2D (None, 10, 10, 128)  0           conv2d_423[0][0]                 
__________________________________________________________________________________________________
concatenate_24 (Concatenate)    (None, 10, 10, 640)  0           max_pooling2d_411[0][0]          
                                                                 max_pooling2d_414[0][0]          
                                                                 max_pooling2d_417[0][0]          
                                                                 max_pooling2d_420[0][0]          
                                                                 max_pooling2d_423[0][0]          
__________________________________________________________________________________________________
flatten_984 (Flatten)           (None, 64000)        0           concatenate_24[0][0]             
__________________________________________________________________________________________________
dense_72 (Dense)                (None, 1024)         65537024    flatten_984[0][0]                
__________________________________________________________________________________________________
dropout_48 (Dropout)            (None, 1024)         0           dense_72[0][0]                   
__________________________________________________________________________________________________
dense_73 (Dense)                (None, 1024)         1049600     dropout_48[0][0]                 
__________________________________________________________________________________________________
dropout_49 (Dropout)            (None, 1024)         0           dense_73[0][0]                   
__________________________________________________________________________________________________
dense_74 (Dense)                (None, 5)            5125        dropout_49[0][0]                 
==================================================================================================
Total params: 67,072,997
Trainable params: 67,072,997
Non-trainable params: 0
__________________________________________________________________________________________________
start loading dataset ...
load "Big" complete
load "Long" complete
load "Mitotic" complete
…
avg': {'precision': 0.8160471722127088, 'recall': 0.7767375318745182, 'f1-score': 0.7452419783460348, 'support': 260.0}, 'weighted avg': {'precision': 0.8284714644648636, 'recall': 0.7807692307692308, 'f1-score': 0.7511436799904252, 'support': 260.0}}
Model: "model_49"
__________________________________________________________________________________________________
Layer (type)                    Output Shape         Param #     Connected to                     
==================================================================================================
input_25 (InputLayer)           [(None, 150, 150, 7) 0                                            
__________________________________________________________________________________________________
lambda_120 (Lambda)             (None, 150, 150, 7)  0           input_25[0][0]                   
__________________________________________________________________________________________________
conv2d_408 (Conv2D)             (None, 150, 150, 32) 2048        lambda_120[0][0]                 
__________________________________________________________________________________________________
max_pooling2d_408 (MaxPooling2D (None, 75, 75, 32)   0           conv2d_408[0][0]                 
__________________________________________________________________________________________________
lambda_121 (Lambda)             (None, 75, 75, 7)    0           lambda_120[0][0]                 
__________________________________________________________________________________________________
lambda_122 (Lambda)             (None, 75, 75, 7)    0           lambda_120[0][0]                 
__________________________________________________________________________________________________
lambda_123 (Lambda)             (None, 75, 75, 7)    0           lambda_120[0][0]                 
__________________________________________________________________________________________________
lambda_124 (Lambda)             (None, 75, 75, 7)    0           lambda_120[0][0]                 
__________________________________________________________________________________________________
conv2d_409 (Conv2D)             (None, 75, 75, 32)   9248        max_pooling2d_408[0][0]          
__________________________________________________________________________________________________
conv2d_412 (Conv2D)             (None, 75, 75, 32)   2048        lambda_121[0][0]                 
__________________________________________________________________________________________________
conv2d_415 (Conv2D)             (None, 75, 75, 32)   2048        lambda_122[0][0]                 
__________________________________________________________________________________________________
conv2d_418 (Conv2D)             (None, 75, 75, 32)   2048        lambda_123[0][0]                 
__________________________________________________________________________________________________
conv2d_421 (Conv2D)             (None, 75, 75, 32)   2048        lambda_124[0][0]                 
__________________________________________________________________________________________________
max_pooling2d_409 (MaxPooling2D (None, 38, 38, 32)   0           conv2d_409[0][0]                 
__________________________________________________________________________________________________
max_pooling2d_412 (MaxPooling2D (None, 38, 38, 32)   0           conv2d_412[0][0]                 
__________________________________________________________________________________________________
max_pooling2d_415 (MaxPooling2D (None, 38, 38, 32)   0           conv2d_415[0][0]                 
__________________________________________________________________________________________________
max_pooling2d_418 (MaxPooling2D (None, 38, 38, 32)   0           conv2d_418[0][0]                 
__________________________________________________________________________________________________
max_pooling2d_421 (MaxPooling2D (None, 38, 38, 32)   0           conv2d_421[0][0]                 
__________________________________________________________________________________________________
conv2d_410 (Conv2D)             (None, 38, 38, 64)   18496       max_pooling2d_409[0][0]          
__________________________________________________________________________________________________
conv2d_413 (Conv2D)             (None, 38, 38, 64)   18496       max_pooling2d_412[0][0]          
__________________________________________________________________________________________________
conv2d_416 (Conv2D)             (None, 38, 38, 64)   18496       max_pooling2d_415[0][0]          
__________________________________________________________________________________________________
conv2d_419 (Conv2D)             (None, 38, 38, 64)   18496       max_pooling2d_418[0][0]          
__________________________________________________________________________________________________
conv2d_422 (Conv2D)             (None, 38, 38, 64)   18496       max_pooling2d_421[0][0]          
__________________________________________________________________________________________________
max_pooling2d_410 (MaxPooling2D (None, 19, 19, 64)   0           conv2d_410[0][0]                 
__________________________________________________________________________________________________
max_pooling2d_413 (MaxPooling2D (None, 19, 19, 64)   0           conv2d_413[0][0]                 
__________________________________________________________________________________________________
max_pooling2d_416 (MaxPooling2D (None, 19, 19, 64)   0           conv2d_416[0][0]                 
__________________________________________________________________________________________________
max_pooling2d_419 (MaxPooling2D (None, 19, 19, 64)   0           conv2d_419[0][0]                 
__________________________________________________________________________________________________
max_pooling2d_422 (MaxPooling2D (None, 19, 19, 64)   0           conv2d_422[0][0]                 
__________________________________________________________________________________________________
conv2d_411 (Conv2D)             (None, 19, 19, 128)  73856       max_pooling2d_410[0][0]          
__________________________________________________________________________________________________
conv2d_414 (Conv2D)             (None, 19, 19, 128)  73856       max_pooling2d_413[0][0]          
__________________________________________________________________________________________________
conv2d_417 (Conv2D)             (None, 19, 19, 128)  73856       max_pooling2d_416[0][0]          
__________________________________________________________________________________________________
conv2d_420 (Conv2D)             (None, 19, 19, 128)  73856       max_pooling2d_419[0][0]          
__________________________________________________________________________________________________
conv2d_423 (Conv2D)             (None, 19, 19, 128)  73856       max_pooling2d_422[0][0]          
__________________________________________________________________________________________________
max_pooling2d_411 (MaxPooling2D (None, 10, 10, 128)  0           conv2d_411[0][0]                 
__________________________________________________________________________________________________
max_pooling2d_414 (MaxPooling2D (None, 10, 10, 128)  0           conv2d_414[0][0]                 
__________________________________________________________________________________________________
max_pooling2d_417 (MaxPooling2D (None, 10, 10, 128)  0           conv2d_417[0][0]                 
__________________________________________________________________________________________________
max_pooling2d_420 (MaxPooling2D (None, 10, 10, 128)  0           conv2d_420[0][0]                 
__________________________________________________________________________________________________
max_pooling2d_423 (MaxPooling2D (None, 10, 10, 128)  0           conv2d_423[0][0]                 
__________________________________________________________________________________________________
concatenate_24 (Concatenate)    (None, 10, 10, 640)  0           max_pooling2d_411[0][0]          
                                                                 max_pooling2d_414[0][0]          
                                                                 max_pooling2d_417[0][0]          
                                                                 max_pooling2d_420[0][0]          
                                                                 max_pooling2d_423[0][0]          
__________________________________________________________________________________________________
flatten_984 (Flatten)           (None, 64000)        0           concatenate_24[0][0]             
==================================================================================================
Total params: 481,248
Trainable params: 481,248
Non-trainable params: 0
__________________________________________________________________________________________________
get cnn model
(1052, 64000)
[117.949844 209.06815  343.41498    0.         0.         0.
…
