program start
seed set
[PhysicalDevice(name='/physical_device:GPU:0', device_type='GPU')]
Model: "model_50"
__________________________________________________________________________________________________
Layer (type)                    Output Shape         Param #     Connected to                     
==================================================================================================
input_26 (InputLayer)           [(None, 150, 150, 7) 0                                            
__________________________________________________________________________________________________
lambda_125 (Lambda)             (None, 150, 150, 7)  0           input_26[0][0]                   
__________________________________________________________________________________________________
conv2d_425 (Conv2D)             (None, 150, 150, 32) 2048        lambda_125[0][0]                 
__________________________________________________________________________________________________
max_pooling2d_425 (MaxPooling2D (None, 75, 75, 32)   0           conv2d_425[0][0]                 
__________________________________________________________________________________________________
lambda_126 (Lambda)             (None, 75, 75, 7)    0           lambda_125[0][0]                 
__________________________________________________________________________________________________
lambda_127 (Lambda)             (None, 75, 75, 7)    0           lambda_125[0][0]                 
__________________________________________________________________________________________________
lambda_128 (Lambda)             (None, 75, 75, 7)    0           lambda_125[0][0]                 
__________________________________________________________________________________________________
lambda_129 (Lambda)             (None, 75, 75, 7)    0           lambda_125[0][0]                 
__________________________________________________________________________________________________
conv2d_426 (Conv2D)             (None, 75, 75, 32)   9248        max_pooling2d_425[0][0]          
__________________________________________________________________________________________________
conv2d_429 (Conv2D)             (None, 75, 75, 32)   2048        lambda_126[0][0]                 
__________________________________________________________________________________________________
conv2d_432 (Conv2D)             (None, 75, 75, 32)   2048        lambda_127[0][0]                 
__________________________________________________________________________________________________
conv2d_435 (Conv2D)             (None, 75, 75, 32)   2048        lambda_128[0][0]                 
__________________________________________________________________________________________________
conv2d_438 (Conv2D)             (None, 75, 75, 32)   2048        lambda_129[0][0]                 
__________________________________________________________________________________________________
max_pooling2d_426 (MaxPooling2D (None, 38, 38, 32)   0           conv2d_426[0][0]                 
__________________________________________________________________________________________________
max_pooling2d_429 (MaxPooling2D (None, 38, 38, 32)   0           conv2d_429[0][0]                 
__________________________________________________________________________________________________
max_pooling2d_432 (MaxPooling2D (None, 38, 38, 32)   0           conv2d_432[0][0]                 
__________________________________________________________________________________________________
max_pooling2d_435 (MaxPooling2D (None, 38, 38, 32)   0           conv2d_435[0][0]                 
__________________________________________________________________________________________________
max_pooling2d_438 (MaxPooling2D (None, 38, 38, 32)   0           conv2d_438[0][0]                 
__________________________________________________________________________________________________
conv2d_427 (Conv2D)             (None, 38, 38, 64)   18496       max_pooling2d_426[0][0]          
__________________________________________________________________________________________________
conv2d_430 (Conv2D)             (None, 38, 38, 64)   18496       max_pooling2d_429[0][0]          
__________________________________________________________________________________________________
conv2d_433 (Conv2D)             (None, 38, 38, 64)   18496       max_pooling2d_432[0][0]          
__________________________________________________________________________________________________
conv2d_436 (Conv2D)             (None, 38, 38, 64)   18496       max_pooling2d_435[0][0]          
__________________________________________________________________________________________________
conv2d_439 (Conv2D)             (None, 38, 38, 64)   18496       max_pooling2d_438[0][0]          
__________________________________________________________________________________________________
max_pooling2d_427 (MaxPooling2D (None, 19, 19, 64)   0           conv2d_427[0][0]                 
__________________________________________________________________________________________________
max_pooling2d_430 (MaxPooling2D (None, 19, 19, 64)   0           conv2d_430[0][0]                 
__________________________________________________________________________________________________
max_pooling2d_433 (MaxPooling2D (None, 19, 19, 64)   0           conv2d_433[0][0]                 
__________________________________________________________________________________________________
max_pooling2d_436 (MaxPooling2D (None, 19, 19, 64)   0           conv2d_436[0][0]                 
__________________________________________________________________________________________________
max_pooling2d_439 (MaxPooling2D (None, 19, 19, 64)   0           conv2d_439[0][0]                 
__________________________________________________________________________________________________
conv2d_428 (Conv2D)             (None, 19, 19, 128)  73856       max_pooling2d_427[0][0]          
__________________________________________________________________________________________________
conv2d_431 (Conv2D)             (None, 19, 19, 128)  73856       max_pooling2d_430[0][0]          
__________________________________________________________________________________________________
conv2d_434 (Conv2D)             (None, 19, 19, 128)  73856       max_pooling2d_433[0][0]          
__________________________________________________________________________________________________
conv2d_437 (Conv2D)             (None, 19, 19, 128)  73856       max_pooling2d_436[0][0]          
__________________________________________________________________________________________________
conv2d_440 (Conv2D)             (None, 19, 19, 128)  73856       max_pooling2d_439[0][0]          
__________________________________________________________________________________________________
max_pooling2d_428 (MaxPooling2D (None, 10, 10, 128)  0           conv2d_428[0][0]                 
__________________________________________________________________________________________________
max_pooling2d_431 (MaxPooling2D (None, 10, 10, 128)  0           conv2d_431[0][0]                 
__________________________________________________________________________________________________
max_pooling2d_434 (MaxPooling2D (None, 10, 10, 128)  0           conv2d_434[0][0]                 
__________________________________________________________________________________________________
max_pooling2d_437 (MaxPooling2D (None, 10, 10, 128)  0           conv2d_437[0][0]                 
__________________________________________________________________________________________________
max_pooling2d_440 (MaxPooling2D (None, 10, 10, 128)  0           conv2d_440[0][0]                 
__________________________________________________________________________________________________
concatenate_25 (Concatenate)    (None, 10, 10, 640)  0           max_pooling2d_428[0][0]          
                                                                 max_pooling2d_431[0][0]          
                                                                 max_pooling2d_434[0][0]          
                                                                 max_pooling2d_437[0][0]          
                                                                 max_pooling2d_440[0][0]          
__________________________________________________________________________________________________
flatten_1025 (Flatten)          (None, 64000)        0           concatenate_25[0][0]             
__________________________________________________________________________________________________
dense_75 (Dense)                (None, 1024)         65537024    flatten_1025[0][0]               
__________________________________________________________________________________________________
dropout_50 (Dropout)            (None, 1024)         0           dense_75[0][0]                   
__________________________________________________________________________________________________
dense_76 (Dense)                (None, 1024)         1049600     dropout_50[0][0]                 
__________________________________________________________________________________________________
dropout_51 (Dropout)            (None, 1024)         0           dense_76[0][0]                   
__________________________________________________________________________________________________
dense_77 (Dense)                (None, 5)            5125        dropout_51[0][0]                 
==================================================================================================
Total params: 67,072,997
Trainable params: 67,072,997
Non-trainable params: 0
__________________________________________________________________________________________________
start loading dataset ...
load "Big" complete
load "Long" complete
load "Mitotic" complete
…
           3       0.98      0.88      0.92        56
           4       1.00      0.04      0.07        56

    accuracy                           0.75       260
   macro avg       0.82      0.77      0.69       260
weighted avg       0.83      0.75      0.68       260

Model: "model_51"
__________________________________________________________________________________________________
Layer (type)                    Output Shape         Param #     Connected to                     
==================================================================================================
input_26 (InputLayer)           [(None, 150, 150, 7) 0                                            
__________________________________________________________________________________________________
lambda_125 (Lambda)             (None, 150, 150, 7)  0           input_26[0][0]                   
__________________________________________________________________________________________________
conv2d_425 (Conv2D)             (None, 150, 150, 32) 2048        lambda_125[0][0]                 
__________________________________________________________________________________________________
max_pooling2d_425 (MaxPooling2D (None, 75, 75, 32)   0           conv2d_425[0][0]                 
__________________________________________________________________________________________________
lambda_126 (Lambda)             (None, 75, 75, 7)    0           lambda_125[0][0]                 
__________________________________________________________________________________________________
lambda_127 (Lambda)             (None, 75, 75, 7)    0           lambda_125[0][0]                 
__________________________________________________________________________________________________
lambda_128 (Lambda)             (None, 75, 75, 7)    0           lambda_125[0][0]                 
__________________________________________________________________________________________________
lambda_129 (Lambda)             (None, 75, 75, 7)    0           lambda_125[0][0]                 
__________________________________________________________________________________________________
conv2d_426 (Conv2D)             (None, 75, 75, 32)   9248        max_pooling2d_425[0][0]          
__________________________________________________________________________________________________
conv2d_429 (Conv2D)             (None, 75, 75, 32)   2048        lambda_126[0][0]                 
__________________________________________________________________________________________________
conv2d_432 (Conv2D)             (None, 75, 75, 32)   2048        lambda_127[0][0]                 
__________________________________________________________________________________________________
conv2d_435 (Conv2D)             (None, 75, 75, 32)   2048        lambda_128[0][0]                 
__________________________________________________________________________________________________
conv2d_438 (Conv2D)             (None, 75, 75, 32)   2048        lambda_129[0][0]                 
__________________________________________________________________________________________________
max_pooling2d_426 (MaxPooling2D (None, 38, 38, 32)   0           conv2d_426[0][0]                 
__________________________________________________________________________________________________
max_pooling2d_429 (MaxPooling2D (None, 38, 38, 32)   0           conv2d_429[0][0]                 
__________________________________________________________________________________________________
max_pooling2d_432 (MaxPooling2D (None, 38, 38, 32)   0           conv2d_432[0][0]                 
__________________________________________________________________________________________________
max_pooling2d_435 (MaxPooling2D (None, 38, 38, 32)   0           conv2d_435[0][0]                 
__________________________________________________________________________________________________
max_pooling2d_438 (MaxPooling2D (None, 38, 38, 32)   0           conv2d_438[0][0]                 
__________________________________________________________________________________________________
conv2d_427 (Conv2D)             (None, 38, 38, 64)   18496       max_pooling2d_426[0][0]          
__________________________________________________________________________________________________
conv2d_430 (Conv2D)             (None, 38, 38, 64)   18496       max_pooling2d_429[0][0]          
__________________________________________________________________________________________________
conv2d_433 (Conv2D)             (None, 38, 38, 64)   18496       max_pooling2d_432[0][0]          
__________________________________________________________________________________________________
conv2d_436 (Conv2D)             (None, 38, 38, 64)   18496       max_pooling2d_435[0][0]          
__________________________________________________________________________________________________
conv2d_439 (Conv2D)             (None, 38, 38, 64)   18496       max_pooling2d_438[0][0]          
__________________________________________________________________________________________________
max_pooling2d_427 (MaxPooling2D (None, 19, 19, 64)   0           conv2d_427[0][0]                 
__________________________________________________________________________________________________
max_pooling2d_430 (MaxPooling2D (None, 19, 19, 64)   0           conv2d_430[0][0]                 
__________________________________________________________________________________________________
max_pooling2d_433 (MaxPooling2D (None, 19, 19, 64)   0           conv2d_433[0][0]                 
__________________________________________________________________________________________________
max_pooling2d_436 (MaxPooling2D (None, 19, 19, 64)   0           conv2d_436[0][0]                 
__________________________________________________________________________________________________
max_pooling2d_439 (MaxPooling2D (None, 19, 19, 64)   0           conv2d_439[0][0]                 
__________________________________________________________________________________________________
conv2d_428 (Conv2D)             (None, 19, 19, 128)  73856       max_pooling2d_427[0][0]          
__________________________________________________________________________________________________
conv2d_431 (Conv2D)             (None, 19, 19, 128)  73856       max_pooling2d_430[0][0]          
__________________________________________________________________________________________________
conv2d_434 (Conv2D)             (None, 19, 19, 128)  73856       max_pooling2d_433[0][0]          
__________________________________________________________________________________________________
conv2d_437 (Conv2D)             (None, 19, 19, 128)  73856       max_pooling2d_436[0][0]          
__________________________________________________________________________________________________
conv2d_440 (Conv2D)             (None, 19, 19, 128)  73856       max_pooling2d_439[0][0]          
__________________________________________________________________________________________________
max_pooling2d_428 (MaxPooling2D (None, 10, 10, 128)  0           conv2d_428[0][0]                 
__________________________________________________________________________________________________
max_pooling2d_431 (MaxPooling2D (None, 10, 10, 128)  0           conv2d_431[0][0]                 
__________________________________________________________________________________________________
max_pooling2d_434 (MaxPooling2D (None, 10, 10, 128)  0           conv2d_434[0][0]                 
__________________________________________________________________________________________________
max_pooling2d_437 (MaxPooling2D (None, 10, 10, 128)  0           conv2d_437[0][0]                 
__________________________________________________________________________________________________
max_pooling2d_440 (MaxPooling2D (None, 10, 10, 128)  0           conv2d_440[0][0]                 
__________________________________________________________________________________________________
concatenate_25 (Concatenate)    (None, 10, 10, 640)  0           max_pooling2d_428[0][0]          
                                                                 max_pooling2d_431[0][0]          
                                                                 max_pooling2d_434[0][0]          
                                                                 max_pooling2d_437[0][0]          
                                                                 max_pooling2d_440[0][0]          
__________________________________________________________________________________________________
flatten_1025 (Flatten)          (None, 64000)        0           concatenate_25[0][0]             
==================================================================================================
Total params: 481,248
Trainable params: 481,248
Non-trainable params: 0
__________________________________________________________________________________________________
get cnn model
(1052, 64000)
[406.47726  271.18564  264.01102    0.        94.75097    0.
…
