program start
seed set
[PhysicalDevice(name='/physical_device:GPU:0', device_type='GPU')]
Model: "model_4"
__________________________________________________________________________________________________
Layer (type)                    Output Shape         Param #     Connected to                     
==================================================================================================
input_3 (InputLayer)            [(None, 150, 150, 7) 0                                            
__________________________________________________________________________________________________
lambda_10 (Lambda)              (None, 150, 150, 7)  0           input_3[0][0]                    
__________________________________________________________________________________________________
conv2d_34 (Conv2D)              (None, 150, 150, 32) 2048        lambda_10[0][0]                  
__________________________________________________________________________________________________
max_pooling2d_34 (MaxPooling2D) (None, 75, 75, 32)   0           conv2d_34[0][0]                  
__________________________________________________________________________________________________
lambda_11 (Lambda)              (None, 75, 75, 7)    0           lambda_10[0][0]                  
__________________________________________________________________________________________________
lambda_12 (Lambda)              (None, 75, 75, 7)    0           lambda_10[0][0]                  
__________________________________________________________________________________________________
lambda_13 (Lambda)              (None, 75, 75, 7)    0           lambda_10[0][0]                  
__________________________________________________________________________________________________
lambda_14 (Lambda)              (None, 75, 75, 7)    0           lambda_10[0][0]                  
__________________________________________________________________________________________________
conv2d_35 (Conv2D)              (None, 75, 75, 32)   9248        max_pooling2d_34[0][0]           
__________________________________________________________________________________________________
conv2d_38 (Conv2D)              (None, 75, 75, 32)   2048        lambda_11[0][0]                  
__________________________________________________________________________________________________
conv2d_41 (Conv2D)              (None, 75, 75, 32)   2048        lambda_12[0][0]                  
__________________________________________________________________________________________________
conv2d_44 (Conv2D)              (None, 75, 75, 32)   2048        lambda_13[0][0]                  
__________________________________________________________________________________________________
conv2d_47 (Conv2D)              (None, 75, 75, 32)   2048        lambda_14[0][0]                  
__________________________________________________________________________________________________
max_pooling2d_35 (MaxPooling2D) (None, 38, 38, 32)   0           conv2d_35[0][0]                  
__________________________________________________________________________________________________
max_pooling2d_38 (MaxPooling2D) (None, 38, 38, 32)   0           conv2d_38[0][0]                  
__________________________________________________________________________________________________
max_pooling2d_41 (MaxPooling2D) (None, 38, 38, 32)   0           conv2d_41[0][0]                  
__________________________________________________________________________________________________
max_pooling2d_44 (MaxPooling2D) (None, 38, 38, 32)   0           conv2d_44[0][0]                  
__________________________________________________________________________________________________
max_pooling2d_47 (MaxPooling2D) (None, 38, 38, 32)   0           conv2d_47[0][0]                  
__________________________________________________________________________________________________
conv2d_36 (Conv2D)              (None, 38, 38, 64)   18496       max_pooling2d_35[0][0]           
__________________________________________________________________________________________________
conv2d_39 (Conv2D)              (None, 38, 38, 64)   18496       max_pooling2d_38[0][0]           
__________________________________________________________________________________________________
conv2d_42 (Conv2D)              (None, 38, 38, 64)   18496       max_pooling2d_41[0][0]           
__________________________________________________________________________________________________
conv2d_45 (Conv2D)              (None, 38, 38, 64)   18496       max_pooling2d_44[0][0]           
__________________________________________________________________________________________________
conv2d_48 (Conv2D)              (None, 38, 38, 64)   18496       max_pooling2d_47[0][0]           
__________________________________________________________________________________________________
max_pooling2d_36 (MaxPooling2D) (None, 19, 19, 64)   0           conv2d_36[0][0]                  
__________________________________________________________________________________________________
max_pooling2d_39 (MaxPooling2D) (None, 19, 19, 64)   0           conv2d_39[0][0]                  
__________________________________________________________________________________________________
max_pooling2d_42 (MaxPooling2D) (None, 19, 19, 64)   0           conv2d_42[0][0]                  
__________________________________________________________________________________________________
max_pooling2d_45 (MaxPooling2D) (None, 19, 19, 64)   0           conv2d_45[0][0]                  
__________________________________________________________________________________________________
max_pooling2d_48 (MaxPooling2D) (None, 19, 19, 64)   0           conv2d_48[0][0]                  
__________________________________________________________________________________________________
conv2d_37 (Conv2D)              (None, 19, 19, 128)  73856       max_pooling2d_36[0][0]           
__________________________________________________________________________________________________
conv2d_40 (Conv2D)              (None, 19, 19, 128)  73856       max_pooling2d_39[0][0]           
__________________________________________________________________________________________________
conv2d_43 (Conv2D)              (None, 19, 19, 128)  73856       max_pooling2d_42[0][0]           
__________________________________________________________________________________________________
conv2d_46 (Conv2D)              (None, 19, 19, 128)  73856       max_pooling2d_45[0][0]           
__________________________________________________________________________________________________
conv2d_49 (Conv2D)              (None, 19, 19, 128)  73856       max_pooling2d_48[0][0]           
__________________________________________________________________________________________________
max_pooling2d_37 (MaxPooling2D) (None, 10, 10, 128)  0           conv2d_37[0][0]                  
__________________________________________________________________________________________________
max_pooling2d_40 (MaxPooling2D) (None, 10, 10, 128)  0           conv2d_40[0][0]                  
__________________________________________________________________________________________________
max_pooling2d_43 (MaxPooling2D) (None, 10, 10, 128)  0           conv2d_43[0][0]                  
__________________________________________________________________________________________________
max_pooling2d_46 (MaxPooling2D) (None, 10, 10, 128)  0           conv2d_46[0][0]                  
__________________________________________________________________________________________________
max_pooling2d_49 (MaxPooling2D) (None, 10, 10, 128)  0           conv2d_49[0][0]                  
__________________________________________________________________________________________________
concatenate_2 (Concatenate)     (None, 10, 10, 640)  0           max_pooling2d_37[0][0]           
                                                                 max_pooling2d_40[0][0]           
                                                                 max_pooling2d_43[0][0]           
                                                                 max_pooling2d_46[0][0]           
                                                                 max_pooling2d_49[0][0]           
__________________________________________________________________________________________________
flatten_82 (Flatten)            (None, 64000)        0           concatenate_2[0][0]              
__________________________________________________________________________________________________
dense_6 (Dense)                 (None, 1024)         65537024    flatten_82[0][0]                 
__________________________________________________________________________________________________
dropout_4 (Dropout)             (None, 1024)         0           dense_6[0][0]                    
__________________________________________________________________________________________________
dense_7 (Dense)                 (None, 1024)         1049600     dropout_4[0][0]                  
__________________________________________________________________________________________________
dropout_5 (Dropout)             (None, 1024)         0           dense_7[0][0]                    
__________________________________________________________________________________________________
dense_8 (Dense)                 (None, 5)            5125        dropout_5[0][0]                  
==================================================================================================
Total params: 67,072,997
Trainable params: 67,072,997
Non-trainable params: 0
__________________________________________________________________________________________________
start loading dataset ...
load "Big" complete
load "Long" complete
load "Mitotic" complete
…
           3       0.93      0.68      0.78        56
           4       1.00      0.12      0.22        56

    accuracy                           0.70       260
   macro avg       0.76      0.72      0.65       260
weighted avg       0.79      0.70      0.65       260

Model: "model_5"
__________________________________________________________________________________________________
Layer (type)                    Output Shape         Param #     Connected to                     
==================================================================================================
input_3 (InputLayer)            [(None, 150, 150, 7) 0                                            
__________________________________________________________________________________________________
lambda_10 (Lambda)              (None, 150, 150, 7)  0           input_3[0][0]                    
__________________________________________________________________________________________________
conv2d_34 (Conv2D)              (None, 150, 150, 32) 2048        lambda_10[0][0]                  
__________________________________________________________________________________________________
max_pooling2d_34 (MaxPooling2D) (None, 75, 75, 32)   0           conv2d_34[0][0]                  
__________________________________________________________________________________________________
lambda_11 (Lambda)              (None, 75, 75, 7)    0           lambda_10[0][0]                  
__________________________________________________________________________________________________
lambda_12 (Lambda)              (None, 75, 75, 7)    0           lambda_10[0][0]                  
__________________________________________________________________________________________________
lambda_13 (Lambda)              (None, 75, 75, 7)    0           lambda_10[0][0]                  
__________________________________________________________________________________________________
lambda_14 (Lambda)              (None, 75, 75, 7)    0           lambda_10[0][0]                  
__________________________________________________________________________________________________
conv2d_35 (Conv2D)              (None, 75, 75, 32)   9248        max_pooling2d_34[0][0]           
__________________________________________________________________________________________________
conv2d_38 (Conv2D)              (None, 75, 75, 32)   2048        lambda_11[0][0]                  
__________________________________________________________________________________________________
conv2d_41 (Conv2D)              (None, 75, 75, 32)   2048        lambda_12[0][0]                  
__________________________________________________________________________________________________
conv2d_44 (Conv2D)              (None, 75, 75, 32)   2048        lambda_13[0][0]                  
__________________________________________________________________________________________________
conv2d_47 (Conv2D)              (None, 75, 75, 32)   2048        lambda_14[0][0]                  
__________________________________________________________________________________________________
max_pooling2d_35 (MaxPooling2D) (None, 38, 38, 32)   0           conv2d_35[0][0]                  
__________________________________________________________________________________________________
max_pooling2d_38 (MaxPooling2D) (None, 38, 38, 32)   0           conv2d_38[0][0]                  
__________________________________________________________________________________________________
max_pooling2d_41 (MaxPooling2D) (None, 38, 38, 32)   0           conv2d_41[0][0]                  
__________________________________________________________________________________________________
max_pooling2d_44 (MaxPooling2D) (None, 38, 38, 32)   0           conv2d_44[0][0]                  
__________________________________________________________________________________________________
max_pooling2d_47 (MaxPooling2D) (None, 38, 38, 32)   0           conv2d_47[0][0]                  
__________________________________________________________________________________________________
conv2d_36 (Conv2D)              (None, 38, 38, 64)   18496       max_pooling2d_35[0][0]           
__________________________________________________________________________________________________
conv2d_39 (Conv2D)              (None, 38, 38, 64)   18496       max_pooling2d_38[0][0]           
__________________________________________________________________________________________________
conv2d_42 (Conv2D)              (None, 38, 38, 64)   18496       max_pooling2d_41[0][0]           
__________________________________________________________________________________________________
conv2d_45 (Conv2D)              (None, 38, 38, 64)   18496       max_pooling2d_44[0][0]           
__________________________________________________________________________________________________
conv2d_48 (Conv2D)              (None, 38, 38, 64)   18496       max_pooling2d_47[0][0]           
__________________________________________________________________________________________________
max_pooling2d_36 (MaxPooling2D) (None, 19, 19, 64)   0           conv2d_36[0][0]                  
__________________________________________________________________________________________________
max_pooling2d_39 (MaxPooling2D) (None, 19, 19, 64)   0           conv2d_39[0][0]                  
__________________________________________________________________________________________________
max_pooling2d_42 (MaxPooling2D) (None, 19, 19, 64)   0           conv2d_42[0][0]                  
__________________________________________________________________________________________________
max_pooling2d_45 (MaxPooling2D) (None, 19, 19, 64)   0           conv2d_45[0][0]                  
__________________________________________________________________________________________________
max_pooling2d_48 (MaxPooling2D) (None, 19, 19, 64)   0           conv2d_48[0][0]                  
__________________________________________________________________________________________________
conv2d_37 (Conv2D)              (None, 19, 19, 128)  73856       max_pooling2d_36[0][0]           
__________________________________________________________________________________________________
conv2d_40 (Conv2D)              (None, 19, 19, 128)  73856       max_pooling2d_39[0][0]           
__________________________________________________________________________________________________
conv2d_43 (Conv2D)              (None, 19, 19, 128)  73856       max_pooling2d_42[0][0]           
__________________________________________________________________________________________________
conv2d_46 (Conv2D)              (None, 19, 19, 128)  73856       max_pooling2d_45[0][0]           
__________________________________________________________________________________________________
conv2d_49 (Conv2D)              (None, 19, 19, 128)  73856       max_pooling2d_48[0][0]           
__________________________________________________________________________________________________
max_pooling2d_37 (MaxPooling2D) (None, 10, 10, 128)  0           conv2d_37[0][0]                  
__________________________________________________________________________________________________
max_pooling2d_40 (MaxPooling2D) (None, 10, 10, 128)  0           conv2d_40[0][0]                  
__________________________________________________________________________________________________
max_pooling2d_43 (MaxPooling2D) (None, 10, 10, 128)  0           conv2d_43[0][0]                  
__________________________________________________________________________________________________
max_pooling2d_46 (MaxPooling2D) (None, 10, 10, 128)  0           conv2d_46[0][0]                  
__________________________________________________________________________________________________
max_pooling2d_49 (MaxPooling2D) (None, 10, 10, 128)  0           conv2d_49[0][0]                  
__________________________________________________________________________________________________
concatenate_2 (Concatenate)     (None, 10, 10, 640)  0           max_pooling2d_37[0][0]           
                                                                 max_pooling2d_40[0][0]           
                                                                 max_pooling2d_43[0][0]           
                                                                 max_pooling2d_46[0][0]           
                                                                 max_pooling2d_49[0][0]           
__________________________________________________________________________________________________
flatten_82 (Flatten)            (None, 64000)        0           concatenate_2[0][0]              
==================================================================================================
Total params: 481,248
Trainable params: 481,248
Non-trainable params: 0
__________________________________________________________________________________________________
get cnn model
(1052, 64000)
[156.683     99.07383  123.70283  179.07394  410.76236    0.
…
