program start
seed set
[PhysicalDevice(name='/physical_device:GPU:0', device_type='GPU')]
Model: "model_64"
__________________________________________________________________________________________________
Layer (type)                    Output Shape         Param #     Connected to                     
==================================================================================================
input_33 (InputLayer)           [(None, 150, 150, 7) 0                                            
__________________________________________________________________________________________________
lambda_160 (Lambda)             (None, 150, 150, 7)  0           input_33[0][0]                   
__________________________________________________________________________________________________
conv2d_544 (Conv2D)             (None, 150, 150, 32) 2048        lambda_160[0][0]                 
__________________________________________________________________________________________________
max_pooling2d_544 (MaxPooling2D (None, 75, 75, 32)   0           conv2d_544[0][0]                 
__________________________________________________________________________________________________
lambda_161 (Lambda)             (None, 75, 75, 7)    0           lambda_160[0][0]                 
__________________________________________________________________________________________________
lambda_162 (Lambda)             (None, 75, 75, 7)    0           lambda_160[0][0]                 
__________________________________________________________________________________________________
lambda_163 (Lambda)             (None, 75, 75, 7)    0           lambda_160[0][0]                 
__________________________________________________________________________________________________
lambda_164 (Lambda)             (None, 75, 75, 7)    0           lambda_160[0][0]                 
__________________________________________________________________________________________________
conv2d_545 (Conv2D)             (None, 75, 75, 32)   9248        max_pooling2d_544[0][0]          
__________________________________________________________________________________________________
conv2d_548 (Conv2D)             (None, 75, 75, 32)   2048        lambda_161[0][0]                 
__________________________________________________________________________________________________
conv2d_551 (Conv2D)             (None, 75, 75, 32)   2048        lambda_162[0][0]                 
__________________________________________________________________________________________________
conv2d_554 (Conv2D)             (None, 75, 75, 32)   2048        lambda_163[0][0]                 
__________________________________________________________________________________________________
conv2d_557 (Conv2D)             (None, 75, 75, 32)   2048        lambda_164[0][0]                 
__________________________________________________________________________________________________
max_pooling2d_545 (MaxPooling2D (None, 38, 38, 32)   0           conv2d_545[0][0]                 
__________________________________________________________________________________________________
max_pooling2d_548 (MaxPooling2D (None, 38, 38, 32)   0           conv2d_548[0][0]                 
__________________________________________________________________________________________________
max_pooling2d_551 (MaxPooling2D (None, 38, 38, 32)   0           conv2d_551[0][0]                 
__________________________________________________________________________________________________
max_pooling2d_554 (MaxPooling2D (None, 38, 38, 32)   0           conv2d_554[0][0]                 
__________________________________________________________________________________________________
max_pooling2d_557 (MaxPooling2D (None, 38, 38, 32)   0           conv2d_557[0][0]                 
__________________________________________________________________________________________________
conv2d_546 (Conv2D)             (None, 38, 38, 64)   18496       max_pooling2d_545[0][0]          
__________________________________________________________________________________________________
conv2d_549 (Conv2D)             (None, 38, 38, 64)   18496       max_pooling2d_548[0][0]          
__________________________________________________________________________________________________
conv2d_552 (Conv2D)             (None, 38, 38, 64)   18496       max_pooling2d_551[0][0]          
__________________________________________________________________________________________________
conv2d_555 (Conv2D)             (None, 38, 38, 64)   18496       max_pooling2d_554[0][0]          
__________________________________________________________________________________________________
conv2d_558 (Conv2D)             (None, 38, 38, 64)   18496       max_pooling2d_557[0][0]          
__________________________________________________________________________________________________
max_pooling2d_546 (MaxPooling2D (None, 19, 19, 64)   0           conv2d_546[0][0]                 
__________________________________________________________________________________________________
max_pooling2d_549 (MaxPooling2D (None, 19, 19, 64)   0           conv2d_549[0][0]                 
__________________________________________________________________________________________________
max_pooling2d_552 (MaxPooling2D (None, 19, 19, 64)   0           conv2d_552[0][0]                 
__________________________________________________________________________________________________
max_pooling2d_555 (MaxPooling2D (None, 19, 19, 64)   0           conv2d_555[0][0]                 
__________________________________________________________________________________________________
max_pooling2d_558 (MaxPooling2D (None, 19, 19, 64)   0           conv2d_558[0][0]                 
__________________________________________________________________________________________________
conv2d_547 (Conv2D)             (None, 19, 19, 128)  73856       max_pooling2d_546[0][0]          
__________________________________________________________________________________________________
conv2d_550 (Conv2D)             (None, 19, 19, 128)  73856       max_pooling2d_549[0][0]          
__________________________________________________________________________________________________
conv2d_553 (Conv2D)             (None, 19, 19, 128)  73856       max_pooling2d_552[0][0]          
__________________________________________________________________________________________________
conv2d_556 (Conv2D)             (None, 19, 19, 128)  73856       max_pooling2d_555[0][0]          
__________________________________________________________________________________________________
conv2d_559 (Conv2D)             (None, 19, 19, 128)  73856       max_pooling2d_558[0][0]          
__________________________________________________________________________________________________
max_pooling2d_547 (MaxPooling2D (None, 10, 10, 128)  0           conv2d_547[0][0]                 
__________________________________________________________________________________________________
max_pooling2d_550 (MaxPooling2D (None, 10, 10, 128)  0           conv2d_550[0][0]                 
__________________________________________________________________________________________________
max_pooling2d_553 (MaxPooling2D (None, 10, 10, 128)  0           conv2d_553[0][0]                 
__________________________________________________________________________________________________
max_pooling2d_556 (MaxPooling2D (None, 10, 10, 128)  0           conv2d_556[0][0]                 
__________________________________________________________________________________________________
max_pooling2d_559 (MaxPooling2D (None, 10, 10, 128)  0           conv2d_559[0][0]                 
__________________________________________________________________________________________________
concatenate_32 (Concatenate)    (None, 10, 10, 640)  0           max_pooling2d_547[0][0]          
                                                                 max_pooling2d_550[0][0]          
                                                                 max_pooling2d_553[0][0]          
                                                                 max_pooling2d_556[0][0]          
                                                                 max_pooling2d_559[0][0]          
__________________________________________________________________________________________________
flatten_1312 (Flatten)          (None, 64000)        0           concatenate_32[0][0]             
__________________________________________________________________________________________________
dense_96 (Dense)                (None, 1024)         65537024    flatten_1312[0][0]               
__________________________________________________________________________________________________
dropout_64 (Dropout)            (None, 1024)         0           dense_96[0][0]                   
__________________________________________________________________________________________________
dense_97 (Dense)                (None, 1024)         1049600     dropout_64[0][0]                 
__________________________________________________________________________________________________
dropout_65 (Dropout)            (None, 1024)         0           dense_97[0][0]                   
__________________________________________________________________________________________________
dense_98 (Dense)                (None, 5)            5125        dropout_65[0][0]                 
==================================================================================================
Total params: 67,072,997
Trainable params: 67,072,997
Non-trainable params: 0
__________________________________________________________________________________________________
start loading dataset ...
load "Big" complete
load "Long" complete
load "Mitotic" complete
…
           3       0.78      0.96      0.86        56
           4       1.00      0.09      0.16        56

    accuracy                           0.74       260
   macro avg       0.79      0.74      0.68       260
weighted avg       0.82      0.74      0.69       260

Model: "model_65"
__________________________________________________________________________________________________
Layer (type)                    Output Shape         Param #     Connected to                     
==================================================================================================
input_33 (InputLayer)           [(None, 150, 150, 7) 0                                            
__________________________________________________________________________________________________
lambda_160 (Lambda)             (None, 150, 150, 7)  0           input_33[0][0]                   
__________________________________________________________________________________________________
conv2d_544 (Conv2D)             (None, 150, 150, 32) 2048        lambda_160[0][0]                 
__________________________________________________________________________________________________
max_pooling2d_544 (MaxPooling2D (None, 75, 75, 32)   0           conv2d_544[0][0]                 
__________________________________________________________________________________________________
lambda_161 (Lambda)             (None, 75, 75, 7)    0           lambda_160[0][0]                 
__________________________________________________________________________________________________
lambda_162 (Lambda)             (None, 75, 75, 7)    0           lambda_160[0][0]                 
__________________________________________________________________________________________________
lambda_163 (Lambda)             (None, 75, 75, 7)    0           lambda_160[0][0]                 
__________________________________________________________________________________________________
lambda_164 (Lambda)             (None, 75, 75, 7)    0           lambda_160[0][0]                 
__________________________________________________________________________________________________
conv2d_545 (Conv2D)             (None, 75, 75, 32)   9248        max_pooling2d_544[0][0]          
__________________________________________________________________________________________________
conv2d_548 (Conv2D)             (None, 75, 75, 32)   2048        lambda_161[0][0]                 
__________________________________________________________________________________________________
conv2d_551 (Conv2D)             (None, 75, 75, 32)   2048        lambda_162[0][0]                 
__________________________________________________________________________________________________
conv2d_554 (Conv2D)             (None, 75, 75, 32)   2048        lambda_163[0][0]                 
__________________________________________________________________________________________________
conv2d_557 (Conv2D)             (None, 75, 75, 32)   2048        lambda_164[0][0]                 
__________________________________________________________________________________________________
max_pooling2d_545 (MaxPooling2D (None, 38, 38, 32)   0           conv2d_545[0][0]                 
__________________________________________________________________________________________________
max_pooling2d_548 (MaxPooling2D (None, 38, 38, 32)   0           conv2d_548[0][0]                 
__________________________________________________________________________________________________
max_pooling2d_551 (MaxPooling2D (None, 38, 38, 32)   0           conv2d_551[0][0]                 
__________________________________________________________________________________________________
max_pooling2d_554 (MaxPooling2D (None, 38, 38, 32)   0           conv2d_554[0][0]                 
__________________________________________________________________________________________________
max_pooling2d_557 (MaxPooling2D (None, 38, 38, 32)   0           conv2d_557[0][0]                 
__________________________________________________________________________________________________
conv2d_546 (Conv2D)             (None, 38, 38, 64)   18496       max_pooling2d_545[0][0]          
__________________________________________________________________________________________________
conv2d_549 (Conv2D)             (None, 38, 38, 64)   18496       max_pooling2d_548[0][0]          
__________________________________________________________________________________________________
conv2d_552 (Conv2D)             (None, 38, 38, 64)   18496       max_pooling2d_551[0][0]          
__________________________________________________________________________________________________
conv2d_555 (Conv2D)             (None, 38, 38, 64)   18496       max_pooling2d_554[0][0]          
__________________________________________________________________________________________________
conv2d_558 (Conv2D)             (None, 38, 38, 64)   18496       max_pooling2d_557[0][0]          
__________________________________________________________________________________________________
max_pooling2d_546 (MaxPooling2D (None, 19, 19, 64)   0           conv2d_546[0][0]                 
__________________________________________________________________________________________________
max_pooling2d_549 (MaxPooling2D (None, 19, 19, 64)   0           conv2d_549[0][0]                 
__________________________________________________________________________________________________
max_pooling2d_552 (MaxPooling2D (None, 19, 19, 64)   0           conv2d_552[0][0]                 
__________________________________________________________________________________________________
max_pooling2d_555 (MaxPooling2D (None, 19, 19, 64)   0           conv2d_555[0][0]                 
__________________________________________________________________________________________________
max_pooling2d_558 (MaxPooling2D (None, 19, 19, 64)   0           conv2d_558[0][0]                 
__________________________________________________________________________________________________
conv2d_547 (Conv2D)             (None, 19, 19, 128)  73856       max_pooling2d_546[0][0]          
__________________________________________________________________________________________________
conv2d_550 (Conv2D)             (None, 19, 19, 128)  73856       max_pooling2d_549[0][0]          
__________________________________________________________________________________________________
conv2d_553 (Conv2D)             (None, 19, 19, 128)  73856       max_pooling2d_552[0][0]          
__________________________________________________________________________________________________
conv2d_556 (Conv2D)             (None, 19, 19, 128)  73856       max_pooling2d_555[0][0]          
__________________________________________________________________________________________________
conv2d_559 (Conv2D)             (None, 19, 19, 128)  73856       max_pooling2d_558[0][0]          
__________________________________________________________________________________________________
max_pooling2d_547 (MaxPooling2D (None, 10, 10, 128)  0           conv2d_547[0][0]                 
__________________________________________________________________________________________________
max_pooling2d_550 (MaxPooling2D (None, 10, 10, 128)  0           conv2d_550[0][0]                 
__________________________________________________________________________________________________
max_pooling2d_553 (MaxPooling2D (None, 10, 10, 128)  0           conv2d_553[0][0]                 
__________________________________________________________________________________________________
max_pooling2d_556 (MaxPooling2D (None, 10, 10, 128)  0           conv2d_556[0][0]                 
__________________________________________________________________________________________________
max_pooling2d_559 (MaxPooling2D (None, 10, 10, 128)  0           conv2d_559[0][0]                 
__________________________________________________________________________________________________
concatenate_32 (Concatenate)    (None, 10, 10, 640)  0           max_pooling2d_547[0][0]          
                                                                 max_pooling2d_550[0][0]          
                                                                 max_pooling2d_553[0][0]          
                                                                 max_pooling2d_556[0][0]          
                                                                 max_pooling2d_559[0][0]          
__________________________________________________________________________________________________
flatten_1312 (Flatten)          (None, 64000)        0           concatenate_32[0][0]             
==================================================================================================
Total params: 481,248
Trainable params: 481,248
Non-trainable params: 0
__________________________________________________________________________________________________
get cnn model
(1052, 64000)
[184.57625      0.           4.9926424    0.          85.93738
…
