program start
seed set
[PhysicalDevice(name='/physical_device:GPU:0', device_type='GPU')]
Model: "model_68"
__________________________________________________________________________________________________
Layer (type)                    Output Shape         Param #     Connected to                     
==================================================================================================
input_35 (InputLayer)           [(None, 150, 150, 7) 0                                            
__________________________________________________________________________________________________
lambda_170 (Lambda)             (None, 150, 150, 7)  0           input_35[0][0]                   
__________________________________________________________________________________________________
conv2d_578 (Conv2D)             (None, 150, 150, 32) 2048        lambda_170[0][0]                 
__________________________________________________________________________________________________
max_pooling2d_578 (MaxPooling2D (None, 75, 75, 32)   0           conv2d_578[0][0]                 
__________________________________________________________________________________________________
lambda_171 (Lambda)             (None, 75, 75, 7)    0           lambda_170[0][0]                 
__________________________________________________________________________________________________
lambda_172 (Lambda)             (None, 75, 75, 7)    0           lambda_170[0][0]                 
__________________________________________________________________________________________________
lambda_173 (Lambda)             (None, 75, 75, 7)    0           lambda_170[0][0]                 
__________________________________________________________________________________________________
lambda_174 (Lambda)             (None, 75, 75, 7)    0           lambda_170[0][0]                 
__________________________________________________________________________________________________
conv2d_579 (Conv2D)             (None, 75, 75, 32)   9248        max_pooling2d_578[0][0]          
__________________________________________________________________________________________________
conv2d_582 (Conv2D)             (None, 75, 75, 32)   2048        lambda_171[0][0]                 
__________________________________________________________________________________________________
conv2d_585 (Conv2D)             (None, 75, 75, 32)   2048        lambda_172[0][0]                 
__________________________________________________________________________________________________
conv2d_588 (Conv2D)             (None, 75, 75, 32)   2048        lambda_173[0][0]                 
__________________________________________________________________________________________________
conv2d_591 (Conv2D)             (None, 75, 75, 32)   2048        lambda_174[0][0]                 
__________________________________________________________________________________________________
max_pooling2d_579 (MaxPooling2D (None, 38, 38, 32)   0           conv2d_579[0][0]                 
__________________________________________________________________________________________________
max_pooling2d_582 (MaxPooling2D (None, 38, 38, 32)   0           conv2d_582[0][0]                 
__________________________________________________________________________________________________
max_pooling2d_585 (MaxPooling2D (None, 38, 38, 32)   0           conv2d_585[0][0]                 
__________________________________________________________________________________________________
max_pooling2d_588 (MaxPooling2D (None, 38, 38, 32)   0           conv2d_588[0][0]                 
__________________________________________________________________________________________________
max_pooling2d_591 (MaxPooling2D (None, 38, 38, 32)   0           conv2d_591[0][0]                 
__________________________________________________________________________________________________
conv2d_580 (Conv2D)             (None, 38, 38, 64)   18496       max_pooling2d_579[0][0]          
__________________________________________________________________________________________________
conv2d_583 (Conv2D)             (None, 38, 38, 64)   18496       max_pooling2d_582[0][0]          
__________________________________________________________________________________________________
conv2d_586 (Conv2D)             (None, 38, 38, 64)   18496       max_pooling2d_585[0][0]          
__________________________________________________________________________________________________
conv2d_589 (Conv2D)             (None, 38, 38, 64)   18496       max_pooling2d_588[0][0]          
__________________________________________________________________________________________________
conv2d_592 (Conv2D)             (None, 38, 38, 64)   18496       max_pooling2d_591[0][0]          
__________________________________________________________________________________________________
max_pooling2d_580 (MaxPooling2D (None, 19, 19, 64)   0           conv2d_580[0][0]                 
__________________________________________________________________________________________________
max_pooling2d_583 (MaxPooling2D (None, 19, 19, 64)   0           conv2d_583[0][0]                 
__________________________________________________________________________________________________
max_pooling2d_586 (MaxPooling2D (None, 19, 19, 64)   0           conv2d_586[0][0]                 
__________________________________________________________________________________________________
max_pooling2d_589 (MaxPooling2D (None, 19, 19, 64)   0           conv2d_589[0][0]                 
__________________________________________________________________________________________________
max_pooling2d_592 (MaxPooling2D (None, 19, 19, 64)   0           conv2d_592[0][0]                 
__________________________________________________________________________________________________
conv2d_581 (Conv2D)             (None, 19, 19, 128)  73856       max_pooling2d_580[0][0]          
__________________________________________________________________________________________________
conv2d_584 (Conv2D)             (None, 19, 19, 128)  73856       max_pooling2d_583[0][0]          
__________________________________________________________________________________________________
conv2d_587 (Conv2D)             (None, 19, 19, 128)  73856       max_pooling2d_586[0][0]          
__________________________________________________________________________________________________
conv2d_590 (Conv2D)             (None, 19, 19, 128)  73856       max_pooling2d_589[0][0]          
__________________________________________________________________________________________________
conv2d_593 (Conv2D)             (None, 19, 19, 128)  73856       max_pooling2d_592[0][0]          
__________________________________________________________________________________________________
max_pooling2d_581 (MaxPooling2D (None, 10, 10, 128)  0           conv2d_581[0][0]                 
__________________________________________________________________________________________________
max_pooling2d_584 (MaxPooling2D (None, 10, 10, 128)  0           conv2d_584[0][0]                 
__________________________________________________________________________________________________
max_pooling2d_587 (MaxPooling2D (None, 10, 10, 128)  0           conv2d_587[0][0]                 
__________________________________________________________________________________________________
max_pooling2d_590 (MaxPooling2D (None, 10, 10, 128)  0           conv2d_590[0][0]                 
__________________________________________________________________________________________________
max_pooling2d_593 (MaxPooling2D (None, 10, 10, 128)  0           conv2d_593[0][0]                 
__________________________________________________________________________________________________
concatenate_34 (Concatenate)    (None, 10, 10, 640)  0           max_pooling2d_581[0][0]          
                                                                 max_pooling2d_584[0][0]          
                                                                 max_pooling2d_587[0][0]          
                                                                 max_pooling2d_590[0][0]          
                                                                 max_pooling2d_593[0][0]          
__________________________________________________________________________________________________
flatten_1394 (Flatten)          (None, 64000)        0           concatenate_34[0][0]             
__________________________________________________________________________________________________
dense_102 (Dense)               (None, 1024)         65537024    flatten_1394[0][0]               
__________________________________________________________________________________________________
dropout_68 (Dropout)            (None, 1024)         0           dense_102[0][0]                  
__________________________________________________________________________________________________
dense_103 (Dense)               (None, 1024)         1049600     dropout_68[0][0]                 
__________________________________________________________________________________________________
dropout_69 (Dropout)            (None, 1024)         0           dense_103[0][0]                  
__________________________________________________________________________________________________
dense_104 (Dense)               (None, 5)            5125        dropout_69[0][0]                 
==================================================================================================
Total params: 67,072,997
Trainable params: 67,072,997
Non-trainable params: 0
__________________________________________________________________________________________________
start loading dataset ...
load "Big" complete
load "Long" complete
load "Mitotic" complete
…
o avg': {'precision': 0.7431375086266391, 'recall': 0.6885681669928246, 'f1-score': 0.6098404189421753, 'support': 260.0}, 'weighted avg': {'precision': 0.77581903302012, 'recall': 0.6730769230769231, 'f1-score': 0.6176614933024631, 'support': 260.0}}
Model: "model_69"
__________________________________________________________________________________________________
Layer (type)                    Output Shape         Param #     Connected to                     
==================================================================================================
input_35 (InputLayer)           [(None, 150, 150, 7) 0                                            
__________________________________________________________________________________________________
lambda_170 (Lambda)             (None, 150, 150, 7)  0           input_35[0][0]                   
__________________________________________________________________________________________________
conv2d_578 (Conv2D)             (None, 150, 150, 32) 2048        lambda_170[0][0]                 
__________________________________________________________________________________________________
max_pooling2d_578 (MaxPooling2D (None, 75, 75, 32)   0           conv2d_578[0][0]                 
__________________________________________________________________________________________________
lambda_171 (Lambda)             (None, 75, 75, 7)    0           lambda_170[0][0]                 
__________________________________________________________________________________________________
lambda_172 (Lambda)             (None, 75, 75, 7)    0           lambda_170[0][0]                 
__________________________________________________________________________________________________
lambda_173 (Lambda)             (None, 75, 75, 7)    0           lambda_170[0][0]                 
__________________________________________________________________________________________________
lambda_174 (Lambda)             (None, 75, 75, 7)    0           lambda_170[0][0]                 
__________________________________________________________________________________________________
conv2d_579 (Conv2D)             (None, 75, 75, 32)   9248        max_pooling2d_578[0][0]          
__________________________________________________________________________________________________
conv2d_582 (Conv2D)             (None, 75, 75, 32)   2048        lambda_171[0][0]                 
__________________________________________________________________________________________________
conv2d_585 (Conv2D)             (None, 75, 75, 32)   2048        lambda_172[0][0]                 
__________________________________________________________________________________________________
conv2d_588 (Conv2D)             (None, 75, 75, 32)   2048        lambda_173[0][0]                 
__________________________________________________________________________________________________
conv2d_591 (Conv2D)             (None, 75, 75, 32)   2048        lambda_174[0][0]                 
__________________________________________________________________________________________________
max_pooling2d_579 (MaxPooling2D (None, 38, 38, 32)   0           conv2d_579[0][0]                 
__________________________________________________________________________________________________
max_pooling2d_582 (MaxPooling2D (None, 38, 38, 32)   0           conv2d_582[0][0]                 
__________________________________________________________________________________________________
max_pooling2d_585 (MaxPooling2D (None, 38, 38, 32)   0           conv2d_585[0][0]                 
__________________________________________________________________________________________________
max_pooling2d_588 (MaxPooling2D (None, 38, 38, 32)   0           conv2d_588[0][0]                 
__________________________________________________________________________________________________
max_pooling2d_591 (MaxPooling2D (None, 38, 38, 32)   0           conv2d_591[0][0]                 
__________________________________________________________________________________________________
conv2d_580 (Conv2D)             (None, 38, 38, 64)   18496       max_pooling2d_579[0][0]          
__________________________________________________________________________________________________
conv2d_583 (Conv2D)             (None, 38, 38, 64)   18496       max_pooling2d_582[0][0]          
__________________________________________________________________________________________________
conv2d_586 (Conv2D)             (None, 38, 38, 64)   18496       max_pooling2d_585[0][0]          
__________________________________________________________________________________________________
conv2d_589 (Conv2D)             (None, 38, 38, 64)   18496       max_pooling2d_588[0][0]          
__________________________________________________________________________________________________
conv2d_592 (Conv2D)             (None, 38, 38, 64)   18496       max_pooling2d_591[0][0]          
__________________________________________________________________________________________________
max_pooling2d_580 (MaxPooling2D (None, 19, 19, 64)   0           conv2d_580[0][0]                 
__________________________________________________________________________________________________
max_pooling2d_583 (MaxPooling2D (None, 19, 19, 64)   0           conv2d_583[0][0]                 
__________________________________________________________________________________________________
max_pooling2d_586 (MaxPooling2D (None, 19, 19, 64)   0           conv2d_586[0][0]                 
__________________________________________________________________________________________________
max_pooling2d_589 (MaxPooling2D (None, 19, 19, 64)   0           conv2d_589[0][0]                 
__________________________________________________________________________________________________
max_pooling2d_592 (MaxPooling2D (None, 19, 19, 64)   0           conv2d_592[0][0]                 
__________________________________________________________________________________________________
conv2d_581 (Conv2D)             (None, 19, 19, 128)  73856       max_pooling2d_580[0][0]          
__________________________________________________________________________________________________
conv2d_584 (Conv2D)             (None, 19, 19, 128)  73856       max_pooling2d_583[0][0]          
__________________________________________________________________________________________________
conv2d_587 (Conv2D)             (None, 19, 19, 128)  73856       max_pooling2d_586[0][0]          
__________________________________________________________________________________________________
conv2d_590 (Conv2D)             (None, 19, 19, 128)  73856       max_pooling2d_589[0][0]          
__________________________________________________________________________________________________
conv2d_593 (Conv2D)             (None, 19, 19, 128)  73856       max_pooling2d_592[0][0]          
__________________________________________________________________________________________________
max_pooling2d_581 (MaxPooling2D (None, 10, 10, 128)  0           conv2d_581[0][0]                 
__________________________________________________________________________________________________
max_pooling2d_584 (MaxPooling2D (None, 10, 10, 128)  0           conv2d_584[0][0]                 
__________________________________________________________________________________________________
max_pooling2d_587 (MaxPooling2D (None, 10, 10, 128)  0           conv2d_587[0][0]                 
__________________________________________________________________________________________________
max_pooling2d_590 (MaxPooling2D (None, 10, 10, 128)  0           conv2d_590[0][0]                 
__________________________________________________________________________________________________
max_pooling2d_593 (MaxPooling2D (None, 10, 10, 128)  0           conv2d_593[0][0]                 
__________________________________________________________________________________________________
concatenate_34 (Concatenate)    (None, 10, 10, 640)  0           max_pooling2d_581[0][0]          
                                                                 max_pooling2d_584[0][0]          
                                                                 max_pooling2d_587[0][0]          
                                                                 max_pooling2d_590[0][0]          
                                                                 max_pooling2d_593[0][0]          
__________________________________________________________________________________________________
flatten_1394 (Flatten)          (None, 64000)        0           concatenate_34[0][0]             
==================================================================================================
Total params: 481,248
Trainable params: 481,248
Non-trainable params: 0
__________________________________________________________________________________________________
get cnn model
(1052, 64000)
[267.29892  131.7334     0.       145.07907   72.62955  234.97351
…
