program start
seed set
[PhysicalDevice(name='/physical_device:GPU:0', device_type='GPU')]
Model: "model_70"
__________________________________________________________________________________________________
Layer (type)                    Output Shape         Param #     Connected to                     
==================================================================================================
input_36 (InputLayer)           [(None, 150, 150, 7) 0                                            
__________________________________________________________________________________________________
lambda_175 (Lambda)             (None, 150, 150, 7)  0           input_36[0][0]                   
__________________________________________________________________________________________________
conv2d_595 (Conv2D)             (None, 150, 150, 32) 2048        lambda_175[0][0]                 
__________________________________________________________________________________________________
max_pooling2d_595 (MaxPooling2D (None, 75, 75, 32)   0           conv2d_595[0][0]                 
__________________________________________________________________________________________________
lambda_176 (Lambda)             (None, 75, 75, 7)    0           lambda_175[0][0]                 
__________________________________________________________________________________________________
lambda_177 (Lambda)             (None, 75, 75, 7)    0           lambda_175[0][0]                 
__________________________________________________________________________________________________
lambda_178 (Lambda)             (None, 75, 75, 7)    0           lambda_175[0][0]                 
__________________________________________________________________________________________________
lambda_179 (Lambda)             (None, 75, 75, 7)    0           lambda_175[0][0]                 
__________________________________________________________________________________________________
conv2d_596 (Conv2D)             (None, 75, 75, 32)   9248        max_pooling2d_595[0][0]          
__________________________________________________________________________________________________
conv2d_599 (Conv2D)             (None, 75, 75, 32)   2048        lambda_176[0][0]                 
__________________________________________________________________________________________________
conv2d_602 (Conv2D)             (None, 75, 75, 32)   2048        lambda_177[0][0]                 
__________________________________________________________________________________________________
conv2d_605 (Conv2D)             (None, 75, 75, 32)   2048        lambda_178[0][0]                 
__________________________________________________________________________________________________
conv2d_608 (Conv2D)             (None, 75, 75, 32)   2048        lambda_179[0][0]                 
__________________________________________________________________________________________________
max_pooling2d_596 (MaxPooling2D (None, 38, 38, 32)   0           conv2d_596[0][0]                 
__________________________________________________________________________________________________
max_pooling2d_599 (MaxPooling2D (None, 38, 38, 32)   0           conv2d_599[0][0]                 
__________________________________________________________________________________________________
max_pooling2d_602 (MaxPooling2D (None, 38, 38, 32)   0           conv2d_602[0][0]                 
__________________________________________________________________________________________________
max_pooling2d_605 (MaxPooling2D (None, 38, 38, 32)   0           conv2d_605[0][0]                 
__________________________________________________________________________________________________
max_pooling2d_608 (MaxPooling2D (None, 38, 38, 32)   0           conv2d_608[0][0]                 
__________________________________________________________________________________________________
conv2d_597 (Conv2D)             (None, 38, 38, 64)   18496       max_pooling2d_596[0][0]          
__________________________________________________________________________________________________
conv2d_600 (Conv2D)             (None, 38, 38, 64)   18496       max_pooling2d_599[0][0]          
__________________________________________________________________________________________________
conv2d_603 (Conv2D)             (None, 38, 38, 64)   18496       max_pooling2d_602[0][0]          
__________________________________________________________________________________________________
conv2d_606 (Conv2D)             (None, 38, 38, 64)   18496       max_pooling2d_605[0][0]          
__________________________________________________________________________________________________
conv2d_609 (Conv2D)             (None, 38, 38, 64)   18496       max_pooling2d_608[0][0]          
__________________________________________________________________________________________________
max_pooling2d_597 (MaxPooling2D (None, 19, 19, 64)   0           conv2d_597[0][0]                 
__________________________________________________________________________________________________
max_pooling2d_600 (MaxPooling2D (None, 19, 19, 64)   0           conv2d_600[0][0]                 
__________________________________________________________________________________________________
max_pooling2d_603 (MaxPooling2D (None, 19, 19, 64)   0           conv2d_603[0][0]                 
__________________________________________________________________________________________________
max_pooling2d_606 (MaxPooling2D (None, 19, 19, 64)   0           conv2d_606[0][0]                 
__________________________________________________________________________________________________
max_pooling2d_609 (MaxPooling2D (None, 19, 19, 64)   0           conv2d_609[0][0]                 
__________________________________________________________________________________________________
conv2d_598 (Conv2D)             (None, 19, 19, 128)  73856       max_pooling2d_597[0][0]          
__________________________________________________________________________________________________
conv2d_601 (Conv2D)             (None, 19, 19, 128)  73856       max_pooling2d_600[0][0]          
__________________________________________________________________________________________________
conv2d_604 (Conv2D)             (None, 19, 19, 128)  73856       max_pooling2d_603[0][0]          
__________________________________________________________________________________________________
conv2d_607 (Conv2D)             (None, 19, 19, 128)  73856       max_pooling2d_606[0][0]          
__________________________________________________________________________________________________
conv2d_610 (Conv2D)             (None, 19, 19, 128)  73856       max_pooling2d_609[0][0]          
__________________________________________________________________________________________________
max_pooling2d_598 (MaxPooling2D (None, 10, 10, 128)  0           conv2d_598[0][0]                 
__________________________________________________________________________________________________
max_pooling2d_601 (MaxPooling2D (None, 10, 10, 128)  0           conv2d_601[0][0]                 
__________________________________________________________________________________________________
max_pooling2d_604 (MaxPooling2D (None, 10, 10, 128)  0           conv2d_604[0][0]                 
__________________________________________________________________________________________________
max_pooling2d_607 (MaxPooling2D (None, 10, 10, 128)  0           conv2d_607[0][0]                 
__________________________________________________________________________________________________
max_pooling2d_610 (MaxPooling2D (None, 10, 10, 128)  0           conv2d_610[0][0]                 
__________________________________________________________________________________________________
concatenate_35 (Concatenate)    (None, 10, 10, 640)  0           max_pooling2d_598[0][0]          
                                                                 max_pooling2d_601[0][0]          
                                                                 max_pooling2d_604[0][0]          
                                                                 max_pooling2d_607[0][0]          
                                                                 max_pooling2d_610[0][0]          
__________________________________________________________________________________________________
flatten_1435 (Flatten)          (None, 64000)        0           concatenate_35[0][0]             
__________________________________________________________________________________________________
dense_105 (Dense)               (None, 1024)         65537024    flatten_1435[0][0]               
__________________________________________________________________________________________________
dropout_70 (Dropout)            (None, 1024)         0           dense_105[0][0]                  
__________________________________________________________________________________________________
dense_106 (Dense)               (None, 1024)         1049600     dropout_70[0][0]                 
__________________________________________________________________________________________________
dropout_71 (Dropout)            (None, 1024)         0           dense_106[0][0]                  
__________________________________________________________________________________________________
dense_107 (Dense)               (None, 5)            5125        dropout_71[0][0]                 
==================================================================================================
Total params: 67,072,997
Trainable params: 67,072,997
Non-trainable params: 0
__________________________________________________________________________________________________
start loading dataset ...
load "Big" complete
load "Long" complete
load "Mitotic" complete
…
           3       0.90      0.84      0.87        56
           4       1.00      0.07      0.13        56

    accuracy                           0.75       260
   macro avg       0.80      0.76      0.69       260
weighted avg       0.81      0.75      0.68       260

Model: "model_71"
__________________________________________________________________________________________________
Layer (type)                    Output Shape         Param #     Connected to                     
==================================================================================================
input_36 (InputLayer)           [(None, 150, 150, 7) 0                                            
__________________________________________________________________________________________________
lambda_175 (Lambda)             (None, 150, 150, 7)  0           input_36[0][0]                   
__________________________________________________________________________________________________
conv2d_595 (Conv2D)             (None, 150, 150, 32) 2048        lambda_175[0][0]                 
__________________________________________________________________________________________________
max_pooling2d_595 (MaxPooling2D (None, 75, 75, 32)   0           conv2d_595[0][0]                 
__________________________________________________________________________________________________
lambda_176 (Lambda)             (None, 75, 75, 7)    0           lambda_175[0][0]                 
__________________________________________________________________________________________________
lambda_177 (Lambda)             (None, 75, 75, 7)    0           lambda_175[0][0]                 
__________________________________________________________________________________________________
lambda_178 (Lambda)             (None, 75, 75, 7)    0           lambda_175[0][0]                 
__________________________________________________________________________________________________
lambda_179 (Lambda)             (None, 75, 75, 7)    0           lambda_175[0][0]                 
__________________________________________________________________________________________________
conv2d_596 (Conv2D)             (None, 75, 75, 32)   9248        max_pooling2d_595[0][0]          
__________________________________________________________________________________________________
conv2d_599 (Conv2D)             (None, 75, 75, 32)   2048        lambda_176[0][0]                 
__________________________________________________________________________________________________
conv2d_602 (Conv2D)             (None, 75, 75, 32)   2048        lambda_177[0][0]                 
__________________________________________________________________________________________________
conv2d_605 (Conv2D)             (None, 75, 75, 32)   2048        lambda_178[0][0]                 
__________________________________________________________________________________________________
conv2d_608 (Conv2D)             (None, 75, 75, 32)   2048        lambda_179[0][0]                 
__________________________________________________________________________________________________
max_pooling2d_596 (MaxPooling2D (None, 38, 38, 32)   0           conv2d_596[0][0]                 
__________________________________________________________________________________________________
max_pooling2d_599 (MaxPooling2D (None, 38, 38, 32)   0           conv2d_599[0][0]                 
__________________________________________________________________________________________________
max_pooling2d_602 (MaxPooling2D (None, 38, 38, 32)   0           conv2d_602[0][0]                 
__________________________________________________________________________________________________
max_pooling2d_605 (MaxPooling2D (None, 38, 38, 32)   0           conv2d_605[0][0]                 
__________________________________________________________________________________________________
max_pooling2d_608 (MaxPooling2D (None, 38, 38, 32)   0           conv2d_608[0][0]                 
__________________________________________________________________________________________________
conv2d_597 (Conv2D)             (None, 38, 38, 64)   18496       max_pooling2d_596[0][0]          
__________________________________________________________________________________________________
conv2d_600 (Conv2D)             (None, 38, 38, 64)   18496       max_pooling2d_599[0][0]          
__________________________________________________________________________________________________
conv2d_603 (Conv2D)             (None, 38, 38, 64)   18496       max_pooling2d_602[0][0]          
__________________________________________________________________________________________________
conv2d_606 (Conv2D)             (None, 38, 38, 64)   18496       max_pooling2d_605[0][0]          
__________________________________________________________________________________________________
conv2d_609 (Conv2D)             (None, 38, 38, 64)   18496       max_pooling2d_608[0][0]          
__________________________________________________________________________________________________
max_pooling2d_597 (MaxPooling2D (None, 19, 19, 64)   0           conv2d_597[0][0]                 
__________________________________________________________________________________________________
max_pooling2d_600 (MaxPooling2D (None, 19, 19, 64)   0           conv2d_600[0][0]                 
__________________________________________________________________________________________________
max_pooling2d_603 (MaxPooling2D (None, 19, 19, 64)   0           conv2d_603[0][0]                 
__________________________________________________________________________________________________
max_pooling2d_606 (MaxPooling2D (None, 19, 19, 64)   0           conv2d_606[0][0]                 
__________________________________________________________________________________________________
max_pooling2d_609 (MaxPooling2D (None, 19, 19, 64)   0           conv2d_609[0][0]                 
__________________________________________________________________________________________________
conv2d_598 (Conv2D)             (None, 19, 19, 128)  73856       max_pooling2d_597[0][0]          
__________________________________________________________________________________________________
conv2d_601 (Conv2D)             (None, 19, 19, 128)  73856       max_pooling2d_600[0][0]          
__________________________________________________________________________________________________
conv2d_604 (Conv2D)             (None, 19, 19, 128)  73856       max_pooling2d_603[0][0]          
__________________________________________________________________________________________________
conv2d_607 (Conv2D)             (None, 19, 19, 128)  73856       max_pooling2d_606[0][0]          
__________________________________________________________________________________________________
conv2d_610 (Conv2D)             (None, 19, 19, 128)  73856       max_pooling2d_609[0][0]          
__________________________________________________________________________________________________
max_pooling2d_598 (MaxPooling2D (None, 10, 10, 128)  0           conv2d_598[0][0]                 
__________________________________________________________________________________________________
max_pooling2d_601 (MaxPooling2D (None, 10, 10, 128)  0           conv2d_601[0][0]                 
__________________________________________________________________________________________________
max_pooling2d_604 (MaxPooling2D (None, 10, 10, 128)  0           conv2d_604[0][0]                 
__________________________________________________________________________________________________
max_pooling2d_607 (MaxPooling2D (None, 10, 10, 128)  0           conv2d_607[0][0]                 
__________________________________________________________________________________________________
max_pooling2d_610 (MaxPooling2D (None, 10, 10, 128)  0           conv2d_610[0][0]                 
__________________________________________________________________________________________________
concatenate_35 (Concatenate)    (None, 10, 10, 640)  0           max_pooling2d_598[0][0]          
                                                                 max_pooling2d_601[0][0]          
                                                                 max_pooling2d_604[0][0]          
                                                                 max_pooling2d_607[0][0]          
                                                                 max_pooling2d_610[0][0]          
__________________________________________________________________________________________________
flatten_1435 (Flatten)          (None, 64000)        0           concatenate_35[0][0]             
==================================================================================================
Total params: 481,248
Trainable params: 481,248
Non-trainable params: 0
__________________________________________________________________________________________________
get cnn model
(1052, 64000)
[ 15.73259  193.11617    0.        82.208954 144.38234   79.689735
…
