program start
seed set
[PhysicalDevice(name='/physical_device:GPU:0', device_type='GPU')]
Model: "model_72"
__________________________________________________________________________________________________
Layer (type)                    Output Shape         Param #     Connected to                     
==================================================================================================
input_37 (InputLayer)           [(None, 150, 150, 7) 0                                            
__________________________________________________________________________________________________
lambda_180 (Lambda)             (None, 150, 150, 7)  0           input_37[0][0]                   
__________________________________________________________________________________________________
conv2d_612 (Conv2D)             (None, 150, 150, 32) 2048        lambda_180[0][0]                 
__________________________________________________________________________________________________
max_pooling2d_612 (MaxPooling2D (None, 75, 75, 32)   0           conv2d_612[0][0]                 
__________________________________________________________________________________________________
lambda_181 (Lambda)             (None, 75, 75, 7)    0           lambda_180[0][0]                 
__________________________________________________________________________________________________
lambda_182 (Lambda)             (None, 75, 75, 7)    0           lambda_180[0][0]                 
__________________________________________________________________________________________________
lambda_183 (Lambda)             (None, 75, 75, 7)    0           lambda_180[0][0]                 
__________________________________________________________________________________________________
lambda_184 (Lambda)             (None, 75, 75, 7)    0           lambda_180[0][0]                 
__________________________________________________________________________________________________
conv2d_613 (Conv2D)             (None, 75, 75, 32)   9248        max_pooling2d_612[0][0]          
__________________________________________________________________________________________________
conv2d_616 (Conv2D)             (None, 75, 75, 32)   2048        lambda_181[0][0]                 
__________________________________________________________________________________________________
conv2d_619 (Conv2D)             (None, 75, 75, 32)   2048        lambda_182[0][0]                 
__________________________________________________________________________________________________
conv2d_622 (Conv2D)             (None, 75, 75, 32)   2048        lambda_183[0][0]                 
__________________________________________________________________________________________________
conv2d_625 (Conv2D)             (None, 75, 75, 32)   2048        lambda_184[0][0]                 
__________________________________________________________________________________________________
max_pooling2d_613 (MaxPooling2D (None, 38, 38, 32)   0           conv2d_613[0][0]                 
__________________________________________________________________________________________________
max_pooling2d_616 (MaxPooling2D (None, 38, 38, 32)   0           conv2d_616[0][0]                 
__________________________________________________________________________________________________
max_pooling2d_619 (MaxPooling2D (None, 38, 38, 32)   0           conv2d_619[0][0]                 
__________________________________________________________________________________________________
max_pooling2d_622 (MaxPooling2D (None, 38, 38, 32)   0           conv2d_622[0][0]                 
__________________________________________________________________________________________________
max_pooling2d_625 (MaxPooling2D (None, 38, 38, 32)   0           conv2d_625[0][0]                 
__________________________________________________________________________________________________
conv2d_614 (Conv2D)             (None, 38, 38, 64)   18496       max_pooling2d_613[0][0]          
__________________________________________________________________________________________________
conv2d_617 (Conv2D)             (None, 38, 38, 64)   18496       max_pooling2d_616[0][0]          
__________________________________________________________________________________________________
conv2d_620 (Conv2D)             (None, 38, 38, 64)   18496       max_pooling2d_619[0][0]          
__________________________________________________________________________________________________
conv2d_623 (Conv2D)             (None, 38, 38, 64)   18496       max_pooling2d_622[0][0]          
__________________________________________________________________________________________________
conv2d_626 (Conv2D)             (None, 38, 38, 64)   18496       max_pooling2d_625[0][0]          
__________________________________________________________________________________________________
max_pooling2d_614 (MaxPooling2D (None, 19, 19, 64)   0           conv2d_614[0][0]                 
__________________________________________________________________________________________________
max_pooling2d_617 (MaxPooling2D (None, 19, 19, 64)   0           conv2d_617[0][0]                 
__________________________________________________________________________________________________
max_pooling2d_620 (MaxPooling2D (None, 19, 19, 64)   0           conv2d_620[0][0]                 
__________________________________________________________________________________________________
max_pooling2d_623 (MaxPooling2D (None, 19, 19, 64)   0           conv2d_623[0][0]                 
__________________________________________________________________________________________________
max_pooling2d_626 (MaxPooling2D (None, 19, 19, 64)   0           conv2d_626[0][0]                 
__________________________________________________________________________________________________
conv2d_615 (Conv2D)             (None, 19, 19, 128)  73856       max_pooling2d_614[0][0]          
__________________________________________________________________________________________________
conv2d_618 (Conv2D)             (None, 19, 19, 128)  73856       max_pooling2d_617[0][0]          
__________________________________________________________________________________________________
conv2d_621 (Conv2D)             (None, 19, 19, 128)  73856       max_pooling2d_620[0][0]          
__________________________________________________________________________________________________
conv2d_624 (Conv2D)             (None, 19, 19, 128)  73856       max_pooling2d_623[0][0]          
__________________________________________________________________________________________________
conv2d_627 (Conv2D)             (None, 19, 19, 128)  73856       max_pooling2d_626[0][0]          
__________________________________________________________________________________________________
max_pooling2d_615 (MaxPooling2D (None, 10, 10, 128)  0           conv2d_615[0][0]                 
__________________________________________________________________________________________________
max_pooling2d_618 (MaxPooling2D (None, 10, 10, 128)  0           conv2d_618[0][0]                 
__________________________________________________________________________________________________
max_pooling2d_621 (MaxPooling2D (None, 10, 10, 128)  0           conv2d_621[0][0]                 
__________________________________________________________________________________________________
max_pooling2d_624 (MaxPooling2D (None, 10, 10, 128)  0           conv2d_624[0][0]                 
__________________________________________________________________________________________________
max_pooling2d_627 (MaxPooling2D (None, 10, 10, 128)  0           conv2d_627[0][0]                 
__________________________________________________________________________________________________
concatenate_36 (Concatenate)    (None, 10, 10, 640)  0           max_pooling2d_615[0][0]          
                                                                 max_pooling2d_618[0][0]          
                                                                 max_pooling2d_621[0][0]          
                                                                 max_pooling2d_624[0][0]          
                                                                 max_pooling2d_627[0][0]          
__________________________________________________________________________________________________
flatten_1476 (Flatten)          (None, 64000)        0           concatenate_36[0][0]             
__________________________________________________________________________________________________
dense_108 (Dense)               (None, 1024)         65537024    flatten_1476[0][0]               
__________________________________________________________________________________________________
dropout_72 (Dropout)            (None, 1024)         0           dense_108[0][0]                  
__________________________________________________________________________________________________
dense_109 (Dense)               (None, 1024)         1049600     dropout_72[0][0]                 
__________________________________________________________________________________________________
dropout_73 (Dropout)            (None, 1024)         0           dense_109[0][0]                  
__________________________________________________________________________________________________
dense_110 (Dense)               (None, 5)            5125        dropout_73[0][0]                 
==================================================================================================
Total params: 67,072,997
Trainable params: 67,072,997
Non-trainable params: 0
__________________________________________________________________________________________________
start loading dataset ...
load "Big" complete
load "Long" complete
load "Mitotic" complete
…
           3       0.85      0.89      0.87        56
           4       1.00      0.02      0.04        56

    accuracy                           0.71       260
   macro avg       0.81      0.70      0.63       260
weighted avg       0.81      0.71      0.64       260

Model: "model_73"
__________________________________________________________________________________________________
Layer (type)                    Output Shape         Param #     Connected to                     
==================================================================================================
input_37 (InputLayer)           [(None, 150, 150, 7) 0                                            
__________________________________________________________________________________________________
lambda_180 (Lambda)             (None, 150, 150, 7)  0           input_37[0][0]                   
__________________________________________________________________________________________________
conv2d_612 (Conv2D)             (None, 150, 150, 32) 2048        lambda_180[0][0]                 
__________________________________________________________________________________________________
max_pooling2d_612 (MaxPooling2D (None, 75, 75, 32)   0           conv2d_612[0][0]                 
__________________________________________________________________________________________________
lambda_181 (Lambda)             (None, 75, 75, 7)    0           lambda_180[0][0]                 
__________________________________________________________________________________________________
lambda_182 (Lambda)             (None, 75, 75, 7)    0           lambda_180[0][0]                 
__________________________________________________________________________________________________
lambda_183 (Lambda)             (None, 75, 75, 7)    0           lambda_180[0][0]                 
__________________________________________________________________________________________________
lambda_184 (Lambda)             (None, 75, 75, 7)    0           lambda_180[0][0]                 
__________________________________________________________________________________________________
conv2d_613 (Conv2D)             (None, 75, 75, 32)   9248        max_pooling2d_612[0][0]          
__________________________________________________________________________________________________
conv2d_616 (Conv2D)             (None, 75, 75, 32)   2048        lambda_181[0][0]                 
__________________________________________________________________________________________________
conv2d_619 (Conv2D)             (None, 75, 75, 32)   2048        lambda_182[0][0]                 
__________________________________________________________________________________________________
conv2d_622 (Conv2D)             (None, 75, 75, 32)   2048        lambda_183[0][0]                 
__________________________________________________________________________________________________
conv2d_625 (Conv2D)             (None, 75, 75, 32)   2048        lambda_184[0][0]                 
__________________________________________________________________________________________________
max_pooling2d_613 (MaxPooling2D (None, 38, 38, 32)   0           conv2d_613[0][0]                 
__________________________________________________________________________________________________
max_pooling2d_616 (MaxPooling2D (None, 38, 38, 32)   0           conv2d_616[0][0]                 
__________________________________________________________________________________________________
max_pooling2d_619 (MaxPooling2D (None, 38, 38, 32)   0           conv2d_619[0][0]                 
__________________________________________________________________________________________________
max_pooling2d_622 (MaxPooling2D (None, 38, 38, 32)   0           conv2d_622[0][0]                 
__________________________________________________________________________________________________
max_pooling2d_625 (MaxPooling2D (None, 38, 38, 32)   0           conv2d_625[0][0]                 
__________________________________________________________________________________________________
conv2d_614 (Conv2D)             (None, 38, 38, 64)   18496       max_pooling2d_613[0][0]          
__________________________________________________________________________________________________
conv2d_617 (Conv2D)             (None, 38, 38, 64)   18496       max_pooling2d_616[0][0]          
__________________________________________________________________________________________________
conv2d_620 (Conv2D)             (None, 38, 38, 64)   18496       max_pooling2d_619[0][0]          
__________________________________________________________________________________________________
conv2d_623 (Conv2D)             (None, 38, 38, 64)   18496       max_pooling2d_622[0][0]          
__________________________________________________________________________________________________
conv2d_626 (Conv2D)             (None, 38, 38, 64)   18496       max_pooling2d_625[0][0]          
__________________________________________________________________________________________________
max_pooling2d_614 (MaxPooling2D (None, 19, 19, 64)   0           conv2d_614[0][0]                 
__________________________________________________________________________________________________
max_pooling2d_617 (MaxPooling2D (None, 19, 19, 64)   0           conv2d_617[0][0]                 
__________________________________________________________________________________________________
max_pooling2d_620 (MaxPooling2D (None, 19, 19, 64)   0           conv2d_620[0][0]                 
__________________________________________________________________________________________________
max_pooling2d_623 (MaxPooling2D (None, 19, 19, 64)   0           conv2d_623[0][0]                 
__________________________________________________________________________________________________
max_pooling2d_626 (MaxPooling2D (None, 19, 19, 64)   0           conv2d_626[0][0]                 
__________________________________________________________________________________________________
conv2d_615 (Conv2D)             (None, 19, 19, 128)  73856       max_pooling2d_614[0][0]          
__________________________________________________________________________________________________
conv2d_618 (Conv2D)             (None, 19, 19, 128)  73856       max_pooling2d_617[0][0]          
__________________________________________________________________________________________________
conv2d_621 (Conv2D)             (None, 19, 19, 128)  73856       max_pooling2d_620[0][0]          
__________________________________________________________________________________________________
conv2d_624 (Conv2D)             (None, 19, 19, 128)  73856       max_pooling2d_623[0][0]          
__________________________________________________________________________________________________
conv2d_627 (Conv2D)             (None, 19, 19, 128)  73856       max_pooling2d_626[0][0]          
__________________________________________________________________________________________________
max_pooling2d_615 (MaxPooling2D (None, 10, 10, 128)  0           conv2d_615[0][0]                 
__________________________________________________________________________________________________
max_pooling2d_618 (MaxPooling2D (None, 10, 10, 128)  0           conv2d_618[0][0]                 
__________________________________________________________________________________________________
max_pooling2d_621 (MaxPooling2D (None, 10, 10, 128)  0           conv2d_621[0][0]                 
__________________________________________________________________________________________________
max_pooling2d_624 (MaxPooling2D (None, 10, 10, 128)  0           conv2d_624[0][0]                 
__________________________________________________________________________________________________
max_pooling2d_627 (MaxPooling2D (None, 10, 10, 128)  0           conv2d_627[0][0]                 
__________________________________________________________________________________________________
concatenate_36 (Concatenate)    (None, 10, 10, 640)  0           max_pooling2d_615[0][0]          
                                                                 max_pooling2d_618[0][0]          
                                                                 max_pooling2d_621[0][0]          
                                                                 max_pooling2d_624[0][0]          
                                                                 max_pooling2d_627[0][0]          
__________________________________________________________________________________________________
flatten_1476 (Flatten)          (None, 64000)        0           concatenate_36[0][0]             
==================================================================================================
Total params: 481,248
Trainable params: 481,248
Non-trainable params: 0
__________________________________________________________________________________________________
get cnn model
(1052, 64000)
[137.52357  244.93874    0.       146.18439   35.420326 309.31604
…
