program start
seed set
[PhysicalDevice(name='/physical_device:GPU:0', device_type='GPU')]
Model: "model_74"
__________________________________________________________________________________________________
Layer (type)                    Output Shape         Param #     Connected to                     
==================================================================================================
input_38 (InputLayer)           [(None, 150, 150, 7) 0                                            
__________________________________________________________________________________________________
lambda_185 (Lambda)             (None, 150, 150, 7)  0           input_38[0][0]                   
__________________________________________________________________________________________________
conv2d_629 (Conv2D)             (None, 150, 150, 32) 2048        lambda_185[0][0]                 
__________________________________________________________________________________________________
max_pooling2d_629 (MaxPooling2D (None, 75, 75, 32)   0           conv2d_629[0][0]                 
__________________________________________________________________________________________________
lambda_186 (Lambda)             (None, 75, 75, 7)    0           lambda_185[0][0]                 
__________________________________________________________________________________________________
lambda_187 (Lambda)             (None, 75, 75, 7)    0           lambda_185[0][0]                 
__________________________________________________________________________________________________
lambda_188 (Lambda)             (None, 75, 75, 7)    0           lambda_185[0][0]                 
__________________________________________________________________________________________________
lambda_189 (Lambda)             (None, 75, 75, 7)    0           lambda_185[0][0]                 
__________________________________________________________________________________________________
conv2d_630 (Conv2D)             (None, 75, 75, 32)   9248        max_pooling2d_629[0][0]          
__________________________________________________________________________________________________
conv2d_633 (Conv2D)             (None, 75, 75, 32)   2048        lambda_186[0][0]                 
__________________________________________________________________________________________________
conv2d_636 (Conv2D)             (None, 75, 75, 32)   2048        lambda_187[0][0]                 
__________________________________________________________________________________________________
conv2d_639 (Conv2D)             (None, 75, 75, 32)   2048        lambda_188[0][0]                 
__________________________________________________________________________________________________
conv2d_642 (Conv2D)             (None, 75, 75, 32)   2048        lambda_189[0][0]                 
__________________________________________________________________________________________________
max_pooling2d_630 (MaxPooling2D (None, 38, 38, 32)   0           conv2d_630[0][0]                 
__________________________________________________________________________________________________
max_pooling2d_633 (MaxPooling2D (None, 38, 38, 32)   0           conv2d_633[0][0]                 
__________________________________________________________________________________________________
max_pooling2d_636 (MaxPooling2D (None, 38, 38, 32)   0           conv2d_636[0][0]                 
__________________________________________________________________________________________________
max_pooling2d_639 (MaxPooling2D (None, 38, 38, 32)   0           conv2d_639[0][0]                 
__________________________________________________________________________________________________
max_pooling2d_642 (MaxPooling2D (None, 38, 38, 32)   0           conv2d_642[0][0]                 
__________________________________________________________________________________________________
conv2d_631 (Conv2D)             (None, 38, 38, 64)   18496       max_pooling2d_630[0][0]          
__________________________________________________________________________________________________
conv2d_634 (Conv2D)             (None, 38, 38, 64)   18496       max_pooling2d_633[0][0]          
__________________________________________________________________________________________________
conv2d_637 (Conv2D)             (None, 38, 38, 64)   18496       max_pooling2d_636[0][0]          
__________________________________________________________________________________________________
conv2d_640 (Conv2D)             (None, 38, 38, 64)   18496       max_pooling2d_639[0][0]          
__________________________________________________________________________________________________
conv2d_643 (Conv2D)             (None, 38, 38, 64)   18496       max_pooling2d_642[0][0]          
__________________________________________________________________________________________________
max_pooling2d_631 (MaxPooling2D (None, 19, 19, 64)   0           conv2d_631[0][0]                 
__________________________________________________________________________________________________
max_pooling2d_634 (MaxPooling2D (None, 19, 19, 64)   0           conv2d_634[0][0]                 
__________________________________________________________________________________________________
max_pooling2d_637 (MaxPooling2D (None, 19, 19, 64)   0           conv2d_637[0][0]                 
__________________________________________________________________________________________________
max_pooling2d_640 (MaxPooling2D (None, 19, 19, 64)   0           conv2d_640[0][0]                 
__________________________________________________________________________________________________
max_pooling2d_643 (MaxPooling2D (None, 19, 19, 64)   0           conv2d_643[0][0]                 
__________________________________________________________________________________________________
conv2d_632 (Conv2D)             (None, 19, 19, 128)  73856       max_pooling2d_631[0][0]          
__________________________________________________________________________________________________
conv2d_635 (Conv2D)             (None, 19, 19, 128)  73856       max_pooling2d_634[0][0]          
__________________________________________________________________________________________________
conv2d_638 (Conv2D)             (None, 19, 19, 128)  73856       max_pooling2d_637[0][0]          
__________________________________________________________________________________________________
conv2d_641 (Conv2D)             (None, 19, 19, 128)  73856       max_pooling2d_640[0][0]          
__________________________________________________________________________________________________
conv2d_644 (Conv2D)             (None, 19, 19, 128)  73856       max_pooling2d_643[0][0]          
__________________________________________________________________________________________________
max_pooling2d_632 (MaxPooling2D (None, 10, 10, 128)  0           conv2d_632[0][0]                 
__________________________________________________________________________________________________
max_pooling2d_635 (MaxPooling2D (None, 10, 10, 128)  0           conv2d_635[0][0]                 
__________________________________________________________________________________________________
max_pooling2d_638 (MaxPooling2D (None, 10, 10, 128)  0           conv2d_638[0][0]                 
__________________________________________________________________________________________________
max_pooling2d_641 (MaxPooling2D (None, 10, 10, 128)  0           conv2d_641[0][0]                 
__________________________________________________________________________________________________
max_pooling2d_644 (MaxPooling2D (None, 10, 10, 128)  0           conv2d_644[0][0]                 
__________________________________________________________________________________________________
concatenate_37 (Concatenate)    (None, 10, 10, 640)  0           max_pooling2d_632[0][0]          
                                                                 max_pooling2d_635[0][0]          
                                                                 max_pooling2d_638[0][0]          
                                                                 max_pooling2d_641[0][0]          
                                                                 max_pooling2d_644[0][0]          
__________________________________________________________________________________________________
flatten_1517 (Flatten)          (None, 64000)        0           concatenate_37[0][0]             
__________________________________________________________________________________________________
dense_111 (Dense)               (None, 1024)         65537024    flatten_1517[0][0]               
__________________________________________________________________________________________________
dropout_74 (Dropout)            (None, 1024)         0           dense_111[0][0]                  
__________________________________________________________________________________________________
dense_112 (Dense)               (None, 1024)         1049600     dropout_74[0][0]                 
__________________________________________________________________________________________________
dropout_75 (Dropout)            (None, 1024)         0           dense_112[0][0]                  
__________________________________________________________________________________________________
dense_113 (Dense)               (None, 5)            5125        dropout_75[0][0]                 
==================================================================================================
Total params: 67,072,997
Trainable params: 67,072,997
Non-trainable params: 0
__________________________________________________________________________________________________
start loading dataset ...
load "Big" complete
load "Long" complete
load "Mitotic" complete
…
avg': {'precision': 0.8039355265645678, 'recall': 0.7171395955642532, 'f1-score': 0.6662796693264948, 'support': 260.0}, 'weighted avg': {'precision': 0.7938992029902411, 'recall': 0.7076923076923077, 'f1-score': 0.6473676302994076, 'support': 260.0}}
Model: "model_75"
__________________________________________________________________________________________________
Layer (type)                    Output Shape         Param #     Connected to                     
==================================================================================================
input_38 (InputLayer)           [(None, 150, 150, 7) 0                                            
__________________________________________________________________________________________________
lambda_185 (Lambda)             (None, 150, 150, 7)  0           input_38[0][0]                   
__________________________________________________________________________________________________
conv2d_629 (Conv2D)             (None, 150, 150, 32) 2048        lambda_185[0][0]                 
__________________________________________________________________________________________________
max_pooling2d_629 (MaxPooling2D (None, 75, 75, 32)   0           conv2d_629[0][0]                 
__________________________________________________________________________________________________
lambda_186 (Lambda)             (None, 75, 75, 7)    0           lambda_185[0][0]                 
__________________________________________________________________________________________________
lambda_187 (Lambda)             (None, 75, 75, 7)    0           lambda_185[0][0]                 
__________________________________________________________________________________________________
lambda_188 (Lambda)             (None, 75, 75, 7)    0           lambda_185[0][0]                 
__________________________________________________________________________________________________
lambda_189 (Lambda)             (None, 75, 75, 7)    0           lambda_185[0][0]                 
__________________________________________________________________________________________________
conv2d_630 (Conv2D)             (None, 75, 75, 32)   9248        max_pooling2d_629[0][0]          
__________________________________________________________________________________________________
conv2d_633 (Conv2D)             (None, 75, 75, 32)   2048        lambda_186[0][0]                 
__________________________________________________________________________________________________
conv2d_636 (Conv2D)             (None, 75, 75, 32)   2048        lambda_187[0][0]                 
__________________________________________________________________________________________________
conv2d_639 (Conv2D)             (None, 75, 75, 32)   2048        lambda_188[0][0]                 
__________________________________________________________________________________________________
conv2d_642 (Conv2D)             (None, 75, 75, 32)   2048        lambda_189[0][0]                 
__________________________________________________________________________________________________
max_pooling2d_630 (MaxPooling2D (None, 38, 38, 32)   0           conv2d_630[0][0]                 
__________________________________________________________________________________________________
max_pooling2d_633 (MaxPooling2D (None, 38, 38, 32)   0           conv2d_633[0][0]                 
__________________________________________________________________________________________________
max_pooling2d_636 (MaxPooling2D (None, 38, 38, 32)   0           conv2d_636[0][0]                 
__________________________________________________________________________________________________
max_pooling2d_639 (MaxPooling2D (None, 38, 38, 32)   0           conv2d_639[0][0]                 
__________________________________________________________________________________________________
max_pooling2d_642 (MaxPooling2D (None, 38, 38, 32)   0           conv2d_642[0][0]                 
__________________________________________________________________________________________________
conv2d_631 (Conv2D)             (None, 38, 38, 64)   18496       max_pooling2d_630[0][0]          
__________________________________________________________________________________________________
conv2d_634 (Conv2D)             (None, 38, 38, 64)   18496       max_pooling2d_633[0][0]          
__________________________________________________________________________________________________
conv2d_637 (Conv2D)             (None, 38, 38, 64)   18496       max_pooling2d_636[0][0]          
__________________________________________________________________________________________________
conv2d_640 (Conv2D)             (None, 38, 38, 64)   18496       max_pooling2d_639[0][0]          
__________________________________________________________________________________________________
conv2d_643 (Conv2D)             (None, 38, 38, 64)   18496       max_pooling2d_642[0][0]          
__________________________________________________________________________________________________
max_pooling2d_631 (MaxPooling2D (None, 19, 19, 64)   0           conv2d_631[0][0]                 
__________________________________________________________________________________________________
max_pooling2d_634 (MaxPooling2D (None, 19, 19, 64)   0           conv2d_634[0][0]                 
__________________________________________________________________________________________________
max_pooling2d_637 (MaxPooling2D (None, 19, 19, 64)   0           conv2d_637[0][0]                 
__________________________________________________________________________________________________
max_pooling2d_640 (MaxPooling2D (None, 19, 19, 64)   0           conv2d_640[0][0]                 
__________________________________________________________________________________________________
max_pooling2d_643 (MaxPooling2D (None, 19, 19, 64)   0           conv2d_643[0][0]                 
__________________________________________________________________________________________________
conv2d_632 (Conv2D)             (None, 19, 19, 128)  73856       max_pooling2d_631[0][0]          
__________________________________________________________________________________________________
conv2d_635 (Conv2D)             (None, 19, 19, 128)  73856       max_pooling2d_634[0][0]          
__________________________________________________________________________________________________
conv2d_638 (Conv2D)             (None, 19, 19, 128)  73856       max_pooling2d_637[0][0]          
__________________________________________________________________________________________________
conv2d_641 (Conv2D)             (None, 19, 19, 128)  73856       max_pooling2d_640[0][0]          
__________________________________________________________________________________________________
conv2d_644 (Conv2D)             (None, 19, 19, 128)  73856       max_pooling2d_643[0][0]          
__________________________________________________________________________________________________
max_pooling2d_632 (MaxPooling2D (None, 10, 10, 128)  0           conv2d_632[0][0]                 
__________________________________________________________________________________________________
max_pooling2d_635 (MaxPooling2D (None, 10, 10, 128)  0           conv2d_635[0][0]                 
__________________________________________________________________________________________________
max_pooling2d_638 (MaxPooling2D (None, 10, 10, 128)  0           conv2d_638[0][0]                 
__________________________________________________________________________________________________
max_pooling2d_641 (MaxPooling2D (None, 10, 10, 128)  0           conv2d_641[0][0]                 
__________________________________________________________________________________________________
max_pooling2d_644 (MaxPooling2D (None, 10, 10, 128)  0           conv2d_644[0][0]                 
__________________________________________________________________________________________________
concatenate_37 (Concatenate)    (None, 10, 10, 640)  0           max_pooling2d_632[0][0]          
                                                                 max_pooling2d_635[0][0]          
                                                                 max_pooling2d_638[0][0]          
                                                                 max_pooling2d_641[0][0]          
                                                                 max_pooling2d_644[0][0]          
__________________________________________________________________________________________________
flatten_1517 (Flatten)          (None, 64000)        0           concatenate_37[0][0]             
==================================================================================================
Total params: 481,248
Trainable params: 481,248
Non-trainable params: 0
__________________________________________________________________________________________________
get cnn model
(1052, 64000)
[105.84914    0.       115.047905 158.06891  190.86642  479.1832
…
