program start
seed set
[PhysicalDevice(name='/physical_device:GPU:0', device_type='GPU')]
Model: "model_76"
__________________________________________________________________________________________________
Layer (type)                    Output Shape         Param #     Connected to                     
==================================================================================================
input_39 (InputLayer)           [(None, 150, 150, 7) 0                                            
__________________________________________________________________________________________________
lambda_190 (Lambda)             (None, 150, 150, 7)  0           input_39[0][0]                   
__________________________________________________________________________________________________
conv2d_646 (Conv2D)             (None, 150, 150, 32) 2048        lambda_190[0][0]                 
__________________________________________________________________________________________________
max_pooling2d_646 (MaxPooling2D (None, 75, 75, 32)   0           conv2d_646[0][0]                 
__________________________________________________________________________________________________
lambda_191 (Lambda)             (None, 75, 75, 7)    0           lambda_190[0][0]                 
__________________________________________________________________________________________________
lambda_192 (Lambda)             (None, 75, 75, 7)    0           lambda_190[0][0]                 
__________________________________________________________________________________________________
lambda_193 (Lambda)             (None, 75, 75, 7)    0           lambda_190[0][0]                 
__________________________________________________________________________________________________
lambda_194 (Lambda)             (None, 75, 75, 7)    0           lambda_190[0][0]                 
__________________________________________________________________________________________________
conv2d_647 (Conv2D)             (None, 75, 75, 32)   9248        max_pooling2d_646[0][0]          
__________________________________________________________________________________________________
conv2d_650 (Conv2D)             (None, 75, 75, 32)   2048        lambda_191[0][0]                 
__________________________________________________________________________________________________
conv2d_653 (Conv2D)             (None, 75, 75, 32)   2048        lambda_192[0][0]                 
__________________________________________________________________________________________________
conv2d_656 (Conv2D)             (None, 75, 75, 32)   2048        lambda_193[0][0]                 
__________________________________________________________________________________________________
conv2d_659 (Conv2D)             (None, 75, 75, 32)   2048        lambda_194[0][0]                 
__________________________________________________________________________________________________
max_pooling2d_647 (MaxPooling2D (None, 38, 38, 32)   0           conv2d_647[0][0]                 
__________________________________________________________________________________________________
max_pooling2d_650 (MaxPooling2D (None, 38, 38, 32)   0           conv2d_650[0][0]                 
__________________________________________________________________________________________________
max_pooling2d_653 (MaxPooling2D (None, 38, 38, 32)   0           conv2d_653[0][0]                 
__________________________________________________________________________________________________
max_pooling2d_656 (MaxPooling2D (None, 38, 38, 32)   0           conv2d_656[0][0]                 
__________________________________________________________________________________________________
max_pooling2d_659 (MaxPooling2D (None, 38, 38, 32)   0           conv2d_659[0][0]                 
__________________________________________________________________________________________________
conv2d_648 (Conv2D)             (None, 38, 38, 64)   18496       max_pooling2d_647[0][0]          
__________________________________________________________________________________________________
conv2d_651 (Conv2D)             (None, 38, 38, 64)   18496       max_pooling2d_650[0][0]          
__________________________________________________________________________________________________
conv2d_654 (Conv2D)             (None, 38, 38, 64)   18496       max_pooling2d_653[0][0]          
__________________________________________________________________________________________________
conv2d_657 (Conv2D)             (None, 38, 38, 64)   18496       max_pooling2d_656[0][0]          
__________________________________________________________________________________________________
conv2d_660 (Conv2D)             (None, 38, 38, 64)   18496       max_pooling2d_659[0][0]          
__________________________________________________________________________________________________
max_pooling2d_648 (MaxPooling2D (None, 19, 19, 64)   0           conv2d_648[0][0]                 
__________________________________________________________________________________________________
max_pooling2d_651 (MaxPooling2D (None, 19, 19, 64)   0           conv2d_651[0][0]                 
__________________________________________________________________________________________________
max_pooling2d_654 (MaxPooling2D (None, 19, 19, 64)   0           conv2d_654[0][0]                 
__________________________________________________________________________________________________
max_pooling2d_657 (MaxPooling2D (None, 19, 19, 64)   0           conv2d_657[0][0]                 
__________________________________________________________________________________________________
max_pooling2d_660 (MaxPooling2D (None, 19, 19, 64)   0           conv2d_660[0][0]                 
__________________________________________________________________________________________________
conv2d_649 (Conv2D)             (None, 19, 19, 128)  73856       max_pooling2d_648[0][0]          
__________________________________________________________________________________________________
conv2d_652 (Conv2D)             (None, 19, 19, 128)  73856       max_pooling2d_651[0][0]          
__________________________________________________________________________________________________
conv2d_655 (Conv2D)             (None, 19, 19, 128)  73856       max_pooling2d_654[0][0]          
__________________________________________________________________________________________________
conv2d_658 (Conv2D)             (None, 19, 19, 128)  73856       max_pooling2d_657[0][0]          
__________________________________________________________________________________________________
conv2d_661 (Conv2D)             (None, 19, 19, 128)  73856       max_pooling2d_660[0][0]          
__________________________________________________________________________________________________
max_pooling2d_649 (MaxPooling2D (None, 10, 10, 128)  0           conv2d_649[0][0]                 
__________________________________________________________________________________________________
max_pooling2d_652 (MaxPooling2D (None, 10, 10, 128)  0           conv2d_652[0][0]                 
__________________________________________________________________________________________________
max_pooling2d_655 (MaxPooling2D (None, 10, 10, 128)  0           conv2d_655[0][0]                 
__________________________________________________________________________________________________
max_pooling2d_658 (MaxPooling2D (None, 10, 10, 128)  0           conv2d_658[0][0]                 
__________________________________________________________________________________________________
max_pooling2d_661 (MaxPooling2D (None, 10, 10, 128)  0           conv2d_661[0][0]                 
__________________________________________________________________________________________________
concatenate_38 (Concatenate)    (None, 10, 10, 640)  0           max_pooling2d_649[0][0]          
                                                                 max_pooling2d_652[0][0]          
                                                                 max_pooling2d_655[0][0]          
                                                                 max_pooling2d_658[0][0]          
                                                                 max_pooling2d_661[0][0]          
__________________________________________________________________________________________________
flatten_1558 (Flatten)          (None, 64000)        0           concatenate_38[0][0]             
__________________________________________________________________________________________________
dense_114 (Dense)               (None, 1024)         65537024    flatten_1558[0][0]               
__________________________________________________________________________________________________
dropout_76 (Dropout)            (None, 1024)         0           dense_114[0][0]                  
__________________________________________________________________________________________________
dense_115 (Dense)               (None, 1024)         1049600     dropout_76[0][0]                 
__________________________________________________________________________________________________
dropout_77 (Dropout)            (None, 1024)         0           dense_115[0][0]                  
__________________________________________________________________________________________________
dense_116 (Dense)               (None, 5)            5125        dropout_77[0][0]                 
==================================================================================================
Total params: 67,072,997
Trainable params: 67,072,997
Non-trainable params: 0
__________________________________________________________________________________________________
start loading dataset ...
load "Big" complete
load "Long" complete
load "Mitotic" complete
…
           3       0.73      0.91      0.81        56
           4       1.00      0.05      0.10        56

    accuracy                           0.74       260
   macro avg       0.79      0.76      0.68       260
weighted avg       0.81      0.74      0.68       260

Model: "model_77"
__________________________________________________________________________________________________
Layer (type)                    Output Shape         Param #     Connected to                     
==================================================================================================
input_39 (InputLayer)           [(None, 150, 150, 7) 0                                            
__________________________________________________________________________________________________
lambda_190 (Lambda)             (None, 150, 150, 7)  0           input_39[0][0]                   
__________________________________________________________________________________________________
conv2d_646 (Conv2D)             (None, 150, 150, 32) 2048        lambda_190[0][0]                 
__________________________________________________________________________________________________
max_pooling2d_646 (MaxPooling2D (None, 75, 75, 32)   0           conv2d_646[0][0]                 
__________________________________________________________________________________________________
lambda_191 (Lambda)             (None, 75, 75, 7)    0           lambda_190[0][0]                 
__________________________________________________________________________________________________
lambda_192 (Lambda)             (None, 75, 75, 7)    0           lambda_190[0][0]                 
__________________________________________________________________________________________________
lambda_193 (Lambda)             (None, 75, 75, 7)    0           lambda_190[0][0]                 
__________________________________________________________________________________________________
lambda_194 (Lambda)             (None, 75, 75, 7)    0           lambda_190[0][0]                 
__________________________________________________________________________________________________
conv2d_647 (Conv2D)             (None, 75, 75, 32)   9248        max_pooling2d_646[0][0]          
__________________________________________________________________________________________________
conv2d_650 (Conv2D)             (None, 75, 75, 32)   2048        lambda_191[0][0]                 
__________________________________________________________________________________________________
conv2d_653 (Conv2D)             (None, 75, 75, 32)   2048        lambda_192[0][0]                 
__________________________________________________________________________________________________
conv2d_656 (Conv2D)             (None, 75, 75, 32)   2048        lambda_193[0][0]                 
__________________________________________________________________________________________________
conv2d_659 (Conv2D)             (None, 75, 75, 32)   2048        lambda_194[0][0]                 
__________________________________________________________________________________________________
max_pooling2d_647 (MaxPooling2D (None, 38, 38, 32)   0           conv2d_647[0][0]                 
__________________________________________________________________________________________________
max_pooling2d_650 (MaxPooling2D (None, 38, 38, 32)   0           conv2d_650[0][0]                 
__________________________________________________________________________________________________
max_pooling2d_653 (MaxPooling2D (None, 38, 38, 32)   0           conv2d_653[0][0]                 
__________________________________________________________________________________________________
max_pooling2d_656 (MaxPooling2D (None, 38, 38, 32)   0           conv2d_656[0][0]                 
__________________________________________________________________________________________________
max_pooling2d_659 (MaxPooling2D (None, 38, 38, 32)   0           conv2d_659[0][0]                 
__________________________________________________________________________________________________
conv2d_648 (Conv2D)             (None, 38, 38, 64)   18496       max_pooling2d_647[0][0]          
__________________________________________________________________________________________________
conv2d_651 (Conv2D)             (None, 38, 38, 64)   18496       max_pooling2d_650[0][0]          
__________________________________________________________________________________________________
conv2d_654 (Conv2D)             (None, 38, 38, 64)   18496       max_pooling2d_653[0][0]          
__________________________________________________________________________________________________
conv2d_657 (Conv2D)             (None, 38, 38, 64)   18496       max_pooling2d_656[0][0]          
__________________________________________________________________________________________________
conv2d_660 (Conv2D)             (None, 38, 38, 64)   18496       max_pooling2d_659[0][0]          
__________________________________________________________________________________________________
max_pooling2d_648 (MaxPooling2D (None, 19, 19, 64)   0           conv2d_648[0][0]                 
__________________________________________________________________________________________________
max_pooling2d_651 (MaxPooling2D (None, 19, 19, 64)   0           conv2d_651[0][0]                 
__________________________________________________________________________________________________
max_pooling2d_654 (MaxPooling2D (None, 19, 19, 64)   0           conv2d_654[0][0]                 
__________________________________________________________________________________________________
max_pooling2d_657 (MaxPooling2D (None, 19, 19, 64)   0           conv2d_657[0][0]                 
__________________________________________________________________________________________________
max_pooling2d_660 (MaxPooling2D (None, 19, 19, 64)   0           conv2d_660[0][0]                 
__________________________________________________________________________________________________
conv2d_649 (Conv2D)             (None, 19, 19, 128)  73856       max_pooling2d_648[0][0]          
__________________________________________________________________________________________________
conv2d_652 (Conv2D)             (None, 19, 19, 128)  73856       max_pooling2d_651[0][0]          
__________________________________________________________________________________________________
conv2d_655 (Conv2D)             (None, 19, 19, 128)  73856       max_pooling2d_654[0][0]          
__________________________________________________________________________________________________
conv2d_658 (Conv2D)             (None, 19, 19, 128)  73856       max_pooling2d_657[0][0]          
__________________________________________________________________________________________________
conv2d_661 (Conv2D)             (None, 19, 19, 128)  73856       max_pooling2d_660[0][0]          
__________________________________________________________________________________________________
max_pooling2d_649 (MaxPooling2D (None, 10, 10, 128)  0           conv2d_649[0][0]                 
__________________________________________________________________________________________________
max_pooling2d_652 (MaxPooling2D (None, 10, 10, 128)  0           conv2d_652[0][0]                 
__________________________________________________________________________________________________
max_pooling2d_655 (MaxPooling2D (None, 10, 10, 128)  0           conv2d_655[0][0]                 
__________________________________________________________________________________________________
max_pooling2d_658 (MaxPooling2D (None, 10, 10, 128)  0           conv2d_658[0][0]                 
__________________________________________________________________________________________________
max_pooling2d_661 (MaxPooling2D (None, 10, 10, 128)  0           conv2d_661[0][0]                 
__________________________________________________________________________________________________
concatenate_38 (Concatenate)    (None, 10, 10, 640)  0           max_pooling2d_649[0][0]          
                                                                 max_pooling2d_652[0][0]          
                                                                 max_pooling2d_655[0][0]          
                                                                 max_pooling2d_658[0][0]          
                                                                 max_pooling2d_661[0][0]          
__________________________________________________________________________________________________
flatten_1558 (Flatten)          (None, 64000)        0           concatenate_38[0][0]             
==================================================================================================
Total params: 481,248
Trainable params: 481,248
Non-trainable params: 0
__________________________________________________________________________________________________
get cnn model
(1052, 64000)
[164.73833  126.13624    0.       111.77619  153.76012    0.
…
