program start
seed set
[PhysicalDevice(name='/physical_device:GPU:0', device_type='GPU')]
Model: "model_78"
__________________________________________________________________________________________________
Layer (type)                    Output Shape         Param #     Connected to                     
==================================================================================================
input_40 (InputLayer)           [(None, 150, 150, 7) 0                                            
__________________________________________________________________________________________________
lambda_195 (Lambda)             (None, 150, 150, 7)  0           input_40[0][0]                   
__________________________________________________________________________________________________
conv2d_663 (Conv2D)             (None, 150, 150, 32) 2048        lambda_195[0][0]                 
__________________________________________________________________________________________________
max_pooling2d_663 (MaxPooling2D (None, 75, 75, 32)   0           conv2d_663[0][0]                 
__________________________________________________________________________________________________
lambda_196 (Lambda)             (None, 75, 75, 7)    0           lambda_195[0][0]                 
__________________________________________________________________________________________________
lambda_197 (Lambda)             (None, 75, 75, 7)    0           lambda_195[0][0]                 
__________________________________________________________________________________________________
lambda_198 (Lambda)             (None, 75, 75, 7)    0           lambda_195[0][0]                 
__________________________________________________________________________________________________
lambda_199 (Lambda)             (None, 75, 75, 7)    0           lambda_195[0][0]                 
__________________________________________________________________________________________________
conv2d_664 (Conv2D)             (None, 75, 75, 32)   9248        max_pooling2d_663[0][0]          
__________________________________________________________________________________________________
conv2d_667 (Conv2D)             (None, 75, 75, 32)   2048        lambda_196[0][0]                 
__________________________________________________________________________________________________
conv2d_670 (Conv2D)             (None, 75, 75, 32)   2048        lambda_197[0][0]                 
__________________________________________________________________________________________________
conv2d_673 (Conv2D)             (None, 75, 75, 32)   2048        lambda_198[0][0]                 
__________________________________________________________________________________________________
conv2d_676 (Conv2D)             (None, 75, 75, 32)   2048        lambda_199[0][0]                 
__________________________________________________________________________________________________
max_pooling2d_664 (MaxPooling2D (None, 38, 38, 32)   0           conv2d_664[0][0]                 
__________________________________________________________________________________________________
max_pooling2d_667 (MaxPooling2D (None, 38, 38, 32)   0           conv2d_667[0][0]                 
__________________________________________________________________________________________________
max_pooling2d_670 (MaxPooling2D (None, 38, 38, 32)   0           conv2d_670[0][0]                 
__________________________________________________________________________________________________
max_pooling2d_673 (MaxPooling2D (None, 38, 38, 32)   0           conv2d_673[0][0]                 
__________________________________________________________________________________________________
max_pooling2d_676 (MaxPooling2D (None, 38, 38, 32)   0           conv2d_676[0][0]                 
__________________________________________________________________________________________________
conv2d_665 (Conv2D)             (None, 38, 38, 64)   18496       max_pooling2d_664[0][0]          
__________________________________________________________________________________________________
conv2d_668 (Conv2D)             (None, 38, 38, 64)   18496       max_pooling2d_667[0][0]          
__________________________________________________________________________________________________
conv2d_671 (Conv2D)             (None, 38, 38, 64)   18496       max_pooling2d_670[0][0]          
__________________________________________________________________________________________________
conv2d_674 (Conv2D)             (None, 38, 38, 64)   18496       max_pooling2d_673[0][0]          
__________________________________________________________________________________________________
conv2d_677 (Conv2D)             (None, 38, 38, 64)   18496       max_pooling2d_676[0][0]          
__________________________________________________________________________________________________
max_pooling2d_665 (MaxPooling2D (None, 19, 19, 64)   0           conv2d_665[0][0]                 
__________________________________________________________________________________________________
max_pooling2d_668 (MaxPooling2D (None, 19, 19, 64)   0           conv2d_668[0][0]                 
__________________________________________________________________________________________________
max_pooling2d_671 (MaxPooling2D (None, 19, 19, 64)   0           conv2d_671[0][0]                 
__________________________________________________________________________________________________
max_pooling2d_674 (MaxPooling2D (None, 19, 19, 64)   0           conv2d_674[0][0]                 
__________________________________________________________________________________________________
max_pooling2d_677 (MaxPooling2D (None, 19, 19, 64)   0           conv2d_677[0][0]                 
__________________________________________________________________________________________________
conv2d_666 (Conv2D)             (None, 19, 19, 128)  73856       max_pooling2d_665[0][0]          
__________________________________________________________________________________________________
conv2d_669 (Conv2D)             (None, 19, 19, 128)  73856       max_pooling2d_668[0][0]          
__________________________________________________________________________________________________
conv2d_672 (Conv2D)             (None, 19, 19, 128)  73856       max_pooling2d_671[0][0]          
__________________________________________________________________________________________________
conv2d_675 (Conv2D)             (None, 19, 19, 128)  73856       max_pooling2d_674[0][0]          
__________________________________________________________________________________________________
conv2d_678 (Conv2D)             (None, 19, 19, 128)  73856       max_pooling2d_677[0][0]          
__________________________________________________________________________________________________
max_pooling2d_666 (MaxPooling2D (None, 10, 10, 128)  0           conv2d_666[0][0]                 
__________________________________________________________________________________________________
max_pooling2d_669 (MaxPooling2D (None, 10, 10, 128)  0           conv2d_669[0][0]                 
__________________________________________________________________________________________________
max_pooling2d_672 (MaxPooling2D (None, 10, 10, 128)  0           conv2d_672[0][0]                 
__________________________________________________________________________________________________
max_pooling2d_675 (MaxPooling2D (None, 10, 10, 128)  0           conv2d_675[0][0]                 
__________________________________________________________________________________________________
max_pooling2d_678 (MaxPooling2D (None, 10, 10, 128)  0           conv2d_678[0][0]                 
__________________________________________________________________________________________________
concatenate_39 (Concatenate)    (None, 10, 10, 640)  0           max_pooling2d_666[0][0]          
                                                                 max_pooling2d_669[0][0]          
                                                                 max_pooling2d_672[0][0]          
                                                                 max_pooling2d_675[0][0]          
                                                                 max_pooling2d_678[0][0]          
__________________________________________________________________________________________________
flatten_1599 (Flatten)          (None, 64000)        0           concatenate_39[0][0]             
__________________________________________________________________________________________________
dense_117 (Dense)               (None, 1024)         65537024    flatten_1599[0][0]               
__________________________________________________________________________________________________
dropout_78 (Dropout)            (None, 1024)         0           dense_117[0][0]                  
__________________________________________________________________________________________________
dense_118 (Dense)               (None, 1024)         1049600     dropout_78[0][0]                 
__________________________________________________________________________________________________
dropout_79 (Dropout)            (None, 1024)         0           dense_118[0][0]                  
__________________________________________________________________________________________________
dense_119 (Dense)               (None, 5)            5125        dropout_79[0][0]                 
==================================================================================================
Total params: 67,072,997
Trainable params: 67,072,997
Non-trainable params: 0
__________________________________________________________________________________________________
start loading dataset ...
load "Big" complete
load "Long" complete
load "Mitotic" complete
…
 avg': {'precision': 0.8276005998016567, 'recall': 0.7263387297633874, 'f1-score': 0.665841429130636, 'support': 260.0}, 'weighted avg': {'precision': 0.8522447129952259, 'recall': 0.7115384615384616, 'f1-score': 0.6688950639588518, 'support': 260.0}}
Model: "model_79"
__________________________________________________________________________________________________
Layer (type)                    Output Shape         Param #     Connected to                     
==================================================================================================
input_40 (InputLayer)           [(None, 150, 150, 7) 0                                            
__________________________________________________________________________________________________
lambda_195 (Lambda)             (None, 150, 150, 7)  0           input_40[0][0]                   
__________________________________________________________________________________________________
conv2d_663 (Conv2D)             (None, 150, 150, 32) 2048        lambda_195[0][0]                 
__________________________________________________________________________________________________
max_pooling2d_663 (MaxPooling2D (None, 75, 75, 32)   0           conv2d_663[0][0]                 
__________________________________________________________________________________________________
lambda_196 (Lambda)             (None, 75, 75, 7)    0           lambda_195[0][0]                 
__________________________________________________________________________________________________
lambda_197 (Lambda)             (None, 75, 75, 7)    0           lambda_195[0][0]                 
__________________________________________________________________________________________________
lambda_198 (Lambda)             (None, 75, 75, 7)    0           lambda_195[0][0]                 
__________________________________________________________________________________________________
lambda_199 (Lambda)             (None, 75, 75, 7)    0           lambda_195[0][0]                 
__________________________________________________________________________________________________
conv2d_664 (Conv2D)             (None, 75, 75, 32)   9248        max_pooling2d_663[0][0]          
__________________________________________________________________________________________________
conv2d_667 (Conv2D)             (None, 75, 75, 32)   2048        lambda_196[0][0]                 
__________________________________________________________________________________________________
conv2d_670 (Conv2D)             (None, 75, 75, 32)   2048        lambda_197[0][0]                 
__________________________________________________________________________________________________
conv2d_673 (Conv2D)             (None, 75, 75, 32)   2048        lambda_198[0][0]                 
__________________________________________________________________________________________________
conv2d_676 (Conv2D)             (None, 75, 75, 32)   2048        lambda_199[0][0]                 
__________________________________________________________________________________________________
max_pooling2d_664 (MaxPooling2D (None, 38, 38, 32)   0           conv2d_664[0][0]                 
__________________________________________________________________________________________________
max_pooling2d_667 (MaxPooling2D (None, 38, 38, 32)   0           conv2d_667[0][0]                 
__________________________________________________________________________________________________
max_pooling2d_670 (MaxPooling2D (None, 38, 38, 32)   0           conv2d_670[0][0]                 
__________________________________________________________________________________________________
max_pooling2d_673 (MaxPooling2D (None, 38, 38, 32)   0           conv2d_673[0][0]                 
__________________________________________________________________________________________________
max_pooling2d_676 (MaxPooling2D (None, 38, 38, 32)   0           conv2d_676[0][0]                 
__________________________________________________________________________________________________
conv2d_665 (Conv2D)             (None, 38, 38, 64)   18496       max_pooling2d_664[0][0]          
__________________________________________________________________________________________________
conv2d_668 (Conv2D)             (None, 38, 38, 64)   18496       max_pooling2d_667[0][0]          
__________________________________________________________________________________________________
conv2d_671 (Conv2D)             (None, 38, 38, 64)   18496       max_pooling2d_670[0][0]          
__________________________________________________________________________________________________
conv2d_674 (Conv2D)             (None, 38, 38, 64)   18496       max_pooling2d_673[0][0]          
__________________________________________________________________________________________________
conv2d_677 (Conv2D)             (None, 38, 38, 64)   18496       max_pooling2d_676[0][0]          
__________________________________________________________________________________________________
max_pooling2d_665 (MaxPooling2D (None, 19, 19, 64)   0           conv2d_665[0][0]                 
__________________________________________________________________________________________________
max_pooling2d_668 (MaxPooling2D (None, 19, 19, 64)   0           conv2d_668[0][0]                 
__________________________________________________________________________________________________
max_pooling2d_671 (MaxPooling2D (None, 19, 19, 64)   0           conv2d_671[0][0]                 
__________________________________________________________________________________________________
max_pooling2d_674 (MaxPooling2D (None, 19, 19, 64)   0           conv2d_674[0][0]                 
__________________________________________________________________________________________________
max_pooling2d_677 (MaxPooling2D (None, 19, 19, 64)   0           conv2d_677[0][0]                 
__________________________________________________________________________________________________
conv2d_666 (Conv2D)             (None, 19, 19, 128)  73856       max_pooling2d_665[0][0]          
__________________________________________________________________________________________________
conv2d_669 (Conv2D)             (None, 19, 19, 128)  73856       max_pooling2d_668[0][0]          
__________________________________________________________________________________________________
conv2d_672 (Conv2D)             (None, 19, 19, 128)  73856       max_pooling2d_671[0][0]          
__________________________________________________________________________________________________
conv2d_675 (Conv2D)             (None, 19, 19, 128)  73856       max_pooling2d_674[0][0]          
__________________________________________________________________________________________________
conv2d_678 (Conv2D)             (None, 19, 19, 128)  73856       max_pooling2d_677[0][0]          
__________________________________________________________________________________________________
max_pooling2d_666 (MaxPooling2D (None, 10, 10, 128)  0           conv2d_666[0][0]                 
__________________________________________________________________________________________________
max_pooling2d_669 (MaxPooling2D (None, 10, 10, 128)  0           conv2d_669[0][0]                 
__________________________________________________________________________________________________
max_pooling2d_672 (MaxPooling2D (None, 10, 10, 128)  0           conv2d_672[0][0]                 
__________________________________________________________________________________________________
max_pooling2d_675 (MaxPooling2D (None, 10, 10, 128)  0           conv2d_675[0][0]                 
__________________________________________________________________________________________________
max_pooling2d_678 (MaxPooling2D (None, 10, 10, 128)  0           conv2d_678[0][0]                 
__________________________________________________________________________________________________
concatenate_39 (Concatenate)    (None, 10, 10, 640)  0           max_pooling2d_666[0][0]          
                                                                 max_pooling2d_669[0][0]          
                                                                 max_pooling2d_672[0][0]          
                                                                 max_pooling2d_675[0][0]          
                                                                 max_pooling2d_678[0][0]          
__________________________________________________________________________________________________
flatten_1599 (Flatten)          (None, 64000)        0           concatenate_39[0][0]             
==================================================================================================
Total params: 481,248
Trainable params: 481,248
Non-trainable params: 0
__________________________________________________________________________________________________
get cnn model
(1052, 64000)
[  0.        58.455082   0.       334.10632   45.506172 213.54347
…
