program start
seed set
[PhysicalDevice(name='/physical_device:GPU:0', device_type='GPU')]
Model: "model_80"
__________________________________________________________________________________________________
Layer (type)                    Output Shape         Param #     Connected to                     
==================================================================================================
input_41 (InputLayer)           [(None, 150, 150, 7) 0                                            
__________________________________________________________________________________________________
lambda_200 (Lambda)             (None, 150, 150, 7)  0           input_41[0][0]                   
__________________________________________________________________________________________________
conv2d_680 (Conv2D)             (None, 150, 150, 32) 2048        lambda_200[0][0]                 
__________________________________________________________________________________________________
max_pooling2d_680 (MaxPooling2D (None, 75, 75, 32)   0           conv2d_680[0][0]                 
__________________________________________________________________________________________________
lambda_201 (Lambda)             (None, 75, 75, 7)    0           lambda_200[0][0]                 
__________________________________________________________________________________________________
lambda_202 (Lambda)             (None, 75, 75, 7)    0           lambda_200[0][0]                 
__________________________________________________________________________________________________
lambda_203 (Lambda)             (None, 75, 75, 7)    0           lambda_200[0][0]                 
__________________________________________________________________________________________________
lambda_204 (Lambda)             (None, 75, 75, 7)    0           lambda_200[0][0]                 
__________________________________________________________________________________________________
conv2d_681 (Conv2D)             (None, 75, 75, 32)   9248        max_pooling2d_680[0][0]          
__________________________________________________________________________________________________
conv2d_684 (Conv2D)             (None, 75, 75, 32)   2048        lambda_201[0][0]                 
__________________________________________________________________________________________________
conv2d_687 (Conv2D)             (None, 75, 75, 32)   2048        lambda_202[0][0]                 
__________________________________________________________________________________________________
conv2d_690 (Conv2D)             (None, 75, 75, 32)   2048        lambda_203[0][0]                 
__________________________________________________________________________________________________
conv2d_693 (Conv2D)             (None, 75, 75, 32)   2048        lambda_204[0][0]                 
__________________________________________________________________________________________________
max_pooling2d_681 (MaxPooling2D (None, 38, 38, 32)   0           conv2d_681[0][0]                 
__________________________________________________________________________________________________
max_pooling2d_684 (MaxPooling2D (None, 38, 38, 32)   0           conv2d_684[0][0]                 
__________________________________________________________________________________________________
max_pooling2d_687 (MaxPooling2D (None, 38, 38, 32)   0           conv2d_687[0][0]                 
__________________________________________________________________________________________________
max_pooling2d_690 (MaxPooling2D (None, 38, 38, 32)   0           conv2d_690[0][0]                 
__________________________________________________________________________________________________
max_pooling2d_693 (MaxPooling2D (None, 38, 38, 32)   0           conv2d_693[0][0]                 
__________________________________________________________________________________________________
conv2d_682 (Conv2D)             (None, 38, 38, 64)   18496       max_pooling2d_681[0][0]          
__________________________________________________________________________________________________
conv2d_685 (Conv2D)             (None, 38, 38, 64)   18496       max_pooling2d_684[0][0]          
__________________________________________________________________________________________________
conv2d_688 (Conv2D)             (None, 38, 38, 64)   18496       max_pooling2d_687[0][0]          
__________________________________________________________________________________________________
conv2d_691 (Conv2D)             (None, 38, 38, 64)   18496       max_pooling2d_690[0][0]          
__________________________________________________________________________________________________
conv2d_694 (Conv2D)             (None, 38, 38, 64)   18496       max_pooling2d_693[0][0]          
__________________________________________________________________________________________________
max_pooling2d_682 (MaxPooling2D (None, 19, 19, 64)   0           conv2d_682[0][0]                 
__________________________________________________________________________________________________
max_pooling2d_685 (MaxPooling2D (None, 19, 19, 64)   0           conv2d_685[0][0]                 
__________________________________________________________________________________________________
max_pooling2d_688 (MaxPooling2D (None, 19, 19, 64)   0           conv2d_688[0][0]                 
__________________________________________________________________________________________________
max_pooling2d_691 (MaxPooling2D (None, 19, 19, 64)   0           conv2d_691[0][0]                 
__________________________________________________________________________________________________
max_pooling2d_694 (MaxPooling2D (None, 19, 19, 64)   0           conv2d_694[0][0]                 
__________________________________________________________________________________________________
conv2d_683 (Conv2D)             (None, 19, 19, 128)  73856       max_pooling2d_682[0][0]          
__________________________________________________________________________________________________
conv2d_686 (Conv2D)             (None, 19, 19, 128)  73856       max_pooling2d_685[0][0]          
__________________________________________________________________________________________________
conv2d_689 (Conv2D)             (None, 19, 19, 128)  73856       max_pooling2d_688[0][0]          
__________________________________________________________________________________________________
conv2d_692 (Conv2D)             (None, 19, 19, 128)  73856       max_pooling2d_691[0][0]          
__________________________________________________________________________________________________
conv2d_695 (Conv2D)             (None, 19, 19, 128)  73856       max_pooling2d_694[0][0]          
__________________________________________________________________________________________________
max_pooling2d_683 (MaxPooling2D (None, 10, 10, 128)  0           conv2d_683[0][0]                 
__________________________________________________________________________________________________
max_pooling2d_686 (MaxPooling2D (None, 10, 10, 128)  0           conv2d_686[0][0]                 
__________________________________________________________________________________________________
max_pooling2d_689 (MaxPooling2D (None, 10, 10, 128)  0           conv2d_689[0][0]                 
__________________________________________________________________________________________________
max_pooling2d_692 (MaxPooling2D (None, 10, 10, 128)  0           conv2d_692[0][0]                 
__________________________________________________________________________________________________
max_pooling2d_695 (MaxPooling2D (None, 10, 10, 128)  0           conv2d_695[0][0]                 
__________________________________________________________________________________________________
concatenate_40 (Concatenate)    (None, 10, 10, 640)  0           max_pooling2d_683[0][0]          
                                                                 max_pooling2d_686[0][0]          
                                                                 max_pooling2d_689[0][0]          
                                                                 max_pooling2d_692[0][0]          
                                                                 max_pooling2d_695[0][0]          
__________________________________________________________________________________________________
flatten_1640 (Flatten)          (None, 64000)        0           concatenate_40[0][0]             
__________________________________________________________________________________________________
dense_120 (Dense)               (None, 1024)         65537024    flatten_1640[0][0]               
__________________________________________________________________________________________________
dropout_80 (Dropout)            (None, 1024)         0           dense_120[0][0]                  
__________________________________________________________________________________________________
dense_121 (Dense)               (None, 1024)         1049600     dropout_80[0][0]                 
__________________________________________________________________________________________________
dropout_81 (Dropout)            (None, 1024)         0           dense_121[0][0]                  
__________________________________________________________________________________________________
dense_122 (Dense)               (None, 5)            5125        dropout_81[0][0]                 
==================================================================================================
Total params: 67,072,997
Trainable params: 67,072,997
Non-trainable params: 0
__________________________________________________________________________________________________
start loading dataset ...
load "Big" complete
load "Long" complete
load "Mitotic" complete
…
           3       0.92      0.79      0.85        56
           4       0.75      0.43      0.55        56

    accuracy                           0.78       260
   macro avg       0.77      0.79      0.76       260
weighted avg       0.80      0.78      0.78       260

Model: "model_81"
__________________________________________________________________________________________________
Layer (type)                    Output Shape         Param #     Connected to                     
==================================================================================================
input_41 (InputLayer)           [(None, 150, 150, 7) 0                                            
__________________________________________________________________________________________________
lambda_200 (Lambda)             (None, 150, 150, 7)  0           input_41[0][0]                   
__________________________________________________________________________________________________
conv2d_680 (Conv2D)             (None, 150, 150, 32) 2048        lambda_200[0][0]                 
__________________________________________________________________________________________________
max_pooling2d_680 (MaxPooling2D (None, 75, 75, 32)   0           conv2d_680[0][0]                 
__________________________________________________________________________________________________
lambda_201 (Lambda)             (None, 75, 75, 7)    0           lambda_200[0][0]                 
__________________________________________________________________________________________________
lambda_202 (Lambda)             (None, 75, 75, 7)    0           lambda_200[0][0]                 
__________________________________________________________________________________________________
lambda_203 (Lambda)             (None, 75, 75, 7)    0           lambda_200[0][0]                 
__________________________________________________________________________________________________
lambda_204 (Lambda)             (None, 75, 75, 7)    0           lambda_200[0][0]                 
__________________________________________________________________________________________________
conv2d_681 (Conv2D)             (None, 75, 75, 32)   9248        max_pooling2d_680[0][0]          
__________________________________________________________________________________________________
conv2d_684 (Conv2D)             (None, 75, 75, 32)   2048        lambda_201[0][0]                 
__________________________________________________________________________________________________
conv2d_687 (Conv2D)             (None, 75, 75, 32)   2048        lambda_202[0][0]                 
__________________________________________________________________________________________________
conv2d_690 (Conv2D)             (None, 75, 75, 32)   2048        lambda_203[0][0]                 
__________________________________________________________________________________________________
conv2d_693 (Conv2D)             (None, 75, 75, 32)   2048        lambda_204[0][0]                 
__________________________________________________________________________________________________
max_pooling2d_681 (MaxPooling2D (None, 38, 38, 32)   0           conv2d_681[0][0]                 
__________________________________________________________________________________________________
max_pooling2d_684 (MaxPooling2D (None, 38, 38, 32)   0           conv2d_684[0][0]                 
__________________________________________________________________________________________________
max_pooling2d_687 (MaxPooling2D (None, 38, 38, 32)   0           conv2d_687[0][0]                 
__________________________________________________________________________________________________
max_pooling2d_690 (MaxPooling2D (None, 38, 38, 32)   0           conv2d_690[0][0]                 
__________________________________________________________________________________________________
max_pooling2d_693 (MaxPooling2D (None, 38, 38, 32)   0           conv2d_693[0][0]                 
__________________________________________________________________________________________________
conv2d_682 (Conv2D)             (None, 38, 38, 64)   18496       max_pooling2d_681[0][0]          
__________________________________________________________________________________________________
conv2d_685 (Conv2D)             (None, 38, 38, 64)   18496       max_pooling2d_684[0][0]          
__________________________________________________________________________________________________
conv2d_688 (Conv2D)             (None, 38, 38, 64)   18496       max_pooling2d_687[0][0]          
__________________________________________________________________________________________________
conv2d_691 (Conv2D)             (None, 38, 38, 64)   18496       max_pooling2d_690[0][0]          
__________________________________________________________________________________________________
conv2d_694 (Conv2D)             (None, 38, 38, 64)   18496       max_pooling2d_693[0][0]          
__________________________________________________________________________________________________
max_pooling2d_682 (MaxPooling2D (None, 19, 19, 64)   0           conv2d_682[0][0]                 
__________________________________________________________________________________________________
max_pooling2d_685 (MaxPooling2D (None, 19, 19, 64)   0           conv2d_685[0][0]                 
__________________________________________________________________________________________________
max_pooling2d_688 (MaxPooling2D (None, 19, 19, 64)   0           conv2d_688[0][0]                 
__________________________________________________________________________________________________
max_pooling2d_691 (MaxPooling2D (None, 19, 19, 64)   0           conv2d_691[0][0]                 
__________________________________________________________________________________________________
max_pooling2d_694 (MaxPooling2D (None, 19, 19, 64)   0           conv2d_694[0][0]                 
__________________________________________________________________________________________________
conv2d_683 (Conv2D)             (None, 19, 19, 128)  73856       max_pooling2d_682[0][0]          
__________________________________________________________________________________________________
conv2d_686 (Conv2D)             (None, 19, 19, 128)  73856       max_pooling2d_685[0][0]          
__________________________________________________________________________________________________
conv2d_689 (Conv2D)             (None, 19, 19, 128)  73856       max_pooling2d_688[0][0]          
__________________________________________________________________________________________________
conv2d_692 (Conv2D)             (None, 19, 19, 128)  73856       max_pooling2d_691[0][0]          
__________________________________________________________________________________________________
conv2d_695 (Conv2D)             (None, 19, 19, 128)  73856       max_pooling2d_694[0][0]          
__________________________________________________________________________________________________
max_pooling2d_683 (MaxPooling2D (None, 10, 10, 128)  0           conv2d_683[0][0]                 
__________________________________________________________________________________________________
max_pooling2d_686 (MaxPooling2D (None, 10, 10, 128)  0           conv2d_686[0][0]                 
__________________________________________________________________________________________________
max_pooling2d_689 (MaxPooling2D (None, 10, 10, 128)  0           conv2d_689[0][0]                 
__________________________________________________________________________________________________
max_pooling2d_692 (MaxPooling2D (None, 10, 10, 128)  0           conv2d_692[0][0]                 
__________________________________________________________________________________________________
max_pooling2d_695 (MaxPooling2D (None, 10, 10, 128)  0           conv2d_695[0][0]                 
__________________________________________________________________________________________________
concatenate_40 (Concatenate)    (None, 10, 10, 640)  0           max_pooling2d_683[0][0]          
                                                                 max_pooling2d_686[0][0]          
                                                                 max_pooling2d_689[0][0]          
                                                                 max_pooling2d_692[0][0]          
                                                                 max_pooling2d_695[0][0]          
__________________________________________________________________________________________________
flatten_1640 (Flatten)          (None, 64000)        0           concatenate_40[0][0]             
==================================================================================================
Total params: 481,248
Trainable params: 481,248
Non-trainable params: 0
__________________________________________________________________________________________________
get cnn model
(1052, 64000)
[191.68759  114.838165 265.0401   131.63306    0.         0.
…
