program start
seed set
[PhysicalDevice(name='/physical_device:GPU:0', device_type='GPU')]
Model: "model_82"
__________________________________________________________________________________________________
Layer (type)                    Output Shape         Param #     Connected to                     
==================================================================================================
input_42 (InputLayer)           [(None, 150, 150, 7) 0                                            
__________________________________________________________________________________________________
lambda_205 (Lambda)             (None, 150, 150, 7)  0           input_42[0][0]                   
__________________________________________________________________________________________________
conv2d_697 (Conv2D)             (None, 150, 150, 32) 2048        lambda_205[0][0]                 
__________________________________________________________________________________________________
max_pooling2d_697 (MaxPooling2D (None, 75, 75, 32)   0           conv2d_697[0][0]                 
__________________________________________________________________________________________________
lambda_206 (Lambda)             (None, 75, 75, 7)    0           lambda_205[0][0]                 
__________________________________________________________________________________________________
lambda_207 (Lambda)             (None, 75, 75, 7)    0           lambda_205[0][0]                 
__________________________________________________________________________________________________
lambda_208 (Lambda)             (None, 75, 75, 7)    0           lambda_205[0][0]                 
__________________________________________________________________________________________________
lambda_209 (Lambda)             (None, 75, 75, 7)    0           lambda_205[0][0]                 
__________________________________________________________________________________________________
conv2d_698 (Conv2D)             (None, 75, 75, 32)   9248        max_pooling2d_697[0][0]          
__________________________________________________________________________________________________
conv2d_701 (Conv2D)             (None, 75, 75, 32)   2048        lambda_206[0][0]                 
__________________________________________________________________________________________________
conv2d_704 (Conv2D)             (None, 75, 75, 32)   2048        lambda_207[0][0]                 
__________________________________________________________________________________________________
conv2d_707 (Conv2D)             (None, 75, 75, 32)   2048        lambda_208[0][0]                 
__________________________________________________________________________________________________
conv2d_710 (Conv2D)             (None, 75, 75, 32)   2048        lambda_209[0][0]                 
__________________________________________________________________________________________________
max_pooling2d_698 (MaxPooling2D (None, 38, 38, 32)   0           conv2d_698[0][0]                 
__________________________________________________________________________________________________
max_pooling2d_701 (MaxPooling2D (None, 38, 38, 32)   0           conv2d_701[0][0]                 
__________________________________________________________________________________________________
max_pooling2d_704 (MaxPooling2D (None, 38, 38, 32)   0           conv2d_704[0][0]                 
__________________________________________________________________________________________________
max_pooling2d_707 (MaxPooling2D (None, 38, 38, 32)   0           conv2d_707[0][0]                 
__________________________________________________________________________________________________
max_pooling2d_710 (MaxPooling2D (None, 38, 38, 32)   0           conv2d_710[0][0]                 
__________________________________________________________________________________________________
conv2d_699 (Conv2D)             (None, 38, 38, 64)   18496       max_pooling2d_698[0][0]          
__________________________________________________________________________________________________
conv2d_702 (Conv2D)             (None, 38, 38, 64)   18496       max_pooling2d_701[0][0]          
__________________________________________________________________________________________________
conv2d_705 (Conv2D)             (None, 38, 38, 64)   18496       max_pooling2d_704[0][0]          
__________________________________________________________________________________________________
conv2d_708 (Conv2D)             (None, 38, 38, 64)   18496       max_pooling2d_707[0][0]          
__________________________________________________________________________________________________
conv2d_711 (Conv2D)             (None, 38, 38, 64)   18496       max_pooling2d_710[0][0]          
__________________________________________________________________________________________________
max_pooling2d_699 (MaxPooling2D (None, 19, 19, 64)   0           conv2d_699[0][0]                 
__________________________________________________________________________________________________
max_pooling2d_702 (MaxPooling2D (None, 19, 19, 64)   0           conv2d_702[0][0]                 
__________________________________________________________________________________________________
max_pooling2d_705 (MaxPooling2D (None, 19, 19, 64)   0           conv2d_705[0][0]                 
__________________________________________________________________________________________________
max_pooling2d_708 (MaxPooling2D (None, 19, 19, 64)   0           conv2d_708[0][0]                 
__________________________________________________________________________________________________
max_pooling2d_711 (MaxPooling2D (None, 19, 19, 64)   0           conv2d_711[0][0]                 
__________________________________________________________________________________________________
conv2d_700 (Conv2D)             (None, 19, 19, 128)  73856       max_pooling2d_699[0][0]          
__________________________________________________________________________________________________
conv2d_703 (Conv2D)             (None, 19, 19, 128)  73856       max_pooling2d_702[0][0]          
__________________________________________________________________________________________________
conv2d_706 (Conv2D)             (None, 19, 19, 128)  73856       max_pooling2d_705[0][0]          
__________________________________________________________________________________________________
conv2d_709 (Conv2D)             (None, 19, 19, 128)  73856       max_pooling2d_708[0][0]          
__________________________________________________________________________________________________
conv2d_712 (Conv2D)             (None, 19, 19, 128)  73856       max_pooling2d_711[0][0]          
__________________________________________________________________________________________________
max_pooling2d_700 (MaxPooling2D (None, 10, 10, 128)  0           conv2d_700[0][0]                 
__________________________________________________________________________________________________
max_pooling2d_703 (MaxPooling2D (None, 10, 10, 128)  0           conv2d_703[0][0]                 
__________________________________________________________________________________________________
max_pooling2d_706 (MaxPooling2D (None, 10, 10, 128)  0           conv2d_706[0][0]                 
__________________________________________________________________________________________________
max_pooling2d_709 (MaxPooling2D (None, 10, 10, 128)  0           conv2d_709[0][0]                 
__________________________________________________________________________________________________
max_pooling2d_712 (MaxPooling2D (None, 10, 10, 128)  0           conv2d_712[0][0]                 
__________________________________________________________________________________________________
concatenate_41 (Concatenate)    (None, 10, 10, 640)  0           max_pooling2d_700[0][0]          
                                                                 max_pooling2d_703[0][0]          
                                                                 max_pooling2d_706[0][0]          
                                                                 max_pooling2d_709[0][0]          
                                                                 max_pooling2d_712[0][0]          
__________________________________________________________________________________________________
flatten_1681 (Flatten)          (None, 64000)        0           concatenate_41[0][0]             
__________________________________________________________________________________________________
dense_123 (Dense)               (None, 1024)         65537024    flatten_1681[0][0]               
__________________________________________________________________________________________________
dropout_82 (Dropout)            (None, 1024)         0           dense_123[0][0]                  
__________________________________________________________________________________________________
dense_124 (Dense)               (None, 1024)         1049600     dropout_82[0][0]                 
__________________________________________________________________________________________________
dropout_83 (Dropout)            (None, 1024)         0           dense_124[0][0]                  
__________________________________________________________________________________________________
dense_125 (Dense)               (None, 5)            5125        dropout_83[0][0]                 
==================================================================================================
Total params: 67,072,997
Trainable params: 67,072,997
Non-trainable params: 0
__________________________________________________________________________________________________
start loading dataset ...
load "Big" complete
load "Long" complete
load "Mitotic" complete
…
avg': {'precision': 0.5744336290808855, 'recall': 0.6853555120678408, 'f1-score': 0.6009629277936039, 'support': 260.0}, 'weighted avg': {'precision': 0.5688110020739877, 'recall': 0.6692307692307692, 'f1-score': 0.5893332706478666, 'support': 260.0}}
Model: "model_83"
__________________________________________________________________________________________________
Layer (type)                    Output Shape         Param #     Connected to                     
==================================================================================================
input_42 (InputLayer)           [(None, 150, 150, 7) 0                                            
__________________________________________________________________________________________________
lambda_205 (Lambda)             (None, 150, 150, 7)  0           input_42[0][0]                   
__________________________________________________________________________________________________
conv2d_697 (Conv2D)             (None, 150, 150, 32) 2048        lambda_205[0][0]                 
__________________________________________________________________________________________________
max_pooling2d_697 (MaxPooling2D (None, 75, 75, 32)   0           conv2d_697[0][0]                 
__________________________________________________________________________________________________
lambda_206 (Lambda)             (None, 75, 75, 7)    0           lambda_205[0][0]                 
__________________________________________________________________________________________________
lambda_207 (Lambda)             (None, 75, 75, 7)    0           lambda_205[0][0]                 
__________________________________________________________________________________________________
lambda_208 (Lambda)             (None, 75, 75, 7)    0           lambda_205[0][0]                 
__________________________________________________________________________________________________
lambda_209 (Lambda)             (None, 75, 75, 7)    0           lambda_205[0][0]                 
__________________________________________________________________________________________________
conv2d_698 (Conv2D)             (None, 75, 75, 32)   9248        max_pooling2d_697[0][0]          
__________________________________________________________________________________________________
conv2d_701 (Conv2D)             (None, 75, 75, 32)   2048        lambda_206[0][0]                 
__________________________________________________________________________________________________
conv2d_704 (Conv2D)             (None, 75, 75, 32)   2048        lambda_207[0][0]                 
__________________________________________________________________________________________________
conv2d_707 (Conv2D)             (None, 75, 75, 32)   2048        lambda_208[0][0]                 
__________________________________________________________________________________________________
conv2d_710 (Conv2D)             (None, 75, 75, 32)   2048        lambda_209[0][0]                 
__________________________________________________________________________________________________
max_pooling2d_698 (MaxPooling2D (None, 38, 38, 32)   0           conv2d_698[0][0]                 
__________________________________________________________________________________________________
max_pooling2d_701 (MaxPooling2D (None, 38, 38, 32)   0           conv2d_701[0][0]                 
__________________________________________________________________________________________________
max_pooling2d_704 (MaxPooling2D (None, 38, 38, 32)   0           conv2d_704[0][0]                 
__________________________________________________________________________________________________
max_pooling2d_707 (MaxPooling2D (None, 38, 38, 32)   0           conv2d_707[0][0]                 
__________________________________________________________________________________________________
max_pooling2d_710 (MaxPooling2D (None, 38, 38, 32)   0           conv2d_710[0][0]                 
__________________________________________________________________________________________________
conv2d_699 (Conv2D)             (None, 38, 38, 64)   18496       max_pooling2d_698[0][0]          
__________________________________________________________________________________________________
conv2d_702 (Conv2D)             (None, 38, 38, 64)   18496       max_pooling2d_701[0][0]          
__________________________________________________________________________________________________
conv2d_705 (Conv2D)             (None, 38, 38, 64)   18496       max_pooling2d_704[0][0]          
__________________________________________________________________________________________________
conv2d_708 (Conv2D)             (None, 38, 38, 64)   18496       max_pooling2d_707[0][0]          
__________________________________________________________________________________________________
conv2d_711 (Conv2D)             (None, 38, 38, 64)   18496       max_pooling2d_710[0][0]          
__________________________________________________________________________________________________
max_pooling2d_699 (MaxPooling2D (None, 19, 19, 64)   0           conv2d_699[0][0]                 
__________________________________________________________________________________________________
max_pooling2d_702 (MaxPooling2D (None, 19, 19, 64)   0           conv2d_702[0][0]                 
__________________________________________________________________________________________________
max_pooling2d_705 (MaxPooling2D (None, 19, 19, 64)   0           conv2d_705[0][0]                 
__________________________________________________________________________________________________
max_pooling2d_708 (MaxPooling2D (None, 19, 19, 64)   0           conv2d_708[0][0]                 
__________________________________________________________________________________________________
max_pooling2d_711 (MaxPooling2D (None, 19, 19, 64)   0           conv2d_711[0][0]                 
__________________________________________________________________________________________________
conv2d_700 (Conv2D)             (None, 19, 19, 128)  73856       max_pooling2d_699[0][0]          
__________________________________________________________________________________________________
conv2d_703 (Conv2D)             (None, 19, 19, 128)  73856       max_pooling2d_702[0][0]          
__________________________________________________________________________________________________
conv2d_706 (Conv2D)             (None, 19, 19, 128)  73856       max_pooling2d_705[0][0]          
__________________________________________________________________________________________________
conv2d_709 (Conv2D)             (None, 19, 19, 128)  73856       max_pooling2d_708[0][0]          
__________________________________________________________________________________________________
conv2d_712 (Conv2D)             (None, 19, 19, 128)  73856       max_pooling2d_711[0][0]          
__________________________________________________________________________________________________
max_pooling2d_700 (MaxPooling2D (None, 10, 10, 128)  0           conv2d_700[0][0]                 
__________________________________________________________________________________________________
max_pooling2d_703 (MaxPooling2D (None, 10, 10, 128)  0           conv2d_703[0][0]                 
__________________________________________________________________________________________________
max_pooling2d_706 (MaxPooling2D (None, 10, 10, 128)  0           conv2d_706[0][0]                 
__________________________________________________________________________________________________
max_pooling2d_709 (MaxPooling2D (None, 10, 10, 128)  0           conv2d_709[0][0]                 
__________________________________________________________________________________________________
max_pooling2d_712 (MaxPooling2D (None, 10, 10, 128)  0           conv2d_712[0][0]                 
__________________________________________________________________________________________________
concatenate_41 (Concatenate)    (None, 10, 10, 640)  0           max_pooling2d_700[0][0]          
                                                                 max_pooling2d_703[0][0]          
                                                                 max_pooling2d_706[0][0]          
                                                                 max_pooling2d_709[0][0]          
                                                                 max_pooling2d_712[0][0]          
__________________________________________________________________________________________________
flatten_1681 (Flatten)          (None, 64000)        0           concatenate_41[0][0]             
==================================================================================================
Total params: 481,248
Trainable params: 481,248
Non-trainable params: 0
__________________________________________________________________________________________________
get cnn model
(1052, 64000)
[  0.         30.80253    96.03267   279.6842    158.54503   138.181
…
