program start
seed set
[PhysicalDevice(name='/physical_device:GPU:0', device_type='GPU')]
Model: "model_84"
__________________________________________________________________________________________________
Layer (type)                    Output Shape         Param #     Connected to                     
==================================================================================================
input_43 (InputLayer)           [(None, 150, 150, 7) 0                                            
__________________________________________________________________________________________________
lambda_210 (Lambda)             (None, 150, 150, 7)  0           input_43[0][0]                   
__________________________________________________________________________________________________
conv2d_714 (Conv2D)             (None, 150, 150, 32) 2048        lambda_210[0][0]                 
__________________________________________________________________________________________________
max_pooling2d_714 (MaxPooling2D (None, 75, 75, 32)   0           conv2d_714[0][0]                 
__________________________________________________________________________________________________
lambda_211 (Lambda)             (None, 75, 75, 7)    0           lambda_210[0][0]                 
__________________________________________________________________________________________________
lambda_212 (Lambda)             (None, 75, 75, 7)    0           lambda_210[0][0]                 
__________________________________________________________________________________________________
lambda_213 (Lambda)             (None, 75, 75, 7)    0           lambda_210[0][0]                 
__________________________________________________________________________________________________
lambda_214 (Lambda)             (None, 75, 75, 7)    0           lambda_210[0][0]                 
__________________________________________________________________________________________________
conv2d_715 (Conv2D)             (None, 75, 75, 32)   9248        max_pooling2d_714[0][0]          
__________________________________________________________________________________________________
conv2d_718 (Conv2D)             (None, 75, 75, 32)   2048        lambda_211[0][0]                 
__________________________________________________________________________________________________
conv2d_721 (Conv2D)             (None, 75, 75, 32)   2048        lambda_212[0][0]                 
__________________________________________________________________________________________________
conv2d_724 (Conv2D)             (None, 75, 75, 32)   2048        lambda_213[0][0]                 
__________________________________________________________________________________________________
conv2d_727 (Conv2D)             (None, 75, 75, 32)   2048        lambda_214[0][0]                 
__________________________________________________________________________________________________
max_pooling2d_715 (MaxPooling2D (None, 38, 38, 32)   0           conv2d_715[0][0]                 
__________________________________________________________________________________________________
max_pooling2d_718 (MaxPooling2D (None, 38, 38, 32)   0           conv2d_718[0][0]                 
__________________________________________________________________________________________________
max_pooling2d_721 (MaxPooling2D (None, 38, 38, 32)   0           conv2d_721[0][0]                 
__________________________________________________________________________________________________
max_pooling2d_724 (MaxPooling2D (None, 38, 38, 32)   0           conv2d_724[0][0]                 
__________________________________________________________________________________________________
max_pooling2d_727 (MaxPooling2D (None, 38, 38, 32)   0           conv2d_727[0][0]                 
__________________________________________________________________________________________________
conv2d_716 (Conv2D)             (None, 38, 38, 64)   18496       max_pooling2d_715[0][0]          
__________________________________________________________________________________________________
conv2d_719 (Conv2D)             (None, 38, 38, 64)   18496       max_pooling2d_718[0][0]          
__________________________________________________________________________________________________
conv2d_722 (Conv2D)             (None, 38, 38, 64)   18496       max_pooling2d_721[0][0]          
__________________________________________________________________________________________________
conv2d_725 (Conv2D)             (None, 38, 38, 64)   18496       max_pooling2d_724[0][0]          
__________________________________________________________________________________________________
conv2d_728 (Conv2D)             (None, 38, 38, 64)   18496       max_pooling2d_727[0][0]          
__________________________________________________________________________________________________
max_pooling2d_716 (MaxPooling2D (None, 19, 19, 64)   0           conv2d_716[0][0]                 
__________________________________________________________________________________________________
max_pooling2d_719 (MaxPooling2D (None, 19, 19, 64)   0           conv2d_719[0][0]                 
__________________________________________________________________________________________________
max_pooling2d_722 (MaxPooling2D (None, 19, 19, 64)   0           conv2d_722[0][0]                 
__________________________________________________________________________________________________
max_pooling2d_725 (MaxPooling2D (None, 19, 19, 64)   0           conv2d_725[0][0]                 
__________________________________________________________________________________________________
max_pooling2d_728 (MaxPooling2D (None, 19, 19, 64)   0           conv2d_728[0][0]                 
__________________________________________________________________________________________________
conv2d_717 (Conv2D)             (None, 19, 19, 128)  73856       max_pooling2d_716[0][0]          
__________________________________________________________________________________________________
conv2d_720 (Conv2D)             (None, 19, 19, 128)  73856       max_pooling2d_719[0][0]          
__________________________________________________________________________________________________
conv2d_723 (Conv2D)             (None, 19, 19, 128)  73856       max_pooling2d_722[0][0]          
__________________________________________________________________________________________________
conv2d_726 (Conv2D)             (None, 19, 19, 128)  73856       max_pooling2d_725[0][0]          
__________________________________________________________________________________________________
conv2d_729 (Conv2D)             (None, 19, 19, 128)  73856       max_pooling2d_728[0][0]          
__________________________________________________________________________________________________
max_pooling2d_717 (MaxPooling2D (None, 10, 10, 128)  0           conv2d_717[0][0]                 
__________________________________________________________________________________________________
max_pooling2d_720 (MaxPooling2D (None, 10, 10, 128)  0           conv2d_720[0][0]                 
__________________________________________________________________________________________________
max_pooling2d_723 (MaxPooling2D (None, 10, 10, 128)  0           conv2d_723[0][0]                 
__________________________________________________________________________________________________
max_pooling2d_726 (MaxPooling2D (None, 10, 10, 128)  0           conv2d_726[0][0]                 
__________________________________________________________________________________________________
max_pooling2d_729 (MaxPooling2D (None, 10, 10, 128)  0           conv2d_729[0][0]                 
__________________________________________________________________________________________________
concatenate_42 (Concatenate)    (None, 10, 10, 640)  0           max_pooling2d_717[0][0]          
                                                                 max_pooling2d_720[0][0]          
                                                                 max_pooling2d_723[0][0]          
                                                                 max_pooling2d_726[0][0]          
                                                                 max_pooling2d_729[0][0]          
__________________________________________________________________________________________________
flatten_1722 (Flatten)          (None, 64000)        0           concatenate_42[0][0]             
__________________________________________________________________________________________________
dense_126 (Dense)               (None, 1024)         65537024    flatten_1722[0][0]               
__________________________________________________________________________________________________
dropout_84 (Dropout)            (None, 1024)         0           dense_126[0][0]                  
__________________________________________________________________________________________________
dense_127 (Dense)               (None, 1024)         1049600     dropout_84[0][0]                 
__________________________________________________________________________________________________
dropout_85 (Dropout)            (None, 1024)         0           dense_127[0][0]                  
__________________________________________________________________________________________________
dense_128 (Dense)               (None, 5)            5125        dropout_85[0][0]                 
==================================================================================================
Total params: 67,072,997
Trainable params: 67,072,997
Non-trainable params: 0
__________________________________________________________________________________________________
start loading dataset ...
load "Big" complete
load "Long" complete
load "Mitotic" complete
…
           3       0.90      0.95      0.92        56
           4       1.00      0.14      0.25        56

    accuracy                           0.77       260
   macro avg       0.82      0.78      0.73       260
weighted avg       0.83      0.77      0.73       260

Model: "model_85"
__________________________________________________________________________________________________
Layer (type)                    Output Shape         Param #     Connected to                     
==================================================================================================
input_43 (InputLayer)           [(None, 150, 150, 7) 0                                            
__________________________________________________________________________________________________
lambda_210 (Lambda)             (None, 150, 150, 7)  0           input_43[0][0]                   
__________________________________________________________________________________________________
conv2d_714 (Conv2D)             (None, 150, 150, 32) 2048        lambda_210[0][0]                 
__________________________________________________________________________________________________
max_pooling2d_714 (MaxPooling2D (None, 75, 75, 32)   0           conv2d_714[0][0]                 
__________________________________________________________________________________________________
lambda_211 (Lambda)             (None, 75, 75, 7)    0           lambda_210[0][0]                 
__________________________________________________________________________________________________
lambda_212 (Lambda)             (None, 75, 75, 7)    0           lambda_210[0][0]                 
__________________________________________________________________________________________________
lambda_213 (Lambda)             (None, 75, 75, 7)    0           lambda_210[0][0]                 
__________________________________________________________________________________________________
lambda_214 (Lambda)             (None, 75, 75, 7)    0           lambda_210[0][0]                 
__________________________________________________________________________________________________
conv2d_715 (Conv2D)             (None, 75, 75, 32)   9248        max_pooling2d_714[0][0]          
__________________________________________________________________________________________________
conv2d_718 (Conv2D)             (None, 75, 75, 32)   2048        lambda_211[0][0]                 
__________________________________________________________________________________________________
conv2d_721 (Conv2D)             (None, 75, 75, 32)   2048        lambda_212[0][0]                 
__________________________________________________________________________________________________
conv2d_724 (Conv2D)             (None, 75, 75, 32)   2048        lambda_213[0][0]                 
__________________________________________________________________________________________________
conv2d_727 (Conv2D)             (None, 75, 75, 32)   2048        lambda_214[0][0]                 
__________________________________________________________________________________________________
max_pooling2d_715 (MaxPooling2D (None, 38, 38, 32)   0           conv2d_715[0][0]                 
__________________________________________________________________________________________________
max_pooling2d_718 (MaxPooling2D (None, 38, 38, 32)   0           conv2d_718[0][0]                 
__________________________________________________________________________________________________
max_pooling2d_721 (MaxPooling2D (None, 38, 38, 32)   0           conv2d_721[0][0]                 
__________________________________________________________________________________________________
max_pooling2d_724 (MaxPooling2D (None, 38, 38, 32)   0           conv2d_724[0][0]                 
__________________________________________________________________________________________________
max_pooling2d_727 (MaxPooling2D (None, 38, 38, 32)   0           conv2d_727[0][0]                 
__________________________________________________________________________________________________
conv2d_716 (Conv2D)             (None, 38, 38, 64)   18496       max_pooling2d_715[0][0]          
__________________________________________________________________________________________________
conv2d_719 (Conv2D)             (None, 38, 38, 64)   18496       max_pooling2d_718[0][0]          
__________________________________________________________________________________________________
conv2d_722 (Conv2D)             (None, 38, 38, 64)   18496       max_pooling2d_721[0][0]          
__________________________________________________________________________________________________
conv2d_725 (Conv2D)             (None, 38, 38, 64)   18496       max_pooling2d_724[0][0]          
__________________________________________________________________________________________________
conv2d_728 (Conv2D)             (None, 38, 38, 64)   18496       max_pooling2d_727[0][0]          
__________________________________________________________________________________________________
max_pooling2d_716 (MaxPooling2D (None, 19, 19, 64)   0           conv2d_716[0][0]                 
__________________________________________________________________________________________________
max_pooling2d_719 (MaxPooling2D (None, 19, 19, 64)   0           conv2d_719[0][0]                 
__________________________________________________________________________________________________
max_pooling2d_722 (MaxPooling2D (None, 19, 19, 64)   0           conv2d_722[0][0]                 
__________________________________________________________________________________________________
max_pooling2d_725 (MaxPooling2D (None, 19, 19, 64)   0           conv2d_725[0][0]                 
__________________________________________________________________________________________________
max_pooling2d_728 (MaxPooling2D (None, 19, 19, 64)   0           conv2d_728[0][0]                 
__________________________________________________________________________________________________
conv2d_717 (Conv2D)             (None, 19, 19, 128)  73856       max_pooling2d_716[0][0]          
__________________________________________________________________________________________________
conv2d_720 (Conv2D)             (None, 19, 19, 128)  73856       max_pooling2d_719[0][0]          
__________________________________________________________________________________________________
conv2d_723 (Conv2D)             (None, 19, 19, 128)  73856       max_pooling2d_722[0][0]          
__________________________________________________________________________________________________
conv2d_726 (Conv2D)             (None, 19, 19, 128)  73856       max_pooling2d_725[0][0]          
__________________________________________________________________________________________________
conv2d_729 (Conv2D)             (None, 19, 19, 128)  73856       max_pooling2d_728[0][0]          
__________________________________________________________________________________________________
max_pooling2d_717 (MaxPooling2D (None, 10, 10, 128)  0           conv2d_717[0][0]                 
__________________________________________________________________________________________________
max_pooling2d_720 (MaxPooling2D (None, 10, 10, 128)  0           conv2d_720[0][0]                 
__________________________________________________________________________________________________
max_pooling2d_723 (MaxPooling2D (None, 10, 10, 128)  0           conv2d_723[0][0]                 
__________________________________________________________________________________________________
max_pooling2d_726 (MaxPooling2D (None, 10, 10, 128)  0           conv2d_726[0][0]                 
__________________________________________________________________________________________________
max_pooling2d_729 (MaxPooling2D (None, 10, 10, 128)  0           conv2d_729[0][0]                 
__________________________________________________________________________________________________
concatenate_42 (Concatenate)    (None, 10, 10, 640)  0           max_pooling2d_717[0][0]          
                                                                 max_pooling2d_720[0][0]          
                                                                 max_pooling2d_723[0][0]          
                                                                 max_pooling2d_726[0][0]          
                                                                 max_pooling2d_729[0][0]          
__________________________________________________________________________________________________
flatten_1722 (Flatten)          (None, 64000)        0           concatenate_42[0][0]             
==================================================================================================
Total params: 481,248
Trainable params: 481,248
Non-trainable params: 0
__________________________________________________________________________________________________
get cnn model
(1052, 64000)
[153.85168  130.91907   97.78532    0.        17.682053   0.
…
