program start
seed set
[PhysicalDevice(name='/physical_device:GPU:0', device_type='GPU')]
Model: "model_86"
__________________________________________________________________________________________________
Layer (type)                    Output Shape         Param #     Connected to                     
==================================================================================================
input_44 (InputLayer)           [(None, 150, 150, 7) 0                                            
__________________________________________________________________________________________________
lambda_215 (Lambda)             (None, 150, 150, 7)  0           input_44[0][0]                   
__________________________________________________________________________________________________
conv2d_731 (Conv2D)             (None, 150, 150, 32) 2048        lambda_215[0][0]                 
__________________________________________________________________________________________________
max_pooling2d_731 (MaxPooling2D (None, 75, 75, 32)   0           conv2d_731[0][0]                 
__________________________________________________________________________________________________
lambda_216 (Lambda)             (None, 75, 75, 7)    0           lambda_215[0][0]                 
__________________________________________________________________________________________________
lambda_217 (Lambda)             (None, 75, 75, 7)    0           lambda_215[0][0]                 
__________________________________________________________________________________________________
lambda_218 (Lambda)             (None, 75, 75, 7)    0           lambda_215[0][0]                 
__________________________________________________________________________________________________
lambda_219 (Lambda)             (None, 75, 75, 7)    0           lambda_215[0][0]                 
__________________________________________________________________________________________________
conv2d_732 (Conv2D)             (None, 75, 75, 32)   9248        max_pooling2d_731[0][0]          
__________________________________________________________________________________________________
conv2d_735 (Conv2D)             (None, 75, 75, 32)   2048        lambda_216[0][0]                 
__________________________________________________________________________________________________
conv2d_738 (Conv2D)             (None, 75, 75, 32)   2048        lambda_217[0][0]                 
__________________________________________________________________________________________________
conv2d_741 (Conv2D)             (None, 75, 75, 32)   2048        lambda_218[0][0]                 
__________________________________________________________________________________________________
conv2d_744 (Conv2D)             (None, 75, 75, 32)   2048        lambda_219[0][0]                 
__________________________________________________________________________________________________
max_pooling2d_732 (MaxPooling2D (None, 38, 38, 32)   0           conv2d_732[0][0]                 
__________________________________________________________________________________________________
max_pooling2d_735 (MaxPooling2D (None, 38, 38, 32)   0           conv2d_735[0][0]                 
__________________________________________________________________________________________________
max_pooling2d_738 (MaxPooling2D (None, 38, 38, 32)   0           conv2d_738[0][0]                 
__________________________________________________________________________________________________
max_pooling2d_741 (MaxPooling2D (None, 38, 38, 32)   0           conv2d_741[0][0]                 
__________________________________________________________________________________________________
max_pooling2d_744 (MaxPooling2D (None, 38, 38, 32)   0           conv2d_744[0][0]                 
__________________________________________________________________________________________________
conv2d_733 (Conv2D)             (None, 38, 38, 64)   18496       max_pooling2d_732[0][0]          
__________________________________________________________________________________________________
conv2d_736 (Conv2D)             (None, 38, 38, 64)   18496       max_pooling2d_735[0][0]          
__________________________________________________________________________________________________
conv2d_739 (Conv2D)             (None, 38, 38, 64)   18496       max_pooling2d_738[0][0]          
__________________________________________________________________________________________________
conv2d_742 (Conv2D)             (None, 38, 38, 64)   18496       max_pooling2d_741[0][0]          
__________________________________________________________________________________________________
conv2d_745 (Conv2D)             (None, 38, 38, 64)   18496       max_pooling2d_744[0][0]          
__________________________________________________________________________________________________
max_pooling2d_733 (MaxPooling2D (None, 19, 19, 64)   0           conv2d_733[0][0]                 
__________________________________________________________________________________________________
max_pooling2d_736 (MaxPooling2D (None, 19, 19, 64)   0           conv2d_736[0][0]                 
__________________________________________________________________________________________________
max_pooling2d_739 (MaxPooling2D (None, 19, 19, 64)   0           conv2d_739[0][0]                 
__________________________________________________________________________________________________
max_pooling2d_742 (MaxPooling2D (None, 19, 19, 64)   0           conv2d_742[0][0]                 
__________________________________________________________________________________________________
max_pooling2d_745 (MaxPooling2D (None, 19, 19, 64)   0           conv2d_745[0][0]                 
__________________________________________________________________________________________________
conv2d_734 (Conv2D)             (None, 19, 19, 128)  73856       max_pooling2d_733[0][0]          
__________________________________________________________________________________________________
conv2d_737 (Conv2D)             (None, 19, 19, 128)  73856       max_pooling2d_736[0][0]          
__________________________________________________________________________________________________
conv2d_740 (Conv2D)             (None, 19, 19, 128)  73856       max_pooling2d_739[0][0]          
__________________________________________________________________________________________________
conv2d_743 (Conv2D)             (None, 19, 19, 128)  73856       max_pooling2d_742[0][0]          
__________________________________________________________________________________________________
conv2d_746 (Conv2D)             (None, 19, 19, 128)  73856       max_pooling2d_745[0][0]          
__________________________________________________________________________________________________
max_pooling2d_734 (MaxPooling2D (None, 10, 10, 128)  0           conv2d_734[0][0]                 
__________________________________________________________________________________________________
max_pooling2d_737 (MaxPooling2D (None, 10, 10, 128)  0           conv2d_737[0][0]                 
__________________________________________________________________________________________________
max_pooling2d_740 (MaxPooling2D (None, 10, 10, 128)  0           conv2d_740[0][0]                 
__________________________________________________________________________________________________
max_pooling2d_743 (MaxPooling2D (None, 10, 10, 128)  0           conv2d_743[0][0]                 
__________________________________________________________________________________________________
max_pooling2d_746 (MaxPooling2D (None, 10, 10, 128)  0           conv2d_746[0][0]                 
__________________________________________________________________________________________________
concatenate_43 (Concatenate)    (None, 10, 10, 640)  0           max_pooling2d_734[0][0]          
                                                                 max_pooling2d_737[0][0]          
                                                                 max_pooling2d_740[0][0]          
                                                                 max_pooling2d_743[0][0]          
                                                                 max_pooling2d_746[0][0]          
__________________________________________________________________________________________________
flatten_1763 (Flatten)          (None, 64000)        0           concatenate_43[0][0]             
__________________________________________________________________________________________________
dense_129 (Dense)               (None, 1024)         65537024    flatten_1763[0][0]               
__________________________________________________________________________________________________
dropout_86 (Dropout)            (None, 1024)         0           dense_129[0][0]                  
__________________________________________________________________________________________________
dense_130 (Dense)               (None, 1024)         1049600     dropout_86[0][0]                 
__________________________________________________________________________________________________
dropout_87 (Dropout)            (None, 1024)         0           dense_130[0][0]                  
__________________________________________________________________________________________________
dense_131 (Dense)               (None, 5)            5125        dropout_87[0][0]                 
==================================================================================================
Total params: 67,072,997
Trainable params: 67,072,997
Non-trainable params: 0
__________________________________________________________________________________________________
start loading dataset ...
load "Big" complete
load "Long" complete
load "Mitotic" complete
…
avg': {'precision': 0.8424149179214411, 'recall': 0.7677889462136037, 'f1-score': 0.7237964305956911, 'support': 260.0}, 'weighted avg': {'precision': 0.8646308171350908, 'recall': 0.7615384615384615, 'f1-score': 0.7310488152869972, 'support': 260.0}}
Model: "model_87"
__________________________________________________________________________________________________
Layer (type)                    Output Shape         Param #     Connected to                     
==================================================================================================
input_44 (InputLayer)           [(None, 150, 150, 7) 0                                            
__________________________________________________________________________________________________
lambda_215 (Lambda)             (None, 150, 150, 7)  0           input_44[0][0]                   
__________________________________________________________________________________________________
conv2d_731 (Conv2D)             (None, 150, 150, 32) 2048        lambda_215[0][0]                 
__________________________________________________________________________________________________
max_pooling2d_731 (MaxPooling2D (None, 75, 75, 32)   0           conv2d_731[0][0]                 
__________________________________________________________________________________________________
lambda_216 (Lambda)             (None, 75, 75, 7)    0           lambda_215[0][0]                 
__________________________________________________________________________________________________
lambda_217 (Lambda)             (None, 75, 75, 7)    0           lambda_215[0][0]                 
__________________________________________________________________________________________________
lambda_218 (Lambda)             (None, 75, 75, 7)    0           lambda_215[0][0]                 
__________________________________________________________________________________________________
lambda_219 (Lambda)             (None, 75, 75, 7)    0           lambda_215[0][0]                 
__________________________________________________________________________________________________
conv2d_732 (Conv2D)             (None, 75, 75, 32)   9248        max_pooling2d_731[0][0]          
__________________________________________________________________________________________________
conv2d_735 (Conv2D)             (None, 75, 75, 32)   2048        lambda_216[0][0]                 
__________________________________________________________________________________________________
conv2d_738 (Conv2D)             (None, 75, 75, 32)   2048        lambda_217[0][0]                 
__________________________________________________________________________________________________
conv2d_741 (Conv2D)             (None, 75, 75, 32)   2048        lambda_218[0][0]                 
__________________________________________________________________________________________________
conv2d_744 (Conv2D)             (None, 75, 75, 32)   2048        lambda_219[0][0]                 
__________________________________________________________________________________________________
max_pooling2d_732 (MaxPooling2D (None, 38, 38, 32)   0           conv2d_732[0][0]                 
__________________________________________________________________________________________________
max_pooling2d_735 (MaxPooling2D (None, 38, 38, 32)   0           conv2d_735[0][0]                 
__________________________________________________________________________________________________
max_pooling2d_738 (MaxPooling2D (None, 38, 38, 32)   0           conv2d_738[0][0]                 
__________________________________________________________________________________________________
max_pooling2d_741 (MaxPooling2D (None, 38, 38, 32)   0           conv2d_741[0][0]                 
__________________________________________________________________________________________________
max_pooling2d_744 (MaxPooling2D (None, 38, 38, 32)   0           conv2d_744[0][0]                 
__________________________________________________________________________________________________
conv2d_733 (Conv2D)             (None, 38, 38, 64)   18496       max_pooling2d_732[0][0]          
__________________________________________________________________________________________________
conv2d_736 (Conv2D)             (None, 38, 38, 64)   18496       max_pooling2d_735[0][0]          
__________________________________________________________________________________________________
conv2d_739 (Conv2D)             (None, 38, 38, 64)   18496       max_pooling2d_738[0][0]          
__________________________________________________________________________________________________
conv2d_742 (Conv2D)             (None, 38, 38, 64)   18496       max_pooling2d_741[0][0]          
__________________________________________________________________________________________________
conv2d_745 (Conv2D)             (None, 38, 38, 64)   18496       max_pooling2d_744[0][0]          
__________________________________________________________________________________________________
max_pooling2d_733 (MaxPooling2D (None, 19, 19, 64)   0           conv2d_733[0][0]                 
__________________________________________________________________________________________________
max_pooling2d_736 (MaxPooling2D (None, 19, 19, 64)   0           conv2d_736[0][0]                 
__________________________________________________________________________________________________
max_pooling2d_739 (MaxPooling2D (None, 19, 19, 64)   0           conv2d_739[0][0]                 
__________________________________________________________________________________________________
max_pooling2d_742 (MaxPooling2D (None, 19, 19, 64)   0           conv2d_742[0][0]                 
__________________________________________________________________________________________________
max_pooling2d_745 (MaxPooling2D (None, 19, 19, 64)   0           conv2d_745[0][0]                 
__________________________________________________________________________________________________
conv2d_734 (Conv2D)             (None, 19, 19, 128)  73856       max_pooling2d_733[0][0]          
__________________________________________________________________________________________________
conv2d_737 (Conv2D)             (None, 19, 19, 128)  73856       max_pooling2d_736[0][0]          
__________________________________________________________________________________________________
conv2d_740 (Conv2D)             (None, 19, 19, 128)  73856       max_pooling2d_739[0][0]          
__________________________________________________________________________________________________
conv2d_743 (Conv2D)             (None, 19, 19, 128)  73856       max_pooling2d_742[0][0]          
__________________________________________________________________________________________________
conv2d_746 (Conv2D)             (None, 19, 19, 128)  73856       max_pooling2d_745[0][0]          
__________________________________________________________________________________________________
max_pooling2d_734 (MaxPooling2D (None, 10, 10, 128)  0           conv2d_734[0][0]                 
__________________________________________________________________________________________________
max_pooling2d_737 (MaxPooling2D (None, 10, 10, 128)  0           conv2d_737[0][0]                 
__________________________________________________________________________________________________
max_pooling2d_740 (MaxPooling2D (None, 10, 10, 128)  0           conv2d_740[0][0]                 
__________________________________________________________________________________________________
max_pooling2d_743 (MaxPooling2D (None, 10, 10, 128)  0           conv2d_743[0][0]                 
__________________________________________________________________________________________________
max_pooling2d_746 (MaxPooling2D (None, 10, 10, 128)  0           conv2d_746[0][0]                 
__________________________________________________________________________________________________
concatenate_43 (Concatenate)    (None, 10, 10, 640)  0           max_pooling2d_734[0][0]          
                                                                 max_pooling2d_737[0][0]          
                                                                 max_pooling2d_740[0][0]          
                                                                 max_pooling2d_743[0][0]          
                                                                 max_pooling2d_746[0][0]          
__________________________________________________________________________________________________
flatten_1763 (Flatten)          (None, 64000)        0           concatenate_43[0][0]             
==================================================================================================
Total params: 481,248
Trainable params: 481,248
Non-trainable params: 0
__________________________________________________________________________________________________
get cnn model
(1052, 64000)
[588.3786     0.        73.619385 133.64282   41.116066   0.
…
