program start
seed set
[PhysicalDevice(name='/physical_device:GPU:0', device_type='GPU')]
Model: "model_88"
__________________________________________________________________________________________________
Layer (type)                    Output Shape         Param #     Connected to                     
==================================================================================================
input_45 (InputLayer)           [(None, 150, 150, 7) 0                                            
__________________________________________________________________________________________________
lambda_220 (Lambda)             (None, 150, 150, 7)  0           input_45[0][0]                   
__________________________________________________________________________________________________
conv2d_748 (Conv2D)             (None, 150, 150, 32) 2048        lambda_220[0][0]                 
__________________________________________________________________________________________________
max_pooling2d_748 (MaxPooling2D (None, 75, 75, 32)   0           conv2d_748[0][0]                 
__________________________________________________________________________________________________
lambda_221 (Lambda)             (None, 75, 75, 7)    0           lambda_220[0][0]                 
__________________________________________________________________________________________________
lambda_222 (Lambda)             (None, 75, 75, 7)    0           lambda_220[0][0]                 
__________________________________________________________________________________________________
lambda_223 (Lambda)             (None, 75, 75, 7)    0           lambda_220[0][0]                 
__________________________________________________________________________________________________
lambda_224 (Lambda)             (None, 75, 75, 7)    0           lambda_220[0][0]                 
__________________________________________________________________________________________________
conv2d_749 (Conv2D)             (None, 75, 75, 32)   9248        max_pooling2d_748[0][0]          
__________________________________________________________________________________________________
conv2d_752 (Conv2D)             (None, 75, 75, 32)   2048        lambda_221[0][0]                 
__________________________________________________________________________________________________
conv2d_755 (Conv2D)             (None, 75, 75, 32)   2048        lambda_222[0][0]                 
__________________________________________________________________________________________________
conv2d_758 (Conv2D)             (None, 75, 75, 32)   2048        lambda_223[0][0]                 
__________________________________________________________________________________________________
conv2d_761 (Conv2D)             (None, 75, 75, 32)   2048        lambda_224[0][0]                 
__________________________________________________________________________________________________
max_pooling2d_749 (MaxPooling2D (None, 38, 38, 32)   0           conv2d_749[0][0]                 
__________________________________________________________________________________________________
max_pooling2d_752 (MaxPooling2D (None, 38, 38, 32)   0           conv2d_752[0][0]                 
__________________________________________________________________________________________________
max_pooling2d_755 (MaxPooling2D (None, 38, 38, 32)   0           conv2d_755[0][0]                 
__________________________________________________________________________________________________
max_pooling2d_758 (MaxPooling2D (None, 38, 38, 32)   0           conv2d_758[0][0]                 
__________________________________________________________________________________________________
max_pooling2d_761 (MaxPooling2D (None, 38, 38, 32)   0           conv2d_761[0][0]                 
__________________________________________________________________________________________________
conv2d_750 (Conv2D)             (None, 38, 38, 64)   18496       max_pooling2d_749[0][0]          
__________________________________________________________________________________________________
conv2d_753 (Conv2D)             (None, 38, 38, 64)   18496       max_pooling2d_752[0][0]          
__________________________________________________________________________________________________
conv2d_756 (Conv2D)             (None, 38, 38, 64)   18496       max_pooling2d_755[0][0]          
__________________________________________________________________________________________________
conv2d_759 (Conv2D)             (None, 38, 38, 64)   18496       max_pooling2d_758[0][0]          
__________________________________________________________________________________________________
conv2d_762 (Conv2D)             (None, 38, 38, 64)   18496       max_pooling2d_761[0][0]          
__________________________________________________________________________________________________
max_pooling2d_750 (MaxPooling2D (None, 19, 19, 64)   0           conv2d_750[0][0]                 
__________________________________________________________________________________________________
max_pooling2d_753 (MaxPooling2D (None, 19, 19, 64)   0           conv2d_753[0][0]                 
__________________________________________________________________________________________________
max_pooling2d_756 (MaxPooling2D (None, 19, 19, 64)   0           conv2d_756[0][0]                 
__________________________________________________________________________________________________
max_pooling2d_759 (MaxPooling2D (None, 19, 19, 64)   0           conv2d_759[0][0]                 
__________________________________________________________________________________________________
max_pooling2d_762 (MaxPooling2D (None, 19, 19, 64)   0           conv2d_762[0][0]                 
__________________________________________________________________________________________________
conv2d_751 (Conv2D)             (None, 19, 19, 128)  73856       max_pooling2d_750[0][0]          
__________________________________________________________________________________________________
conv2d_754 (Conv2D)             (None, 19, 19, 128)  73856       max_pooling2d_753[0][0]          
__________________________________________________________________________________________________
conv2d_757 (Conv2D)             (None, 19, 19, 128)  73856       max_pooling2d_756[0][0]          
__________________________________________________________________________________________________
conv2d_760 (Conv2D)             (None, 19, 19, 128)  73856       max_pooling2d_759[0][0]          
__________________________________________________________________________________________________
conv2d_763 (Conv2D)             (None, 19, 19, 128)  73856       max_pooling2d_762[0][0]          
__________________________________________________________________________________________________
max_pooling2d_751 (MaxPooling2D (None, 10, 10, 128)  0           conv2d_751[0][0]                 
__________________________________________________________________________________________________
max_pooling2d_754 (MaxPooling2D (None, 10, 10, 128)  0           conv2d_754[0][0]                 
__________________________________________________________________________________________________
max_pooling2d_757 (MaxPooling2D (None, 10, 10, 128)  0           conv2d_757[0][0]                 
__________________________________________________________________________________________________
max_pooling2d_760 (MaxPooling2D (None, 10, 10, 128)  0           conv2d_760[0][0]                 
__________________________________________________________________________________________________
max_pooling2d_763 (MaxPooling2D (None, 10, 10, 128)  0           conv2d_763[0][0]                 
__________________________________________________________________________________________________
concatenate_44 (Concatenate)    (None, 10, 10, 640)  0           max_pooling2d_751[0][0]          
                                                                 max_pooling2d_754[0][0]          
                                                                 max_pooling2d_757[0][0]          
                                                                 max_pooling2d_760[0][0]          
                                                                 max_pooling2d_763[0][0]          
__________________________________________________________________________________________________
flatten_1804 (Flatten)          (None, 64000)        0           concatenate_44[0][0]             
__________________________________________________________________________________________________
dense_132 (Dense)               (None, 1024)         65537024    flatten_1804[0][0]               
__________________________________________________________________________________________________
dropout_88 (Dropout)            (None, 1024)         0           dense_132[0][0]                  
__________________________________________________________________________________________________
dense_133 (Dense)               (None, 1024)         1049600     dropout_88[0][0]                 
__________________________________________________________________________________________________
dropout_89 (Dropout)            (None, 1024)         0           dense_133[0][0]                  
__________________________________________________________________________________________________
dense_134 (Dense)               (None, 5)            5125        dropout_89[0][0]                 
==================================================================================================
Total params: 67,072,997
Trainable params: 67,072,997
Non-trainable params: 0
__________________________________________________________________________________________________
start loading dataset ...
load "Big" complete
load "Long" complete
load "Mitotic" complete
…
           3       0.89      0.88      0.88        56
           4       1.00      0.25      0.40        56

    accuracy                           0.75       260
   macro avg       0.85      0.73      0.71       260
weighted avg       0.87      0.75      0.74       260

Model: "model_89"
__________________________________________________________________________________________________
Layer (type)                    Output Shape         Param #     Connected to                     
==================================================================================================
input_45 (InputLayer)           [(None, 150, 150, 7) 0                                            
__________________________________________________________________________________________________
lambda_220 (Lambda)             (None, 150, 150, 7)  0           input_45[0][0]                   
__________________________________________________________________________________________________
conv2d_748 (Conv2D)             (None, 150, 150, 32) 2048        lambda_220[0][0]                 
__________________________________________________________________________________________________
max_pooling2d_748 (MaxPooling2D (None, 75, 75, 32)   0           conv2d_748[0][0]                 
__________________________________________________________________________________________________
lambda_221 (Lambda)             (None, 75, 75, 7)    0           lambda_220[0][0]                 
__________________________________________________________________________________________________
lambda_222 (Lambda)             (None, 75, 75, 7)    0           lambda_220[0][0]                 
__________________________________________________________________________________________________
lambda_223 (Lambda)             (None, 75, 75, 7)    0           lambda_220[0][0]                 
__________________________________________________________________________________________________
lambda_224 (Lambda)             (None, 75, 75, 7)    0           lambda_220[0][0]                 
__________________________________________________________________________________________________
conv2d_749 (Conv2D)             (None, 75, 75, 32)   9248        max_pooling2d_748[0][0]          
__________________________________________________________________________________________________
conv2d_752 (Conv2D)             (None, 75, 75, 32)   2048        lambda_221[0][0]                 
__________________________________________________________________________________________________
conv2d_755 (Conv2D)             (None, 75, 75, 32)   2048        lambda_222[0][0]                 
__________________________________________________________________________________________________
conv2d_758 (Conv2D)             (None, 75, 75, 32)   2048        lambda_223[0][0]                 
__________________________________________________________________________________________________
conv2d_761 (Conv2D)             (None, 75, 75, 32)   2048        lambda_224[0][0]                 
__________________________________________________________________________________________________
max_pooling2d_749 (MaxPooling2D (None, 38, 38, 32)   0           conv2d_749[0][0]                 
__________________________________________________________________________________________________
max_pooling2d_752 (MaxPooling2D (None, 38, 38, 32)   0           conv2d_752[0][0]                 
__________________________________________________________________________________________________
max_pooling2d_755 (MaxPooling2D (None, 38, 38, 32)   0           conv2d_755[0][0]                 
__________________________________________________________________________________________________
max_pooling2d_758 (MaxPooling2D (None, 38, 38, 32)   0           conv2d_758[0][0]                 
__________________________________________________________________________________________________
max_pooling2d_761 (MaxPooling2D (None, 38, 38, 32)   0           conv2d_761[0][0]                 
__________________________________________________________________________________________________
conv2d_750 (Conv2D)             (None, 38, 38, 64)   18496       max_pooling2d_749[0][0]          
__________________________________________________________________________________________________
conv2d_753 (Conv2D)             (None, 38, 38, 64)   18496       max_pooling2d_752[0][0]          
__________________________________________________________________________________________________
conv2d_756 (Conv2D)             (None, 38, 38, 64)   18496       max_pooling2d_755[0][0]          
__________________________________________________________________________________________________
conv2d_759 (Conv2D)             (None, 38, 38, 64)   18496       max_pooling2d_758[0][0]          
__________________________________________________________________________________________________
conv2d_762 (Conv2D)             (None, 38, 38, 64)   18496       max_pooling2d_761[0][0]          
__________________________________________________________________________________________________
max_pooling2d_750 (MaxPooling2D (None, 19, 19, 64)   0           conv2d_750[0][0]                 
__________________________________________________________________________________________________
max_pooling2d_753 (MaxPooling2D (None, 19, 19, 64)   0           conv2d_753[0][0]                 
__________________________________________________________________________________________________
max_pooling2d_756 (MaxPooling2D (None, 19, 19, 64)   0           conv2d_756[0][0]                 
__________________________________________________________________________________________________
max_pooling2d_759 (MaxPooling2D (None, 19, 19, 64)   0           conv2d_759[0][0]                 
__________________________________________________________________________________________________
max_pooling2d_762 (MaxPooling2D (None, 19, 19, 64)   0           conv2d_762[0][0]                 
__________________________________________________________________________________________________
conv2d_751 (Conv2D)             (None, 19, 19, 128)  73856       max_pooling2d_750[0][0]          
__________________________________________________________________________________________________
conv2d_754 (Conv2D)             (None, 19, 19, 128)  73856       max_pooling2d_753[0][0]          
__________________________________________________________________________________________________
conv2d_757 (Conv2D)             (None, 19, 19, 128)  73856       max_pooling2d_756[0][0]          
__________________________________________________________________________________________________
conv2d_760 (Conv2D)             (None, 19, 19, 128)  73856       max_pooling2d_759[0][0]          
__________________________________________________________________________________________________
conv2d_763 (Conv2D)             (None, 19, 19, 128)  73856       max_pooling2d_762[0][0]          
__________________________________________________________________________________________________
max_pooling2d_751 (MaxPooling2D (None, 10, 10, 128)  0           conv2d_751[0][0]                 
__________________________________________________________________________________________________
max_pooling2d_754 (MaxPooling2D (None, 10, 10, 128)  0           conv2d_754[0][0]                 
__________________________________________________________________________________________________
max_pooling2d_757 (MaxPooling2D (None, 10, 10, 128)  0           conv2d_757[0][0]                 
__________________________________________________________________________________________________
max_pooling2d_760 (MaxPooling2D (None, 10, 10, 128)  0           conv2d_760[0][0]                 
__________________________________________________________________________________________________
max_pooling2d_763 (MaxPooling2D (None, 10, 10, 128)  0           conv2d_763[0][0]                 
__________________________________________________________________________________________________
concatenate_44 (Concatenate)    (None, 10, 10, 640)  0           max_pooling2d_751[0][0]          
                                                                 max_pooling2d_754[0][0]          
                                                                 max_pooling2d_757[0][0]          
                                                                 max_pooling2d_760[0][0]          
                                                                 max_pooling2d_763[0][0]          
__________________________________________________________________________________________________
flatten_1804 (Flatten)          (None, 64000)        0           concatenate_44[0][0]             
==================================================================================================
Total params: 481,248
Trainable params: 481,248
Non-trainable params: 0
__________________________________________________________________________________________________
get cnn model
(1052, 64000)
[  0.       155.35974  158.27448   47.803463 324.71738    0.
…
