program start
seed set
[PhysicalDevice(name='/physical_device:GPU:0', device_type='GPU')]
Model: "model_90"
__________________________________________________________________________________________________
Layer (type)                    Output Shape         Param #     Connected to                     
==================================================================================================
input_46 (InputLayer)           [(None, 150, 150, 7) 0                                            
__________________________________________________________________________________________________
lambda_225 (Lambda)             (None, 150, 150, 7)  0           input_46[0][0]                   
__________________________________________________________________________________________________
conv2d_765 (Conv2D)             (None, 150, 150, 32) 2048        lambda_225[0][0]                 
__________________________________________________________________________________________________
max_pooling2d_765 (MaxPooling2D (None, 75, 75, 32)   0           conv2d_765[0][0]                 
__________________________________________________________________________________________________
lambda_226 (Lambda)             (None, 75, 75, 7)    0           lambda_225[0][0]                 
__________________________________________________________________________________________________
lambda_227 (Lambda)             (None, 75, 75, 7)    0           lambda_225[0][0]                 
__________________________________________________________________________________________________
lambda_228 (Lambda)             (None, 75, 75, 7)    0           lambda_225[0][0]                 
__________________________________________________________________________________________________
lambda_229 (Lambda)             (None, 75, 75, 7)    0           lambda_225[0][0]                 
__________________________________________________________________________________________________
conv2d_766 (Conv2D)             (None, 75, 75, 32)   9248        max_pooling2d_765[0][0]          
__________________________________________________________________________________________________
conv2d_769 (Conv2D)             (None, 75, 75, 32)   2048        lambda_226[0][0]                 
__________________________________________________________________________________________________
conv2d_772 (Conv2D)             (None, 75, 75, 32)   2048        lambda_227[0][0]                 
__________________________________________________________________________________________________
conv2d_775 (Conv2D)             (None, 75, 75, 32)   2048        lambda_228[0][0]                 
__________________________________________________________________________________________________
conv2d_778 (Conv2D)             (None, 75, 75, 32)   2048        lambda_229[0][0]                 
__________________________________________________________________________________________________
max_pooling2d_766 (MaxPooling2D (None, 38, 38, 32)   0           conv2d_766[0][0]                 
__________________________________________________________________________________________________
max_pooling2d_769 (MaxPooling2D (None, 38, 38, 32)   0           conv2d_769[0][0]                 
__________________________________________________________________________________________________
max_pooling2d_772 (MaxPooling2D (None, 38, 38, 32)   0           conv2d_772[0][0]                 
__________________________________________________________________________________________________
max_pooling2d_775 (MaxPooling2D (None, 38, 38, 32)   0           conv2d_775[0][0]                 
__________________________________________________________________________________________________
max_pooling2d_778 (MaxPooling2D (None, 38, 38, 32)   0           conv2d_778[0][0]                 
__________________________________________________________________________________________________
conv2d_767 (Conv2D)             (None, 38, 38, 64)   18496       max_pooling2d_766[0][0]          
__________________________________________________________________________________________________
conv2d_770 (Conv2D)             (None, 38, 38, 64)   18496       max_pooling2d_769[0][0]          
__________________________________________________________________________________________________
conv2d_773 (Conv2D)             (None, 38, 38, 64)   18496       max_pooling2d_772[0][0]          
__________________________________________________________________________________________________
conv2d_776 (Conv2D)             (None, 38, 38, 64)   18496       max_pooling2d_775[0][0]          
__________________________________________________________________________________________________
conv2d_779 (Conv2D)             (None, 38, 38, 64)   18496       max_pooling2d_778[0][0]          
__________________________________________________________________________________________________
max_pooling2d_767 (MaxPooling2D (None, 19, 19, 64)   0           conv2d_767[0][0]                 
__________________________________________________________________________________________________
max_pooling2d_770 (MaxPooling2D (None, 19, 19, 64)   0           conv2d_770[0][0]                 
__________________________________________________________________________________________________
max_pooling2d_773 (MaxPooling2D (None, 19, 19, 64)   0           conv2d_773[0][0]                 
__________________________________________________________________________________________________
max_pooling2d_776 (MaxPooling2D (None, 19, 19, 64)   0           conv2d_776[0][0]                 
__________________________________________________________________________________________________
max_pooling2d_779 (MaxPooling2D (None, 19, 19, 64)   0           conv2d_779[0][0]                 
__________________________________________________________________________________________________
conv2d_768 (Conv2D)             (None, 19, 19, 128)  73856       max_pooling2d_767[0][0]          
__________________________________________________________________________________________________
conv2d_771 (Conv2D)             (None, 19, 19, 128)  73856       max_pooling2d_770[0][0]          
__________________________________________________________________________________________________
conv2d_774 (Conv2D)             (None, 19, 19, 128)  73856       max_pooling2d_773[0][0]          
__________________________________________________________________________________________________
conv2d_777 (Conv2D)             (None, 19, 19, 128)  73856       max_pooling2d_776[0][0]          
__________________________________________________________________________________________________
conv2d_780 (Conv2D)             (None, 19, 19, 128)  73856       max_pooling2d_779[0][0]          
__________________________________________________________________________________________________
max_pooling2d_768 (MaxPooling2D (None, 10, 10, 128)  0           conv2d_768[0][0]                 
__________________________________________________________________________________________________
max_pooling2d_771 (MaxPooling2D (None, 10, 10, 128)  0           conv2d_771[0][0]                 
__________________________________________________________________________________________________
max_pooling2d_774 (MaxPooling2D (None, 10, 10, 128)  0           conv2d_774[0][0]                 
__________________________________________________________________________________________________
max_pooling2d_777 (MaxPooling2D (None, 10, 10, 128)  0           conv2d_777[0][0]                 
__________________________________________________________________________________________________
max_pooling2d_780 (MaxPooling2D (None, 10, 10, 128)  0           conv2d_780[0][0]                 
__________________________________________________________________________________________________
concatenate_45 (Concatenate)    (None, 10, 10, 640)  0           max_pooling2d_768[0][0]          
                                                                 max_pooling2d_771[0][0]          
                                                                 max_pooling2d_774[0][0]          
                                                                 max_pooling2d_777[0][0]          
                                                                 max_pooling2d_780[0][0]          
__________________________________________________________________________________________________
flatten_1845 (Flatten)          (None, 64000)        0           concatenate_45[0][0]             
__________________________________________________________________________________________________
dense_135 (Dense)               (None, 1024)         65537024    flatten_1845[0][0]               
__________________________________________________________________________________________________
dropout_90 (Dropout)            (None, 1024)         0           dense_135[0][0]                  
__________________________________________________________________________________________________
dense_136 (Dense)               (None, 1024)         1049600     dropout_90[0][0]                 
__________________________________________________________________________________________________
dropout_91 (Dropout)            (None, 1024)         0           dense_136[0][0]                  
__________________________________________________________________________________________________
dense_137 (Dense)               (None, 5)            5125        dropout_91[0][0]                 
==================================================================================================
Total params: 67,072,997
Trainable params: 67,072,997
Non-trainable params: 0
__________________________________________________________________________________________________
start loading dataset ...
load "Big" complete
load "Long" complete
load "Mitotic" complete
…
avg': {'precision': 0.8220400558919423, 'recall': 0.6227673011919588, 'f1-score': 0.5841451717163293, 'support': 260.0}, 'weighted avg': {'precision': 0.8261416645766902, 'recall': 0.6307692307692307, 'f1-score': 0.5912136606885549, 'support': 260.0}}
Model: "model_91"
__________________________________________________________________________________________________
Layer (type)                    Output Shape         Param #     Connected to                     
==================================================================================================
input_46 (InputLayer)           [(None, 150, 150, 7) 0                                            
__________________________________________________________________________________________________
lambda_225 (Lambda)             (None, 150, 150, 7)  0           input_46[0][0]                   
__________________________________________________________________________________________________
conv2d_765 (Conv2D)             (None, 150, 150, 32) 2048        lambda_225[0][0]                 
__________________________________________________________________________________________________
max_pooling2d_765 (MaxPooling2D (None, 75, 75, 32)   0           conv2d_765[0][0]                 
__________________________________________________________________________________________________
lambda_226 (Lambda)             (None, 75, 75, 7)    0           lambda_225[0][0]                 
__________________________________________________________________________________________________
lambda_227 (Lambda)             (None, 75, 75, 7)    0           lambda_225[0][0]                 
__________________________________________________________________________________________________
lambda_228 (Lambda)             (None, 75, 75, 7)    0           lambda_225[0][0]                 
__________________________________________________________________________________________________
lambda_229 (Lambda)             (None, 75, 75, 7)    0           lambda_225[0][0]                 
__________________________________________________________________________________________________
conv2d_766 (Conv2D)             (None, 75, 75, 32)   9248        max_pooling2d_765[0][0]          
__________________________________________________________________________________________________
conv2d_769 (Conv2D)             (None, 75, 75, 32)   2048        lambda_226[0][0]                 
__________________________________________________________________________________________________
conv2d_772 (Conv2D)             (None, 75, 75, 32)   2048        lambda_227[0][0]                 
__________________________________________________________________________________________________
conv2d_775 (Conv2D)             (None, 75, 75, 32)   2048        lambda_228[0][0]                 
__________________________________________________________________________________________________
conv2d_778 (Conv2D)             (None, 75, 75, 32)   2048        lambda_229[0][0]                 
__________________________________________________________________________________________________
max_pooling2d_766 (MaxPooling2D (None, 38, 38, 32)   0           conv2d_766[0][0]                 
__________________________________________________________________________________________________
max_pooling2d_769 (MaxPooling2D (None, 38, 38, 32)   0           conv2d_769[0][0]                 
__________________________________________________________________________________________________
max_pooling2d_772 (MaxPooling2D (None, 38, 38, 32)   0           conv2d_772[0][0]                 
__________________________________________________________________________________________________
max_pooling2d_775 (MaxPooling2D (None, 38, 38, 32)   0           conv2d_775[0][0]                 
__________________________________________________________________________________________________
max_pooling2d_778 (MaxPooling2D (None, 38, 38, 32)   0           conv2d_778[0][0]                 
__________________________________________________________________________________________________
conv2d_767 (Conv2D)             (None, 38, 38, 64)   18496       max_pooling2d_766[0][0]          
__________________________________________________________________________________________________
conv2d_770 (Conv2D)             (None, 38, 38, 64)   18496       max_pooling2d_769[0][0]          
__________________________________________________________________________________________________
conv2d_773 (Conv2D)             (None, 38, 38, 64)   18496       max_pooling2d_772[0][0]          
__________________________________________________________________________________________________
conv2d_776 (Conv2D)             (None, 38, 38, 64)   18496       max_pooling2d_775[0][0]          
__________________________________________________________________________________________________
conv2d_779 (Conv2D)             (None, 38, 38, 64)   18496       max_pooling2d_778[0][0]          
__________________________________________________________________________________________________
max_pooling2d_767 (MaxPooling2D (None, 19, 19, 64)   0           conv2d_767[0][0]                 
__________________________________________________________________________________________________
max_pooling2d_770 (MaxPooling2D (None, 19, 19, 64)   0           conv2d_770[0][0]                 
__________________________________________________________________________________________________
max_pooling2d_773 (MaxPooling2D (None, 19, 19, 64)   0           conv2d_773[0][0]                 
__________________________________________________________________________________________________
max_pooling2d_776 (MaxPooling2D (None, 19, 19, 64)   0           conv2d_776[0][0]                 
__________________________________________________________________________________________________
max_pooling2d_779 (MaxPooling2D (None, 19, 19, 64)   0           conv2d_779[0][0]                 
__________________________________________________________________________________________________
conv2d_768 (Conv2D)             (None, 19, 19, 128)  73856       max_pooling2d_767[0][0]          
__________________________________________________________________________________________________
conv2d_771 (Conv2D)             (None, 19, 19, 128)  73856       max_pooling2d_770[0][0]          
__________________________________________________________________________________________________
conv2d_774 (Conv2D)             (None, 19, 19, 128)  73856       max_pooling2d_773[0][0]          
__________________________________________________________________________________________________
conv2d_777 (Conv2D)             (None, 19, 19, 128)  73856       max_pooling2d_776[0][0]          
__________________________________________________________________________________________________
conv2d_780 (Conv2D)             (None, 19, 19, 128)  73856       max_pooling2d_779[0][0]          
__________________________________________________________________________________________________
max_pooling2d_768 (MaxPooling2D (None, 10, 10, 128)  0           conv2d_768[0][0]                 
__________________________________________________________________________________________________
max_pooling2d_771 (MaxPooling2D (None, 10, 10, 128)  0           conv2d_771[0][0]                 
__________________________________________________________________________________________________
max_pooling2d_774 (MaxPooling2D (None, 10, 10, 128)  0           conv2d_774[0][0]                 
__________________________________________________________________________________________________
max_pooling2d_777 (MaxPooling2D (None, 10, 10, 128)  0           conv2d_777[0][0]                 
__________________________________________________________________________________________________
max_pooling2d_780 (MaxPooling2D (None, 10, 10, 128)  0           conv2d_780[0][0]                 
__________________________________________________________________________________________________
concatenate_45 (Concatenate)    (None, 10, 10, 640)  0           max_pooling2d_768[0][0]          
                                                                 max_pooling2d_771[0][0]          
                                                                 max_pooling2d_774[0][0]          
                                                                 max_pooling2d_777[0][0]          
                                                                 max_pooling2d_780[0][0]          
__________________________________________________________________________________________________
flatten_1845 (Flatten)          (None, 64000)        0           concatenate_45[0][0]             
==================================================================================================
Total params: 481,248
Trainable params: 481,248
Non-trainable params: 0
__________________________________________________________________________________________________
get cnn model
(1052, 64000)
[ 87.20742 457.2086   71.83404 152.7496  598.3058  704.97833  86.45101
…
