program start
seed set
[PhysicalDevice(name='/physical_device:GPU:0', device_type='GPU')]
Model: "model_92"
__________________________________________________________________________________________________
Layer (type)                    Output Shape         Param #     Connected to                     
==================================================================================================
input_47 (InputLayer)           [(None, 150, 150, 7) 0                                            
__________________________________________________________________________________________________
lambda_230 (Lambda)             (None, 150, 150, 7)  0           input_47[0][0]                   
__________________________________________________________________________________________________
conv2d_782 (Conv2D)             (None, 150, 150, 32) 2048        lambda_230[0][0]                 
__________________________________________________________________________________________________
max_pooling2d_782 (MaxPooling2D (None, 75, 75, 32)   0           conv2d_782[0][0]                 
__________________________________________________________________________________________________
lambda_231 (Lambda)             (None, 75, 75, 7)    0           lambda_230[0][0]                 
__________________________________________________________________________________________________
lambda_232 (Lambda)             (None, 75, 75, 7)    0           lambda_230[0][0]                 
__________________________________________________________________________________________________
lambda_233 (Lambda)             (None, 75, 75, 7)    0           lambda_230[0][0]                 
__________________________________________________________________________________________________
lambda_234 (Lambda)             (None, 75, 75, 7)    0           lambda_230[0][0]                 
__________________________________________________________________________________________________
conv2d_783 (Conv2D)             (None, 75, 75, 32)   9248        max_pooling2d_782[0][0]          
__________________________________________________________________________________________________
conv2d_786 (Conv2D)             (None, 75, 75, 32)   2048        lambda_231[0][0]                 
__________________________________________________________________________________________________
conv2d_789 (Conv2D)             (None, 75, 75, 32)   2048        lambda_232[0][0]                 
__________________________________________________________________________________________________
conv2d_792 (Conv2D)             (None, 75, 75, 32)   2048        lambda_233[0][0]                 
__________________________________________________________________________________________________
conv2d_795 (Conv2D)             (None, 75, 75, 32)   2048        lambda_234[0][0]                 
__________________________________________________________________________________________________
max_pooling2d_783 (MaxPooling2D (None, 38, 38, 32)   0           conv2d_783[0][0]                 
__________________________________________________________________________________________________
max_pooling2d_786 (MaxPooling2D (None, 38, 38, 32)   0           conv2d_786[0][0]                 
__________________________________________________________________________________________________
max_pooling2d_789 (MaxPooling2D (None, 38, 38, 32)   0           conv2d_789[0][0]                 
__________________________________________________________________________________________________
max_pooling2d_792 (MaxPooling2D (None, 38, 38, 32)   0           conv2d_792[0][0]                 
__________________________________________________________________________________________________
max_pooling2d_795 (MaxPooling2D (None, 38, 38, 32)   0           conv2d_795[0][0]                 
__________________________________________________________________________________________________
conv2d_784 (Conv2D)             (None, 38, 38, 64)   18496       max_pooling2d_783[0][0]          
__________________________________________________________________________________________________
conv2d_787 (Conv2D)             (None, 38, 38, 64)   18496       max_pooling2d_786[0][0]          
__________________________________________________________________________________________________
conv2d_790 (Conv2D)             (None, 38, 38, 64)   18496       max_pooling2d_789[0][0]          
__________________________________________________________________________________________________
conv2d_793 (Conv2D)             (None, 38, 38, 64)   18496       max_pooling2d_792[0][0]          
__________________________________________________________________________________________________
conv2d_796 (Conv2D)             (None, 38, 38, 64)   18496       max_pooling2d_795[0][0]          
__________________________________________________________________________________________________
max_pooling2d_784 (MaxPooling2D (None, 19, 19, 64)   0           conv2d_784[0][0]                 
__________________________________________________________________________________________________
max_pooling2d_787 (MaxPooling2D (None, 19, 19, 64)   0           conv2d_787[0][0]                 
__________________________________________________________________________________________________
max_pooling2d_790 (MaxPooling2D (None, 19, 19, 64)   0           conv2d_790[0][0]                 
__________________________________________________________________________________________________
max_pooling2d_793 (MaxPooling2D (None, 19, 19, 64)   0           conv2d_793[0][0]                 
__________________________________________________________________________________________________
max_pooling2d_796 (MaxPooling2D (None, 19, 19, 64)   0           conv2d_796[0][0]                 
__________________________________________________________________________________________________
conv2d_785 (Conv2D)             (None, 19, 19, 128)  73856       max_pooling2d_784[0][0]          
__________________________________________________________________________________________________
conv2d_788 (Conv2D)             (None, 19, 19, 128)  73856       max_pooling2d_787[0][0]          
__________________________________________________________________________________________________
conv2d_791 (Conv2D)             (None, 19, 19, 128)  73856       max_pooling2d_790[0][0]          
__________________________________________________________________________________________________
conv2d_794 (Conv2D)             (None, 19, 19, 128)  73856       max_pooling2d_793[0][0]          
__________________________________________________________________________________________________
conv2d_797 (Conv2D)             (None, 19, 19, 128)  73856       max_pooling2d_796[0][0]          
__________________________________________________________________________________________________
max_pooling2d_785 (MaxPooling2D (None, 10, 10, 128)  0           conv2d_785[0][0]                 
__________________________________________________________________________________________________
max_pooling2d_788 (MaxPooling2D (None, 10, 10, 128)  0           conv2d_788[0][0]                 
__________________________________________________________________________________________________
max_pooling2d_791 (MaxPooling2D (None, 10, 10, 128)  0           conv2d_791[0][0]                 
__________________________________________________________________________________________________
max_pooling2d_794 (MaxPooling2D (None, 10, 10, 128)  0           conv2d_794[0][0]                 
__________________________________________________________________________________________________
max_pooling2d_797 (MaxPooling2D (None, 10, 10, 128)  0           conv2d_797[0][0]                 
__________________________________________________________________________________________________
concatenate_46 (Concatenate)    (None, 10, 10, 640)  0           max_pooling2d_785[0][0]          
                                                                 max_pooling2d_788[0][0]          
                                                                 max_pooling2d_791[0][0]          
                                                                 max_pooling2d_794[0][0]          
                                                                 max_pooling2d_797[0][0]          
__________________________________________________________________________________________________
flatten_1886 (Flatten)          (None, 64000)        0           concatenate_46[0][0]             
__________________________________________________________________________________________________
dense_138 (Dense)               (None, 1024)         65537024    flatten_1886[0][0]               
__________________________________________________________________________________________________
dropout_92 (Dropout)            (None, 1024)         0           dense_138[0][0]                  
__________________________________________________________________________________________________
dense_139 (Dense)               (None, 1024)         1049600     dropout_92[0][0]                 
__________________________________________________________________________________________________
dropout_93 (Dropout)            (None, 1024)         0           dense_139[0][0]                  
__________________________________________________________________________________________________
dense_140 (Dense)               (None, 5)            5125        dropout_93[0][0]                 
==================================================================================================
Total params: 67,072,997
Trainable params: 67,072,997
Non-trainable params: 0
__________________________________________________________________________________________________
start loading dataset ...
load "Big" complete
load "Long" complete
load "Mitotic" complete
…
           3       0.92      0.86      0.89        56
           4       0.95      0.38      0.54        56

    accuracy                           0.80       260
   macro avg       0.82      0.81      0.78       260
weighted avg       0.85      0.80      0.79       260

Model: "model_93"
__________________________________________________________________________________________________
Layer (type)                    Output Shape         Param #     Connected to                     
==================================================================================================
input_47 (InputLayer)           [(None, 150, 150, 7) 0                                            
__________________________________________________________________________________________________
lambda_230 (Lambda)             (None, 150, 150, 7)  0           input_47[0][0]                   
__________________________________________________________________________________________________
conv2d_782 (Conv2D)             (None, 150, 150, 32) 2048        lambda_230[0][0]                 
__________________________________________________________________________________________________
max_pooling2d_782 (MaxPooling2D (None, 75, 75, 32)   0           conv2d_782[0][0]                 
__________________________________________________________________________________________________
lambda_231 (Lambda)             (None, 75, 75, 7)    0           lambda_230[0][0]                 
__________________________________________________________________________________________________
lambda_232 (Lambda)             (None, 75, 75, 7)    0           lambda_230[0][0]                 
__________________________________________________________________________________________________
lambda_233 (Lambda)             (None, 75, 75, 7)    0           lambda_230[0][0]                 
__________________________________________________________________________________________________
lambda_234 (Lambda)             (None, 75, 75, 7)    0           lambda_230[0][0]                 
__________________________________________________________________________________________________
conv2d_783 (Conv2D)             (None, 75, 75, 32)   9248        max_pooling2d_782[0][0]          
__________________________________________________________________________________________________
conv2d_786 (Conv2D)             (None, 75, 75, 32)   2048        lambda_231[0][0]                 
__________________________________________________________________________________________________
conv2d_789 (Conv2D)             (None, 75, 75, 32)   2048        lambda_232[0][0]                 
__________________________________________________________________________________________________
conv2d_792 (Conv2D)             (None, 75, 75, 32)   2048        lambda_233[0][0]                 
__________________________________________________________________________________________________
conv2d_795 (Conv2D)             (None, 75, 75, 32)   2048        lambda_234[0][0]                 
__________________________________________________________________________________________________
max_pooling2d_783 (MaxPooling2D (None, 38, 38, 32)   0           conv2d_783[0][0]                 
__________________________________________________________________________________________________
max_pooling2d_786 (MaxPooling2D (None, 38, 38, 32)   0           conv2d_786[0][0]                 
__________________________________________________________________________________________________
max_pooling2d_789 (MaxPooling2D (None, 38, 38, 32)   0           conv2d_789[0][0]                 
__________________________________________________________________________________________________
max_pooling2d_792 (MaxPooling2D (None, 38, 38, 32)   0           conv2d_792[0][0]                 
__________________________________________________________________________________________________
max_pooling2d_795 (MaxPooling2D (None, 38, 38, 32)   0           conv2d_795[0][0]                 
__________________________________________________________________________________________________
conv2d_784 (Conv2D)             (None, 38, 38, 64)   18496       max_pooling2d_783[0][0]          
__________________________________________________________________________________________________
conv2d_787 (Conv2D)             (None, 38, 38, 64)   18496       max_pooling2d_786[0][0]          
__________________________________________________________________________________________________
conv2d_790 (Conv2D)             (None, 38, 38, 64)   18496       max_pooling2d_789[0][0]          
__________________________________________________________________________________________________
conv2d_793 (Conv2D)             (None, 38, 38, 64)   18496       max_pooling2d_792[0][0]          
__________________________________________________________________________________________________
conv2d_796 (Conv2D)             (None, 38, 38, 64)   18496       max_pooling2d_795[0][0]          
__________________________________________________________________________________________________
max_pooling2d_784 (MaxPooling2D (None, 19, 19, 64)   0           conv2d_784[0][0]                 
__________________________________________________________________________________________________
max_pooling2d_787 (MaxPooling2D (None, 19, 19, 64)   0           conv2d_787[0][0]                 
__________________________________________________________________________________________________
max_pooling2d_790 (MaxPooling2D (None, 19, 19, 64)   0           conv2d_790[0][0]                 
__________________________________________________________________________________________________
max_pooling2d_793 (MaxPooling2D (None, 19, 19, 64)   0           conv2d_793[0][0]                 
__________________________________________________________________________________________________
max_pooling2d_796 (MaxPooling2D (None, 19, 19, 64)   0           conv2d_796[0][0]                 
__________________________________________________________________________________________________
conv2d_785 (Conv2D)             (None, 19, 19, 128)  73856       max_pooling2d_784[0][0]          
__________________________________________________________________________________________________
conv2d_788 (Conv2D)             (None, 19, 19, 128)  73856       max_pooling2d_787[0][0]          
__________________________________________________________________________________________________
conv2d_791 (Conv2D)             (None, 19, 19, 128)  73856       max_pooling2d_790[0][0]          
__________________________________________________________________________________________________
conv2d_794 (Conv2D)             (None, 19, 19, 128)  73856       max_pooling2d_793[0][0]          
__________________________________________________________________________________________________
conv2d_797 (Conv2D)             (None, 19, 19, 128)  73856       max_pooling2d_796[0][0]          
__________________________________________________________________________________________________
max_pooling2d_785 (MaxPooling2D (None, 10, 10, 128)  0           conv2d_785[0][0]                 
__________________________________________________________________________________________________
max_pooling2d_788 (MaxPooling2D (None, 10, 10, 128)  0           conv2d_788[0][0]                 
__________________________________________________________________________________________________
max_pooling2d_791 (MaxPooling2D (None, 10, 10, 128)  0           conv2d_791[0][0]                 
__________________________________________________________________________________________________
max_pooling2d_794 (MaxPooling2D (None, 10, 10, 128)  0           conv2d_794[0][0]                 
__________________________________________________________________________________________________
max_pooling2d_797 (MaxPooling2D (None, 10, 10, 128)  0           conv2d_797[0][0]                 
__________________________________________________________________________________________________
concatenate_46 (Concatenate)    (None, 10, 10, 640)  0           max_pooling2d_785[0][0]          
                                                                 max_pooling2d_788[0][0]          
                                                                 max_pooling2d_791[0][0]          
                                                                 max_pooling2d_794[0][0]          
                                                                 max_pooling2d_797[0][0]          
__________________________________________________________________________________________________
flatten_1886 (Flatten)          (None, 64000)        0           concatenate_46[0][0]             
==================================================================================================
Total params: 481,248
Trainable params: 481,248
Non-trainable params: 0
__________________________________________________________________________________________________
get cnn model
(1052, 64000)
[  6.093135 209.4153     0.       156.86781   67.476456  89.15828
…
