program start
seed set
[PhysicalDevice(name='/physical_device:GPU:0', device_type='GPU')]
Model: "model_94"
__________________________________________________________________________________________________
Layer (type)                    Output Shape         Param #     Connected to                     
==================================================================================================
input_48 (InputLayer)           [(None, 150, 150, 7) 0                                            
__________________________________________________________________________________________________
lambda_235 (Lambda)             (None, 150, 150, 7)  0           input_48[0][0]                   
__________________________________________________________________________________________________
conv2d_799 (Conv2D)             (None, 150, 150, 32) 2048        lambda_235[0][0]                 
__________________________________________________________________________________________________
max_pooling2d_799 (MaxPooling2D (None, 75, 75, 32)   0           conv2d_799[0][0]                 
__________________________________________________________________________________________________
lambda_236 (Lambda)             (None, 75, 75, 7)    0           lambda_235[0][0]                 
__________________________________________________________________________________________________
lambda_237 (Lambda)             (None, 75, 75, 7)    0           lambda_235[0][0]                 
__________________________________________________________________________________________________
lambda_238 (Lambda)             (None, 75, 75, 7)    0           lambda_235[0][0]                 
__________________________________________________________________________________________________
lambda_239 (Lambda)             (None, 75, 75, 7)    0           lambda_235[0][0]                 
__________________________________________________________________________________________________
conv2d_800 (Conv2D)             (None, 75, 75, 32)   9248        max_pooling2d_799[0][0]          
__________________________________________________________________________________________________
conv2d_803 (Conv2D)             (None, 75, 75, 32)   2048        lambda_236[0][0]                 
__________________________________________________________________________________________________
conv2d_806 (Conv2D)             (None, 75, 75, 32)   2048        lambda_237[0][0]                 
__________________________________________________________________________________________________
conv2d_809 (Conv2D)             (None, 75, 75, 32)   2048        lambda_238[0][0]                 
__________________________________________________________________________________________________
conv2d_812 (Conv2D)             (None, 75, 75, 32)   2048        lambda_239[0][0]                 
__________________________________________________________________________________________________
max_pooling2d_800 (MaxPooling2D (None, 38, 38, 32)   0           conv2d_800[0][0]                 
__________________________________________________________________________________________________
max_pooling2d_803 (MaxPooling2D (None, 38, 38, 32)   0           conv2d_803[0][0]                 
__________________________________________________________________________________________________
max_pooling2d_806 (MaxPooling2D (None, 38, 38, 32)   0           conv2d_806[0][0]                 
__________________________________________________________________________________________________
max_pooling2d_809 (MaxPooling2D (None, 38, 38, 32)   0           conv2d_809[0][0]                 
__________________________________________________________________________________________________
max_pooling2d_812 (MaxPooling2D (None, 38, 38, 32)   0           conv2d_812[0][0]                 
__________________________________________________________________________________________________
conv2d_801 (Conv2D)             (None, 38, 38, 64)   18496       max_pooling2d_800[0][0]          
__________________________________________________________________________________________________
conv2d_804 (Conv2D)             (None, 38, 38, 64)   18496       max_pooling2d_803[0][0]          
__________________________________________________________________________________________________
conv2d_807 (Conv2D)             (None, 38, 38, 64)   18496       max_pooling2d_806[0][0]          
__________________________________________________________________________________________________
conv2d_810 (Conv2D)             (None, 38, 38, 64)   18496       max_pooling2d_809[0][0]          
__________________________________________________________________________________________________
conv2d_813 (Conv2D)             (None, 38, 38, 64)   18496       max_pooling2d_812[0][0]          
__________________________________________________________________________________________________
max_pooling2d_801 (MaxPooling2D (None, 19, 19, 64)   0           conv2d_801[0][0]                 
__________________________________________________________________________________________________
max_pooling2d_804 (MaxPooling2D (None, 19, 19, 64)   0           conv2d_804[0][0]                 
__________________________________________________________________________________________________
max_pooling2d_807 (MaxPooling2D (None, 19, 19, 64)   0           conv2d_807[0][0]                 
__________________________________________________________________________________________________
max_pooling2d_810 (MaxPooling2D (None, 19, 19, 64)   0           conv2d_810[0][0]                 
__________________________________________________________________________________________________
max_pooling2d_813 (MaxPooling2D (None, 19, 19, 64)   0           conv2d_813[0][0]                 
__________________________________________________________________________________________________
conv2d_802 (Conv2D)             (None, 19, 19, 128)  73856       max_pooling2d_801[0][0]          
__________________________________________________________________________________________________
conv2d_805 (Conv2D)             (None, 19, 19, 128)  73856       max_pooling2d_804[0][0]          
__________________________________________________________________________________________________
conv2d_808 (Conv2D)             (None, 19, 19, 128)  73856       max_pooling2d_807[0][0]          
__________________________________________________________________________________________________
conv2d_811 (Conv2D)             (None, 19, 19, 128)  73856       max_pooling2d_810[0][0]          
__________________________________________________________________________________________________
conv2d_814 (Conv2D)             (None, 19, 19, 128)  73856       max_pooling2d_813[0][0]          
__________________________________________________________________________________________________
max_pooling2d_802 (MaxPooling2D (None, 10, 10, 128)  0           conv2d_802[0][0]                 
__________________________________________________________________________________________________
max_pooling2d_805 (MaxPooling2D (None, 10, 10, 128)  0           conv2d_805[0][0]                 
__________________________________________________________________________________________________
max_pooling2d_808 (MaxPooling2D (None, 10, 10, 128)  0           conv2d_808[0][0]                 
__________________________________________________________________________________________________
max_pooling2d_811 (MaxPooling2D (None, 10, 10, 128)  0           conv2d_811[0][0]                 
__________________________________________________________________________________________________
max_pooling2d_814 (MaxPooling2D (None, 10, 10, 128)  0           conv2d_814[0][0]                 
__________________________________________________________________________________________________
concatenate_47 (Concatenate)    (None, 10, 10, 640)  0           max_pooling2d_802[0][0]          
                                                                 max_pooling2d_805[0][0]          
                                                                 max_pooling2d_808[0][0]          
                                                                 max_pooling2d_811[0][0]          
                                                                 max_pooling2d_814[0][0]          
__________________________________________________________________________________________________
flatten_1927 (Flatten)          (None, 64000)        0           concatenate_47[0][0]             
__________________________________________________________________________________________________
dense_141 (Dense)               (None, 1024)         65537024    flatten_1927[0][0]               
__________________________________________________________________________________________________
dropout_94 (Dropout)            (None, 1024)         0           dense_141[0][0]                  
__________________________________________________________________________________________________
dense_142 (Dense)               (None, 1024)         1049600     dropout_94[0][0]                 
__________________________________________________________________________________________________
dropout_95 (Dropout)            (None, 1024)         0           dense_142[0][0]                  
__________________________________________________________________________________________________
dense_143 (Dense)               (None, 5)            5125        dropout_95[0][0]                 
==================================================================================================
Total params: 67,072,997
Trainable params: 67,072,997
Non-trainable params: 0
__________________________________________________________________________________________________
start loading dataset ...
load "Big" complete
load "Long" complete
load "Mitotic" complete
…
           3       0.94      0.82      0.88        56
           4       0.58      0.32      0.41        56

    accuracy                           0.71       260
   macro avg       0.72      0.70      0.68       260
weighted avg       0.71      0.71      0.68       260

Model: "model_95"
__________________________________________________________________________________________________
Layer (type)                    Output Shape         Param #     Connected to                     
==================================================================================================
input_48 (InputLayer)           [(None, 150, 150, 7) 0                                            
__________________________________________________________________________________________________
lambda_235 (Lambda)             (None, 150, 150, 7)  0           input_48[0][0]                   
__________________________________________________________________________________________________
conv2d_799 (Conv2D)             (None, 150, 150, 32) 2048        lambda_235[0][0]                 
__________________________________________________________________________________________________
max_pooling2d_799 (MaxPooling2D (None, 75, 75, 32)   0           conv2d_799[0][0]                 
__________________________________________________________________________________________________
lambda_236 (Lambda)             (None, 75, 75, 7)    0           lambda_235[0][0]                 
__________________________________________________________________________________________________
lambda_237 (Lambda)             (None, 75, 75, 7)    0           lambda_235[0][0]                 
__________________________________________________________________________________________________
lambda_238 (Lambda)             (None, 75, 75, 7)    0           lambda_235[0][0]                 
__________________________________________________________________________________________________
lambda_239 (Lambda)             (None, 75, 75, 7)    0           lambda_235[0][0]                 
__________________________________________________________________________________________________
conv2d_800 (Conv2D)             (None, 75, 75, 32)   9248        max_pooling2d_799[0][0]          
__________________________________________________________________________________________________
conv2d_803 (Conv2D)             (None, 75, 75, 32)   2048        lambda_236[0][0]                 
__________________________________________________________________________________________________
conv2d_806 (Conv2D)             (None, 75, 75, 32)   2048        lambda_237[0][0]                 
__________________________________________________________________________________________________
conv2d_809 (Conv2D)             (None, 75, 75, 32)   2048        lambda_238[0][0]                 
__________________________________________________________________________________________________
conv2d_812 (Conv2D)             (None, 75, 75, 32)   2048        lambda_239[0][0]                 
__________________________________________________________________________________________________
max_pooling2d_800 (MaxPooling2D (None, 38, 38, 32)   0           conv2d_800[0][0]                 
__________________________________________________________________________________________________
max_pooling2d_803 (MaxPooling2D (None, 38, 38, 32)   0           conv2d_803[0][0]                 
__________________________________________________________________________________________________
max_pooling2d_806 (MaxPooling2D (None, 38, 38, 32)   0           conv2d_806[0][0]                 
__________________________________________________________________________________________________
max_pooling2d_809 (MaxPooling2D (None, 38, 38, 32)   0           conv2d_809[0][0]                 
__________________________________________________________________________________________________
max_pooling2d_812 (MaxPooling2D (None, 38, 38, 32)   0           conv2d_812[0][0]                 
__________________________________________________________________________________________________
conv2d_801 (Conv2D)             (None, 38, 38, 64)   18496       max_pooling2d_800[0][0]          
__________________________________________________________________________________________________
conv2d_804 (Conv2D)             (None, 38, 38, 64)   18496       max_pooling2d_803[0][0]          
__________________________________________________________________________________________________
conv2d_807 (Conv2D)             (None, 38, 38, 64)   18496       max_pooling2d_806[0][0]          
__________________________________________________________________________________________________
conv2d_810 (Conv2D)             (None, 38, 38, 64)   18496       max_pooling2d_809[0][0]          
__________________________________________________________________________________________________
conv2d_813 (Conv2D)             (None, 38, 38, 64)   18496       max_pooling2d_812[0][0]          
__________________________________________________________________________________________________
max_pooling2d_801 (MaxPooling2D (None, 19, 19, 64)   0           conv2d_801[0][0]                 
__________________________________________________________________________________________________
max_pooling2d_804 (MaxPooling2D (None, 19, 19, 64)   0           conv2d_804[0][0]                 
__________________________________________________________________________________________________
max_pooling2d_807 (MaxPooling2D (None, 19, 19, 64)   0           conv2d_807[0][0]                 
__________________________________________________________________________________________________
max_pooling2d_810 (MaxPooling2D (None, 19, 19, 64)   0           conv2d_810[0][0]                 
__________________________________________________________________________________________________
max_pooling2d_813 (MaxPooling2D (None, 19, 19, 64)   0           conv2d_813[0][0]                 
__________________________________________________________________________________________________
conv2d_802 (Conv2D)             (None, 19, 19, 128)  73856       max_pooling2d_801[0][0]          
__________________________________________________________________________________________________
conv2d_805 (Conv2D)             (None, 19, 19, 128)  73856       max_pooling2d_804[0][0]          
__________________________________________________________________________________________________
conv2d_808 (Conv2D)             (None, 19, 19, 128)  73856       max_pooling2d_807[0][0]          
__________________________________________________________________________________________________
conv2d_811 (Conv2D)             (None, 19, 19, 128)  73856       max_pooling2d_810[0][0]          
__________________________________________________________________________________________________
conv2d_814 (Conv2D)             (None, 19, 19, 128)  73856       max_pooling2d_813[0][0]          
__________________________________________________________________________________________________
max_pooling2d_802 (MaxPooling2D (None, 10, 10, 128)  0           conv2d_802[0][0]                 
__________________________________________________________________________________________________
max_pooling2d_805 (MaxPooling2D (None, 10, 10, 128)  0           conv2d_805[0][0]                 
__________________________________________________________________________________________________
max_pooling2d_808 (MaxPooling2D (None, 10, 10, 128)  0           conv2d_808[0][0]                 
__________________________________________________________________________________________________
max_pooling2d_811 (MaxPooling2D (None, 10, 10, 128)  0           conv2d_811[0][0]                 
__________________________________________________________________________________________________
max_pooling2d_814 (MaxPooling2D (None, 10, 10, 128)  0           conv2d_814[0][0]                 
__________________________________________________________________________________________________
concatenate_47 (Concatenate)    (None, 10, 10, 640)  0           max_pooling2d_802[0][0]          
                                                                 max_pooling2d_805[0][0]          
                                                                 max_pooling2d_808[0][0]          
                                                                 max_pooling2d_811[0][0]          
                                                                 max_pooling2d_814[0][0]          
__________________________________________________________________________________________________
flatten_1927 (Flatten)          (None, 64000)        0           concatenate_47[0][0]             
==================================================================================================
Total params: 481,248
Trainable params: 481,248
Non-trainable params: 0
__________________________________________________________________________________________________
get cnn model
(1052, 64000)
[  0.          0.          5.7959423   2.6890898 159.37465     0.
…
