program start
seed set
[PhysicalDevice(name='/physical_device:GPU:0', device_type='GPU')]
Model: "model_96"
__________________________________________________________________________________________________
Layer (type)                    Output Shape         Param #     Connected to                     
==================================================================================================
input_49 (InputLayer)           [(None, 150, 150, 7) 0                                            
__________________________________________________________________________________________________
lambda_240 (Lambda)             (None, 150, 150, 7)  0           input_49[0][0]                   
__________________________________________________________________________________________________
conv2d_816 (Conv2D)             (None, 150, 150, 32) 2048        lambda_240[0][0]                 
__________________________________________________________________________________________________
max_pooling2d_816 (MaxPooling2D (None, 75, 75, 32)   0           conv2d_816[0][0]                 
__________________________________________________________________________________________________
lambda_241 (Lambda)             (None, 75, 75, 7)    0           lambda_240[0][0]                 
__________________________________________________________________________________________________
lambda_242 (Lambda)             (None, 75, 75, 7)    0           lambda_240[0][0]                 
__________________________________________________________________________________________________
lambda_243 (Lambda)             (None, 75, 75, 7)    0           lambda_240[0][0]                 
__________________________________________________________________________________________________
lambda_244 (Lambda)             (None, 75, 75, 7)    0           lambda_240[0][0]                 
__________________________________________________________________________________________________
conv2d_817 (Conv2D)             (None, 75, 75, 32)   9248        max_pooling2d_816[0][0]          
__________________________________________________________________________________________________
conv2d_820 (Conv2D)             (None, 75, 75, 32)   2048        lambda_241[0][0]                 
__________________________________________________________________________________________________
conv2d_823 (Conv2D)             (None, 75, 75, 32)   2048        lambda_242[0][0]                 
__________________________________________________________________________________________________
conv2d_826 (Conv2D)             (None, 75, 75, 32)   2048        lambda_243[0][0]                 
__________________________________________________________________________________________________
conv2d_829 (Conv2D)             (None, 75, 75, 32)   2048        lambda_244[0][0]                 
__________________________________________________________________________________________________
max_pooling2d_817 (MaxPooling2D (None, 38, 38, 32)   0           conv2d_817[0][0]                 
__________________________________________________________________________________________________
max_pooling2d_820 (MaxPooling2D (None, 38, 38, 32)   0           conv2d_820[0][0]                 
__________________________________________________________________________________________________
max_pooling2d_823 (MaxPooling2D (None, 38, 38, 32)   0           conv2d_823[0][0]                 
__________________________________________________________________________________________________
max_pooling2d_826 (MaxPooling2D (None, 38, 38, 32)   0           conv2d_826[0][0]                 
__________________________________________________________________________________________________
max_pooling2d_829 (MaxPooling2D (None, 38, 38, 32)   0           conv2d_829[0][0]                 
__________________________________________________________________________________________________
conv2d_818 (Conv2D)             (None, 38, 38, 64)   18496       max_pooling2d_817[0][0]          
__________________________________________________________________________________________________
conv2d_821 (Conv2D)             (None, 38, 38, 64)   18496       max_pooling2d_820[0][0]          
__________________________________________________________________________________________________
conv2d_824 (Conv2D)             (None, 38, 38, 64)   18496       max_pooling2d_823[0][0]          
__________________________________________________________________________________________________
conv2d_827 (Conv2D)             (None, 38, 38, 64)   18496       max_pooling2d_826[0][0]          
__________________________________________________________________________________________________
conv2d_830 (Conv2D)             (None, 38, 38, 64)   18496       max_pooling2d_829[0][0]          
__________________________________________________________________________________________________
max_pooling2d_818 (MaxPooling2D (None, 19, 19, 64)   0           conv2d_818[0][0]                 
__________________________________________________________________________________________________
max_pooling2d_821 (MaxPooling2D (None, 19, 19, 64)   0           conv2d_821[0][0]                 
__________________________________________________________________________________________________
max_pooling2d_824 (MaxPooling2D (None, 19, 19, 64)   0           conv2d_824[0][0]                 
__________________________________________________________________________________________________
max_pooling2d_827 (MaxPooling2D (None, 19, 19, 64)   0           conv2d_827[0][0]                 
__________________________________________________________________________________________________
max_pooling2d_830 (MaxPooling2D (None, 19, 19, 64)   0           conv2d_830[0][0]                 
__________________________________________________________________________________________________
conv2d_819 (Conv2D)             (None, 19, 19, 128)  73856       max_pooling2d_818[0][0]          
__________________________________________________________________________________________________
conv2d_822 (Conv2D)             (None, 19, 19, 128)  73856       max_pooling2d_821[0][0]          
__________________________________________________________________________________________________
conv2d_825 (Conv2D)             (None, 19, 19, 128)  73856       max_pooling2d_824[0][0]          
__________________________________________________________________________________________________
conv2d_828 (Conv2D)             (None, 19, 19, 128)  73856       max_pooling2d_827[0][0]          
__________________________________________________________________________________________________
conv2d_831 (Conv2D)             (None, 19, 19, 128)  73856       max_pooling2d_830[0][0]          
__________________________________________________________________________________________________
max_pooling2d_819 (MaxPooling2D (None, 10, 10, 128)  0           conv2d_819[0][0]                 
__________________________________________________________________________________________________
max_pooling2d_822 (MaxPooling2D (None, 10, 10, 128)  0           conv2d_822[0][0]                 
__________________________________________________________________________________________________
max_pooling2d_825 (MaxPooling2D (None, 10, 10, 128)  0           conv2d_825[0][0]                 
__________________________________________________________________________________________________
max_pooling2d_828 (MaxPooling2D (None, 10, 10, 128)  0           conv2d_828[0][0]                 
__________________________________________________________________________________________________
max_pooling2d_831 (MaxPooling2D (None, 10, 10, 128)  0           conv2d_831[0][0]                 
__________________________________________________________________________________________________
concatenate_48 (Concatenate)    (None, 10, 10, 640)  0           max_pooling2d_819[0][0]          
                                                                 max_pooling2d_822[0][0]          
                                                                 max_pooling2d_825[0][0]          
                                                                 max_pooling2d_828[0][0]          
                                                                 max_pooling2d_831[0][0]          
__________________________________________________________________________________________________
flatten_1968 (Flatten)          (None, 64000)        0           concatenate_48[0][0]             
__________________________________________________________________________________________________
dense_144 (Dense)               (None, 1024)         65537024    flatten_1968[0][0]               
__________________________________________________________________________________________________
dropout_96 (Dropout)            (None, 1024)         0           dense_144[0][0]                  
__________________________________________________________________________________________________
dense_145 (Dense)               (None, 1024)         1049600     dropout_96[0][0]                 
__________________________________________________________________________________________________
dropout_97 (Dropout)            (None, 1024)         0           dense_145[0][0]                  
__________________________________________________________________________________________________
dense_146 (Dense)               (None, 5)            5125        dropout_97[0][0]                 
==================================================================================================
Total params: 67,072,997
Trainable params: 67,072,997
Non-trainable params: 0
__________________________________________________________________________________________________
start loading dataset ...
load "Big" complete
load "Long" complete
load "Mitotic" complete
…
avg': {'precision': 0.7929425881258189, 'recall': 0.7516634050880626, 'f1-score': 0.6784733309503952, 'support': 260.0}, 'weighted avg': {'precision': 0.8091196224343041, 'recall': 0.7384615384615385, 'f1-score': 0.6755417060004216, 'support': 260.0}}
Model: "model_97"
__________________________________________________________________________________________________
Layer (type)                    Output Shape         Param #     Connected to                     
==================================================================================================
input_49 (InputLayer)           [(None, 150, 150, 7) 0                                            
__________________________________________________________________________________________________
lambda_240 (Lambda)             (None, 150, 150, 7)  0           input_49[0][0]                   
__________________________________________________________________________________________________
conv2d_816 (Conv2D)             (None, 150, 150, 32) 2048        lambda_240[0][0]                 
__________________________________________________________________________________________________
max_pooling2d_816 (MaxPooling2D (None, 75, 75, 32)   0           conv2d_816[0][0]                 
__________________________________________________________________________________________________
lambda_241 (Lambda)             (None, 75, 75, 7)    0           lambda_240[0][0]                 
__________________________________________________________________________________________________
lambda_242 (Lambda)             (None, 75, 75, 7)    0           lambda_240[0][0]                 
__________________________________________________________________________________________________
lambda_243 (Lambda)             (None, 75, 75, 7)    0           lambda_240[0][0]                 
__________________________________________________________________________________________________
lambda_244 (Lambda)             (None, 75, 75, 7)    0           lambda_240[0][0]                 
__________________________________________________________________________________________________
conv2d_817 (Conv2D)             (None, 75, 75, 32)   9248        max_pooling2d_816[0][0]          
__________________________________________________________________________________________________
conv2d_820 (Conv2D)             (None, 75, 75, 32)   2048        lambda_241[0][0]                 
__________________________________________________________________________________________________
conv2d_823 (Conv2D)             (None, 75, 75, 32)   2048        lambda_242[0][0]                 
__________________________________________________________________________________________________
conv2d_826 (Conv2D)             (None, 75, 75, 32)   2048        lambda_243[0][0]                 
__________________________________________________________________________________________________
conv2d_829 (Conv2D)             (None, 75, 75, 32)   2048        lambda_244[0][0]                 
__________________________________________________________________________________________________
max_pooling2d_817 (MaxPooling2D (None, 38, 38, 32)   0           conv2d_817[0][0]                 
__________________________________________________________________________________________________
max_pooling2d_820 (MaxPooling2D (None, 38, 38, 32)   0           conv2d_820[0][0]                 
__________________________________________________________________________________________________
max_pooling2d_823 (MaxPooling2D (None, 38, 38, 32)   0           conv2d_823[0][0]                 
__________________________________________________________________________________________________
max_pooling2d_826 (MaxPooling2D (None, 38, 38, 32)   0           conv2d_826[0][0]                 
__________________________________________________________________________________________________
max_pooling2d_829 (MaxPooling2D (None, 38, 38, 32)   0           conv2d_829[0][0]                 
__________________________________________________________________________________________________
conv2d_818 (Conv2D)             (None, 38, 38, 64)   18496       max_pooling2d_817[0][0]          
__________________________________________________________________________________________________
conv2d_821 (Conv2D)             (None, 38, 38, 64)   18496       max_pooling2d_820[0][0]          
__________________________________________________________________________________________________
conv2d_824 (Conv2D)             (None, 38, 38, 64)   18496       max_pooling2d_823[0][0]          
__________________________________________________________________________________________________
conv2d_827 (Conv2D)             (None, 38, 38, 64)   18496       max_pooling2d_826[0][0]          
__________________________________________________________________________________________________
conv2d_830 (Conv2D)             (None, 38, 38, 64)   18496       max_pooling2d_829[0][0]          
__________________________________________________________________________________________________
max_pooling2d_818 (MaxPooling2D (None, 19, 19, 64)   0           conv2d_818[0][0]                 
__________________________________________________________________________________________________
max_pooling2d_821 (MaxPooling2D (None, 19, 19, 64)   0           conv2d_821[0][0]                 
__________________________________________________________________________________________________
max_pooling2d_824 (MaxPooling2D (None, 19, 19, 64)   0           conv2d_824[0][0]                 
__________________________________________________________________________________________________
max_pooling2d_827 (MaxPooling2D (None, 19, 19, 64)   0           conv2d_827[0][0]                 
__________________________________________________________________________________________________
max_pooling2d_830 (MaxPooling2D (None, 19, 19, 64)   0           conv2d_830[0][0]                 
__________________________________________________________________________________________________
conv2d_819 (Conv2D)             (None, 19, 19, 128)  73856       max_pooling2d_818[0][0]          
__________________________________________________________________________________________________
conv2d_822 (Conv2D)             (None, 19, 19, 128)  73856       max_pooling2d_821[0][0]          
__________________________________________________________________________________________________
conv2d_825 (Conv2D)             (None, 19, 19, 128)  73856       max_pooling2d_824[0][0]          
__________________________________________________________________________________________________
conv2d_828 (Conv2D)             (None, 19, 19, 128)  73856       max_pooling2d_827[0][0]          
__________________________________________________________________________________________________
conv2d_831 (Conv2D)             (None, 19, 19, 128)  73856       max_pooling2d_830[0][0]          
__________________________________________________________________________________________________
max_pooling2d_819 (MaxPooling2D (None, 10, 10, 128)  0           conv2d_819[0][0]                 
__________________________________________________________________________________________________
max_pooling2d_822 (MaxPooling2D (None, 10, 10, 128)  0           conv2d_822[0][0]                 
__________________________________________________________________________________________________
max_pooling2d_825 (MaxPooling2D (None, 10, 10, 128)  0           conv2d_825[0][0]                 
__________________________________________________________________________________________________
max_pooling2d_828 (MaxPooling2D (None, 10, 10, 128)  0           conv2d_828[0][0]                 
__________________________________________________________________________________________________
max_pooling2d_831 (MaxPooling2D (None, 10, 10, 128)  0           conv2d_831[0][0]                 
__________________________________________________________________________________________________
concatenate_48 (Concatenate)    (None, 10, 10, 640)  0           max_pooling2d_819[0][0]          
                                                                 max_pooling2d_822[0][0]          
                                                                 max_pooling2d_825[0][0]          
                                                                 max_pooling2d_828[0][0]          
                                                                 max_pooling2d_831[0][0]          
__________________________________________________________________________________________________
flatten_1968 (Flatten)          (None, 64000)        0           concatenate_48[0][0]             
==================================================================================================
Total params: 481,248
Trainable params: 481,248
Non-trainable params: 0
__________________________________________________________________________________________________
get cnn model
(1052, 64000)
[220.09164   210.6522     37.030476   39.40639    69.632095  108.88808
…
