program start
seed set
[PhysicalDevice(name='/physical_device:GPU:0', device_type='GPU')]
Model: "model_8"
__________________________________________________________________________________________________
Layer (type)                    Output Shape         Param #     Connected to                     
==================================================================================================
input_5 (InputLayer)            [(None, 150, 150, 7) 0                                            
__________________________________________________________________________________________________
lambda_20 (Lambda)              (None, 150, 150, 7)  0           input_5[0][0]                    
__________________________________________________________________________________________________
conv2d_68 (Conv2D)              (None, 150, 150, 32) 2048        lambda_20[0][0]                  
__________________________________________________________________________________________________
max_pooling2d_68 (MaxPooling2D) (None, 75, 75, 32)   0           conv2d_68[0][0]                  
__________________________________________________________________________________________________
lambda_21 (Lambda)              (None, 75, 75, 7)    0           lambda_20[0][0]                  
__________________________________________________________________________________________________
lambda_22 (Lambda)              (None, 75, 75, 7)    0           lambda_20[0][0]                  
__________________________________________________________________________________________________
lambda_23 (Lambda)              (None, 75, 75, 7)    0           lambda_20[0][0]                  
__________________________________________________________________________________________________
lambda_24 (Lambda)              (None, 75, 75, 7)    0           lambda_20[0][0]                  
__________________________________________________________________________________________________
conv2d_69 (Conv2D)              (None, 75, 75, 32)   9248        max_pooling2d_68[0][0]           
__________________________________________________________________________________________________
conv2d_72 (Conv2D)              (None, 75, 75, 32)   2048        lambda_21[0][0]                  
__________________________________________________________________________________________________
conv2d_75 (Conv2D)              (None, 75, 75, 32)   2048        lambda_22[0][0]                  
__________________________________________________________________________________________________
conv2d_78 (Conv2D)              (None, 75, 75, 32)   2048        lambda_23[0][0]                  
__________________________________________________________________________________________________
conv2d_81 (Conv2D)              (None, 75, 75, 32)   2048        lambda_24[0][0]                  
__________________________________________________________________________________________________
max_pooling2d_69 (MaxPooling2D) (None, 38, 38, 32)   0           conv2d_69[0][0]                  
__________________________________________________________________________________________________
max_pooling2d_72 (MaxPooling2D) (None, 38, 38, 32)   0           conv2d_72[0][0]                  
__________________________________________________________________________________________________
max_pooling2d_75 (MaxPooling2D) (None, 38, 38, 32)   0           conv2d_75[0][0]                  
__________________________________________________________________________________________________
max_pooling2d_78 (MaxPooling2D) (None, 38, 38, 32)   0           conv2d_78[0][0]                  
__________________________________________________________________________________________________
max_pooling2d_81 (MaxPooling2D) (None, 38, 38, 32)   0           conv2d_81[0][0]                  
__________________________________________________________________________________________________
conv2d_70 (Conv2D)              (None, 38, 38, 64)   18496       max_pooling2d_69[0][0]           
__________________________________________________________________________________________________
conv2d_73 (Conv2D)              (None, 38, 38, 64)   18496       max_pooling2d_72[0][0]           
__________________________________________________________________________________________________
conv2d_76 (Conv2D)              (None, 38, 38, 64)   18496       max_pooling2d_75[0][0]           
__________________________________________________________________________________________________
conv2d_79 (Conv2D)              (None, 38, 38, 64)   18496       max_pooling2d_78[0][0]           
__________________________________________________________________________________________________
conv2d_82 (Conv2D)              (None, 38, 38, 64)   18496       max_pooling2d_81[0][0]           
__________________________________________________________________________________________________
max_pooling2d_70 (MaxPooling2D) (None, 19, 19, 64)   0           conv2d_70[0][0]                  
__________________________________________________________________________________________________
max_pooling2d_73 (MaxPooling2D) (None, 19, 19, 64)   0           conv2d_73[0][0]                  
__________________________________________________________________________________________________
max_pooling2d_76 (MaxPooling2D) (None, 19, 19, 64)   0           conv2d_76[0][0]                  
__________________________________________________________________________________________________
max_pooling2d_79 (MaxPooling2D) (None, 19, 19, 64)   0           conv2d_79[0][0]                  
__________________________________________________________________________________________________
max_pooling2d_82 (MaxPooling2D) (None, 19, 19, 64)   0           conv2d_82[0][0]                  
__________________________________________________________________________________________________
conv2d_71 (Conv2D)              (None, 19, 19, 128)  73856       max_pooling2d_70[0][0]           
__________________________________________________________________________________________________
conv2d_74 (Conv2D)              (None, 19, 19, 128)  73856       max_pooling2d_73[0][0]           
__________________________________________________________________________________________________
conv2d_77 (Conv2D)              (None, 19, 19, 128)  73856       max_pooling2d_76[0][0]           
__________________________________________________________________________________________________
conv2d_80 (Conv2D)              (None, 19, 19, 128)  73856       max_pooling2d_79[0][0]           
__________________________________________________________________________________________________
conv2d_83 (Conv2D)              (None, 19, 19, 128)  73856       max_pooling2d_82[0][0]           
__________________________________________________________________________________________________
max_pooling2d_71 (MaxPooling2D) (None, 10, 10, 128)  0           conv2d_71[0][0]                  
__________________________________________________________________________________________________
max_pooling2d_74 (MaxPooling2D) (None, 10, 10, 128)  0           conv2d_74[0][0]                  
__________________________________________________________________________________________________
max_pooling2d_77 (MaxPooling2D) (None, 10, 10, 128)  0           conv2d_77[0][0]                  
__________________________________________________________________________________________________
max_pooling2d_80 (MaxPooling2D) (None, 10, 10, 128)  0           conv2d_80[0][0]                  
__________________________________________________________________________________________________
max_pooling2d_83 (MaxPooling2D) (None, 10, 10, 128)  0           conv2d_83[0][0]                  
__________________________________________________________________________________________________
concatenate_4 (Concatenate)     (None, 10, 10, 640)  0           max_pooling2d_71[0][0]           
                                                                 max_pooling2d_74[0][0]           
                                                                 max_pooling2d_77[0][0]           
                                                                 max_pooling2d_80[0][0]           
                                                                 max_pooling2d_83[0][0]           
__________________________________________________________________________________________________
flatten_164 (Flatten)           (None, 64000)        0           concatenate_4[0][0]              
__________________________________________________________________________________________________
dense_12 (Dense)                (None, 1024)         65537024    flatten_164[0][0]                
__________________________________________________________________________________________________
dropout_8 (Dropout)             (None, 1024)         0           dense_12[0][0]                   
__________________________________________________________________________________________________
dense_13 (Dense)                (None, 1024)         1049600     dropout_8[0][0]                  
__________________________________________________________________________________________________
dropout_9 (Dropout)             (None, 1024)         0           dense_13[0][0]                   
__________________________________________________________________________________________________
dense_14 (Dense)                (None, 5)            5125        dropout_9[0][0]                  
==================================================================================================
Total params: 67,072,997
Trainable params: 67,072,997
Non-trainable params: 0
__________________________________________________________________________________________________
start loading dataset ...
load "Big" complete
load "Long" complete
load "Mitotic" complete
…
           3       0.95      0.68      0.79        56
           4       1.00      0.09      0.16        56

    accuracy                           0.72       260
   macro avg       0.82      0.73      0.67       260
weighted avg       0.84      0.72      0.67       260

Model: "model_9"
__________________________________________________________________________________________________
Layer (type)                    Output Shape         Param #     Connected to                     
==================================================================================================
input_5 (InputLayer)            [(None, 150, 150, 7) 0                                            
__________________________________________________________________________________________________
lambda_20 (Lambda)              (None, 150, 150, 7)  0           input_5[0][0]                    
__________________________________________________________________________________________________
conv2d_68 (Conv2D)              (None, 150, 150, 32) 2048        lambda_20[0][0]                  
__________________________________________________________________________________________________
max_pooling2d_68 (MaxPooling2D) (None, 75, 75, 32)   0           conv2d_68[0][0]                  
__________________________________________________________________________________________________
lambda_21 (Lambda)              (None, 75, 75, 7)    0           lambda_20[0][0]                  
__________________________________________________________________________________________________
lambda_22 (Lambda)              (None, 75, 75, 7)    0           lambda_20[0][0]                  
__________________________________________________________________________________________________
lambda_23 (Lambda)              (None, 75, 75, 7)    0           lambda_20[0][0]                  
__________________________________________________________________________________________________
lambda_24 (Lambda)              (None, 75, 75, 7)    0           lambda_20[0][0]                  
__________________________________________________________________________________________________
conv2d_69 (Conv2D)              (None, 75, 75, 32)   9248        max_pooling2d_68[0][0]           
__________________________________________________________________________________________________
conv2d_72 (Conv2D)              (None, 75, 75, 32)   2048        lambda_21[0][0]                  
__________________________________________________________________________________________________
conv2d_75 (Conv2D)              (None, 75, 75, 32)   2048        lambda_22[0][0]                  
__________________________________________________________________________________________________
conv2d_78 (Conv2D)              (None, 75, 75, 32)   2048        lambda_23[0][0]                  
__________________________________________________________________________________________________
conv2d_81 (Conv2D)              (None, 75, 75, 32)   2048        lambda_24[0][0]                  
__________________________________________________________________________________________________
max_pooling2d_69 (MaxPooling2D) (None, 38, 38, 32)   0           conv2d_69[0][0]                  
__________________________________________________________________________________________________
max_pooling2d_72 (MaxPooling2D) (None, 38, 38, 32)   0           conv2d_72[0][0]                  
__________________________________________________________________________________________________
max_pooling2d_75 (MaxPooling2D) (None, 38, 38, 32)   0           conv2d_75[0][0]                  
__________________________________________________________________________________________________
max_pooling2d_78 (MaxPooling2D) (None, 38, 38, 32)   0           conv2d_78[0][0]                  
__________________________________________________________________________________________________
max_pooling2d_81 (MaxPooling2D) (None, 38, 38, 32)   0           conv2d_81[0][0]                  
__________________________________________________________________________________________________
conv2d_70 (Conv2D)              (None, 38, 38, 64)   18496       max_pooling2d_69[0][0]           
__________________________________________________________________________________________________
conv2d_73 (Conv2D)              (None, 38, 38, 64)   18496       max_pooling2d_72[0][0]           
__________________________________________________________________________________________________
conv2d_76 (Conv2D)              (None, 38, 38, 64)   18496       max_pooling2d_75[0][0]           
__________________________________________________________________________________________________
conv2d_79 (Conv2D)              (None, 38, 38, 64)   18496       max_pooling2d_78[0][0]           
__________________________________________________________________________________________________
conv2d_82 (Conv2D)              (None, 38, 38, 64)   18496       max_pooling2d_81[0][0]           
__________________________________________________________________________________________________
max_pooling2d_70 (MaxPooling2D) (None, 19, 19, 64)   0           conv2d_70[0][0]                  
__________________________________________________________________________________________________
max_pooling2d_73 (MaxPooling2D) (None, 19, 19, 64)   0           conv2d_73[0][0]                  
__________________________________________________________________________________________________
max_pooling2d_76 (MaxPooling2D) (None, 19, 19, 64)   0           conv2d_76[0][0]                  
__________________________________________________________________________________________________
max_pooling2d_79 (MaxPooling2D) (None, 19, 19, 64)   0           conv2d_79[0][0]                  
__________________________________________________________________________________________________
max_pooling2d_82 (MaxPooling2D) (None, 19, 19, 64)   0           conv2d_82[0][0]                  
__________________________________________________________________________________________________
conv2d_71 (Conv2D)              (None, 19, 19, 128)  73856       max_pooling2d_70[0][0]           
__________________________________________________________________________________________________
conv2d_74 (Conv2D)              (None, 19, 19, 128)  73856       max_pooling2d_73[0][0]           
__________________________________________________________________________________________________
conv2d_77 (Conv2D)              (None, 19, 19, 128)  73856       max_pooling2d_76[0][0]           
__________________________________________________________________________________________________
conv2d_80 (Conv2D)              (None, 19, 19, 128)  73856       max_pooling2d_79[0][0]           
__________________________________________________________________________________________________
conv2d_83 (Conv2D)              (None, 19, 19, 128)  73856       max_pooling2d_82[0][0]           
__________________________________________________________________________________________________
max_pooling2d_71 (MaxPooling2D) (None, 10, 10, 128)  0           conv2d_71[0][0]                  
__________________________________________________________________________________________________
max_pooling2d_74 (MaxPooling2D) (None, 10, 10, 128)  0           conv2d_74[0][0]                  
__________________________________________________________________________________________________
max_pooling2d_77 (MaxPooling2D) (None, 10, 10, 128)  0           conv2d_77[0][0]                  
__________________________________________________________________________________________________
max_pooling2d_80 (MaxPooling2D) (None, 10, 10, 128)  0           conv2d_80[0][0]                  
__________________________________________________________________________________________________
max_pooling2d_83 (MaxPooling2D) (None, 10, 10, 128)  0           conv2d_83[0][0]                  
__________________________________________________________________________________________________
concatenate_4 (Concatenate)     (None, 10, 10, 640)  0           max_pooling2d_71[0][0]           
                                                                 max_pooling2d_74[0][0]           
                                                                 max_pooling2d_77[0][0]           
                                                                 max_pooling2d_80[0][0]           
                                                                 max_pooling2d_83[0][0]           
__________________________________________________________________________________________________
flatten_164 (Flatten)           (None, 64000)        0           concatenate_4[0][0]              
==================================================================================================
Total params: 481,248
Trainable params: 481,248
Non-trainable params: 0
__________________________________________________________________________________________________
get cnn model
(1052, 64000)
[  0.        202.90686     0.        113.44988   169.32585   218.88249
…
