program start
seed set
[PhysicalDevice(name='/physical_device:GPU:0', device_type='GPU')]
Model: "model_98"
__________________________________________________________________________________________________
Layer (type)                    Output Shape         Param #     Connected to                     
==================================================================================================
input_50 (InputLayer)           [(None, 150, 150, 7) 0                                            
__________________________________________________________________________________________________
lambda_245 (Lambda)             (None, 150, 150, 7)  0           input_50[0][0]                   
__________________________________________________________________________________________________
conv2d_833 (Conv2D)             (None, 150, 150, 32) 2048        lambda_245[0][0]                 
__________________________________________________________________________________________________
max_pooling2d_833 (MaxPooling2D (None, 75, 75, 32)   0           conv2d_833[0][0]                 
__________________________________________________________________________________________________
lambda_246 (Lambda)             (None, 75, 75, 7)    0           lambda_245[0][0]                 
__________________________________________________________________________________________________
lambda_247 (Lambda)             (None, 75, 75, 7)    0           lambda_245[0][0]                 
__________________________________________________________________________________________________
lambda_248 (Lambda)             (None, 75, 75, 7)    0           lambda_245[0][0]                 
__________________________________________________________________________________________________
lambda_249 (Lambda)             (None, 75, 75, 7)    0           lambda_245[0][0]                 
__________________________________________________________________________________________________
conv2d_834 (Conv2D)             (None, 75, 75, 32)   9248        max_pooling2d_833[0][0]          
__________________________________________________________________________________________________
conv2d_837 (Conv2D)             (None, 75, 75, 32)   2048        lambda_246[0][0]                 
__________________________________________________________________________________________________
conv2d_840 (Conv2D)             (None, 75, 75, 32)   2048        lambda_247[0][0]                 
__________________________________________________________________________________________________
conv2d_843 (Conv2D)             (None, 75, 75, 32)   2048        lambda_248[0][0]                 
__________________________________________________________________________________________________
conv2d_846 (Conv2D)             (None, 75, 75, 32)   2048        lambda_249[0][0]                 
__________________________________________________________________________________________________
max_pooling2d_834 (MaxPooling2D (None, 38, 38, 32)   0           conv2d_834[0][0]                 
__________________________________________________________________________________________________
max_pooling2d_837 (MaxPooling2D (None, 38, 38, 32)   0           conv2d_837[0][0]                 
__________________________________________________________________________________________________
max_pooling2d_840 (MaxPooling2D (None, 38, 38, 32)   0           conv2d_840[0][0]                 
__________________________________________________________________________________________________
max_pooling2d_843 (MaxPooling2D (None, 38, 38, 32)   0           conv2d_843[0][0]                 
__________________________________________________________________________________________________
max_pooling2d_846 (MaxPooling2D (None, 38, 38, 32)   0           conv2d_846[0][0]                 
__________________________________________________________________________________________________
conv2d_835 (Conv2D)             (None, 38, 38, 64)   18496       max_pooling2d_834[0][0]          
__________________________________________________________________________________________________
conv2d_838 (Conv2D)             (None, 38, 38, 64)   18496       max_pooling2d_837[0][0]          
__________________________________________________________________________________________________
conv2d_841 (Conv2D)             (None, 38, 38, 64)   18496       max_pooling2d_840[0][0]          
__________________________________________________________________________________________________
conv2d_844 (Conv2D)             (None, 38, 38, 64)   18496       max_pooling2d_843[0][0]          
__________________________________________________________________________________________________
conv2d_847 (Conv2D)             (None, 38, 38, 64)   18496       max_pooling2d_846[0][0]          
__________________________________________________________________________________________________
max_pooling2d_835 (MaxPooling2D (None, 19, 19, 64)   0           conv2d_835[0][0]                 
__________________________________________________________________________________________________
max_pooling2d_838 (MaxPooling2D (None, 19, 19, 64)   0           conv2d_838[0][0]                 
__________________________________________________________________________________________________
max_pooling2d_841 (MaxPooling2D (None, 19, 19, 64)   0           conv2d_841[0][0]                 
__________________________________________________________________________________________________
max_pooling2d_844 (MaxPooling2D (None, 19, 19, 64)   0           conv2d_844[0][0]                 
__________________________________________________________________________________________________
max_pooling2d_847 (MaxPooling2D (None, 19, 19, 64)   0           conv2d_847[0][0]                 
__________________________________________________________________________________________________
conv2d_836 (Conv2D)             (None, 19, 19, 128)  73856       max_pooling2d_835[0][0]          
__________________________________________________________________________________________________
conv2d_839 (Conv2D)             (None, 19, 19, 128)  73856       max_pooling2d_838[0][0]          
__________________________________________________________________________________________________
conv2d_842 (Conv2D)             (None, 19, 19, 128)  73856       max_pooling2d_841[0][0]          
__________________________________________________________________________________________________
conv2d_845 (Conv2D)             (None, 19, 19, 128)  73856       max_pooling2d_844[0][0]          
__________________________________________________________________________________________________
conv2d_848 (Conv2D)             (None, 19, 19, 128)  73856       max_pooling2d_847[0][0]          
__________________________________________________________________________________________________
max_pooling2d_836 (MaxPooling2D (None, 10, 10, 128)  0           conv2d_836[0][0]                 
__________________________________________________________________________________________________
max_pooling2d_839 (MaxPooling2D (None, 10, 10, 128)  0           conv2d_839[0][0]                 
__________________________________________________________________________________________________
max_pooling2d_842 (MaxPooling2D (None, 10, 10, 128)  0           conv2d_842[0][0]                 
__________________________________________________________________________________________________
max_pooling2d_845 (MaxPooling2D (None, 10, 10, 128)  0           conv2d_845[0][0]                 
__________________________________________________________________________________________________
max_pooling2d_848 (MaxPooling2D (None, 10, 10, 128)  0           conv2d_848[0][0]                 
__________________________________________________________________________________________________
concatenate_49 (Concatenate)    (None, 10, 10, 640)  0           max_pooling2d_836[0][0]          
                                                                 max_pooling2d_839[0][0]          
                                                                 max_pooling2d_842[0][0]          
                                                                 max_pooling2d_845[0][0]          
                                                                 max_pooling2d_848[0][0]          
__________________________________________________________________________________________________
flatten_2009 (Flatten)          (None, 64000)        0           concatenate_49[0][0]             
__________________________________________________________________________________________________
dense_147 (Dense)               (None, 1024)         65537024    flatten_2009[0][0]               
__________________________________________________________________________________________________
dropout_98 (Dropout)            (None, 1024)         0           dense_147[0][0]                  
__________________________________________________________________________________________________
dense_148 (Dense)               (None, 1024)         1049600     dropout_98[0][0]                 
__________________________________________________________________________________________________
dropout_99 (Dropout)            (None, 1024)         0           dense_148[0][0]                  
__________________________________________________________________________________________________
dense_149 (Dense)               (None, 5)            5125        dropout_99[0][0]                 
==================================================================================================
Total params: 67,072,997
Trainable params: 67,072,997
Non-trainable params: 0
__________________________________________________________________________________________________
start loading dataset ...
load "Big" complete
load "Long" complete
load "Mitotic" complete
…
avg': {'precision': 0.7725224208498856, 'recall': 0.7124859159105734, 'f1-score': 0.6885250730198713, 'support': 260.0}, 'weighted avg': {'precision': 0.7691441734727894, 'recall': 0.7269230769230769, 'f1-score': 0.6904378489398942, 'support': 260.0}}
Model: "model_99"
__________________________________________________________________________________________________
Layer (type)                    Output Shape         Param #     Connected to                     
==================================================================================================
input_50 (InputLayer)           [(None, 150, 150, 7) 0                                            
__________________________________________________________________________________________________
lambda_245 (Lambda)             (None, 150, 150, 7)  0           input_50[0][0]                   
__________________________________________________________________________________________________
conv2d_833 (Conv2D)             (None, 150, 150, 32) 2048        lambda_245[0][0]                 
__________________________________________________________________________________________________
max_pooling2d_833 (MaxPooling2D (None, 75, 75, 32)   0           conv2d_833[0][0]                 
__________________________________________________________________________________________________
lambda_246 (Lambda)             (None, 75, 75, 7)    0           lambda_245[0][0]                 
__________________________________________________________________________________________________
lambda_247 (Lambda)             (None, 75, 75, 7)    0           lambda_245[0][0]                 
__________________________________________________________________________________________________
lambda_248 (Lambda)             (None, 75, 75, 7)    0           lambda_245[0][0]                 
__________________________________________________________________________________________________
lambda_249 (Lambda)             (None, 75, 75, 7)    0           lambda_245[0][0]                 
__________________________________________________________________________________________________
conv2d_834 (Conv2D)             (None, 75, 75, 32)   9248        max_pooling2d_833[0][0]          
__________________________________________________________________________________________________
conv2d_837 (Conv2D)             (None, 75, 75, 32)   2048        lambda_246[0][0]                 
__________________________________________________________________________________________________
conv2d_840 (Conv2D)             (None, 75, 75, 32)   2048        lambda_247[0][0]                 
__________________________________________________________________________________________________
conv2d_843 (Conv2D)             (None, 75, 75, 32)   2048        lambda_248[0][0]                 
__________________________________________________________________________________________________
conv2d_846 (Conv2D)             (None, 75, 75, 32)   2048        lambda_249[0][0]                 
__________________________________________________________________________________________________
max_pooling2d_834 (MaxPooling2D (None, 38, 38, 32)   0           conv2d_834[0][0]                 
__________________________________________________________________________________________________
max_pooling2d_837 (MaxPooling2D (None, 38, 38, 32)   0           conv2d_837[0][0]                 
__________________________________________________________________________________________________
max_pooling2d_840 (MaxPooling2D (None, 38, 38, 32)   0           conv2d_840[0][0]                 
__________________________________________________________________________________________________
max_pooling2d_843 (MaxPooling2D (None, 38, 38, 32)   0           conv2d_843[0][0]                 
__________________________________________________________________________________________________
max_pooling2d_846 (MaxPooling2D (None, 38, 38, 32)   0           conv2d_846[0][0]                 
__________________________________________________________________________________________________
conv2d_835 (Conv2D)             (None, 38, 38, 64)   18496       max_pooling2d_834[0][0]          
__________________________________________________________________________________________________
conv2d_838 (Conv2D)             (None, 38, 38, 64)   18496       max_pooling2d_837[0][0]          
__________________________________________________________________________________________________
conv2d_841 (Conv2D)             (None, 38, 38, 64)   18496       max_pooling2d_840[0][0]          
__________________________________________________________________________________________________
conv2d_844 (Conv2D)             (None, 38, 38, 64)   18496       max_pooling2d_843[0][0]          
__________________________________________________________________________________________________
conv2d_847 (Conv2D)             (None, 38, 38, 64)   18496       max_pooling2d_846[0][0]          
__________________________________________________________________________________________________
max_pooling2d_835 (MaxPooling2D (None, 19, 19, 64)   0           conv2d_835[0][0]                 
__________________________________________________________________________________________________
max_pooling2d_838 (MaxPooling2D (None, 19, 19, 64)   0           conv2d_838[0][0]                 
__________________________________________________________________________________________________
max_pooling2d_841 (MaxPooling2D (None, 19, 19, 64)   0           conv2d_841[0][0]                 
__________________________________________________________________________________________________
max_pooling2d_844 (MaxPooling2D (None, 19, 19, 64)   0           conv2d_844[0][0]                 
__________________________________________________________________________________________________
max_pooling2d_847 (MaxPooling2D (None, 19, 19, 64)   0           conv2d_847[0][0]                 
__________________________________________________________________________________________________
conv2d_836 (Conv2D)             (None, 19, 19, 128)  73856       max_pooling2d_835[0][0]          
__________________________________________________________________________________________________
conv2d_839 (Conv2D)             (None, 19, 19, 128)  73856       max_pooling2d_838[0][0]          
__________________________________________________________________________________________________
conv2d_842 (Conv2D)             (None, 19, 19, 128)  73856       max_pooling2d_841[0][0]          
__________________________________________________________________________________________________
conv2d_845 (Conv2D)             (None, 19, 19, 128)  73856       max_pooling2d_844[0][0]          
__________________________________________________________________________________________________
conv2d_848 (Conv2D)             (None, 19, 19, 128)  73856       max_pooling2d_847[0][0]          
__________________________________________________________________________________________________
max_pooling2d_836 (MaxPooling2D (None, 10, 10, 128)  0           conv2d_836[0][0]                 
__________________________________________________________________________________________________
max_pooling2d_839 (MaxPooling2D (None, 10, 10, 128)  0           conv2d_839[0][0]                 
__________________________________________________________________________________________________
max_pooling2d_842 (MaxPooling2D (None, 10, 10, 128)  0           conv2d_842[0][0]                 
__________________________________________________________________________________________________
max_pooling2d_845 (MaxPooling2D (None, 10, 10, 128)  0           conv2d_845[0][0]                 
__________________________________________________________________________________________________
max_pooling2d_848 (MaxPooling2D (None, 10, 10, 128)  0           conv2d_848[0][0]                 
__________________________________________________________________________________________________
concatenate_49 (Concatenate)    (None, 10, 10, 640)  0           max_pooling2d_836[0][0]          
                                                                 max_pooling2d_839[0][0]          
                                                                 max_pooling2d_842[0][0]          
                                                                 max_pooling2d_845[0][0]          
                                                                 max_pooling2d_848[0][0]          
__________________________________________________________________________________________________
flatten_2009 (Flatten)          (None, 64000)        0           concatenate_49[0][0]             
==================================================================================================
Total params: 481,248
Trainable params: 481,248
Non-trainable params: 0
__________________________________________________________________________________________________
get cnn model
(1052, 64000)
[ 51.376427   0.       173.75034   30.0287    30.7471    45.886246
…
