program start
seed set
[PhysicalDevice(name='/physical_device:GPU:0', device_type='GPU')]
Model: "model_100"
__________________________________________________________________________________________________
Layer (type)                    Output Shape         Param #     Connected to                     
==================================================================================================
input_51 (InputLayer)           [(None, 150, 150, 7) 0                                            
__________________________________________________________________________________________________
lambda_250 (Lambda)             (None, 150, 150, 7)  0           input_51[0][0]                   
__________________________________________________________________________________________________
conv2d_850 (Conv2D)             (None, 150, 150, 32) 2048        lambda_250[0][0]                 
__________________________________________________________________________________________________
max_pooling2d_850 (MaxPooling2D (None, 75, 75, 32)   0           conv2d_850[0][0]                 
__________________________________________________________________________________________________
lambda_251 (Lambda)             (None, 75, 75, 7)    0           lambda_250[0][0]                 
__________________________________________________________________________________________________
lambda_252 (Lambda)             (None, 75, 75, 7)    0           lambda_250[0][0]                 
__________________________________________________________________________________________________
lambda_253 (Lambda)             (None, 75, 75, 7)    0           lambda_250[0][0]                 
__________________________________________________________________________________________________
lambda_254 (Lambda)             (None, 75, 75, 7)    0           lambda_250[0][0]                 
__________________________________________________________________________________________________
conv2d_851 (Conv2D)             (None, 75, 75, 32)   9248        max_pooling2d_850[0][0]          
__________________________________________________________________________________________________
conv2d_854 (Conv2D)             (None, 75, 75, 32)   2048        lambda_251[0][0]                 
__________________________________________________________________________________________________
conv2d_857 (Conv2D)             (None, 75, 75, 32)   2048        lambda_252[0][0]                 
__________________________________________________________________________________________________
conv2d_860 (Conv2D)             (None, 75, 75, 32)   2048        lambda_253[0][0]                 
__________________________________________________________________________________________________
conv2d_863 (Conv2D)             (None, 75, 75, 32)   2048        lambda_254[0][0]                 
__________________________________________________________________________________________________
max_pooling2d_851 (MaxPooling2D (None, 38, 38, 32)   0           conv2d_851[0][0]                 
__________________________________________________________________________________________________
max_pooling2d_854 (MaxPooling2D (None, 38, 38, 32)   0           conv2d_854[0][0]                 
__________________________________________________________________________________________________
max_pooling2d_857 (MaxPooling2D (None, 38, 38, 32)   0           conv2d_857[0][0]                 
__________________________________________________________________________________________________
max_pooling2d_860 (MaxPooling2D (None, 38, 38, 32)   0           conv2d_860[0][0]                 
__________________________________________________________________________________________________
max_pooling2d_863 (MaxPooling2D (None, 38, 38, 32)   0           conv2d_863[0][0]                 
__________________________________________________________________________________________________
conv2d_852 (Conv2D)             (None, 38, 38, 64)   18496       max_pooling2d_851[0][0]          
__________________________________________________________________________________________________
conv2d_855 (Conv2D)             (None, 38, 38, 64)   18496       max_pooling2d_854[0][0]          
__________________________________________________________________________________________________
conv2d_858 (Conv2D)             (None, 38, 38, 64)   18496       max_pooling2d_857[0][0]          
__________________________________________________________________________________________________
conv2d_861 (Conv2D)             (None, 38, 38, 64)   18496       max_pooling2d_860[0][0]          
__________________________________________________________________________________________________
conv2d_864 (Conv2D)             (None, 38, 38, 64)   18496       max_pooling2d_863[0][0]          
__________________________________________________________________________________________________
max_pooling2d_852 (MaxPooling2D (None, 19, 19, 64)   0           conv2d_852[0][0]                 
__________________________________________________________________________________________________
max_pooling2d_855 (MaxPooling2D (None, 19, 19, 64)   0           conv2d_855[0][0]                 
__________________________________________________________________________________________________
max_pooling2d_858 (MaxPooling2D (None, 19, 19, 64)   0           conv2d_858[0][0]                 
__________________________________________________________________________________________________
max_pooling2d_861 (MaxPooling2D (None, 19, 19, 64)   0           conv2d_861[0][0]                 
__________________________________________________________________________________________________
max_pooling2d_864 (MaxPooling2D (None, 19, 19, 64)   0           conv2d_864[0][0]                 
__________________________________________________________________________________________________
conv2d_853 (Conv2D)             (None, 19, 19, 128)  73856       max_pooling2d_852[0][0]          
__________________________________________________________________________________________________
conv2d_856 (Conv2D)             (None, 19, 19, 128)  73856       max_pooling2d_855[0][0]          
__________________________________________________________________________________________________
conv2d_859 (Conv2D)             (None, 19, 19, 128)  73856       max_pooling2d_858[0][0]          
__________________________________________________________________________________________________
conv2d_862 (Conv2D)             (None, 19, 19, 128)  73856       max_pooling2d_861[0][0]          
__________________________________________________________________________________________________
conv2d_865 (Conv2D)             (None, 19, 19, 128)  73856       max_pooling2d_864[0][0]          
__________________________________________________________________________________________________
max_pooling2d_853 (MaxPooling2D (None, 10, 10, 128)  0           conv2d_853[0][0]                 
__________________________________________________________________________________________________
max_pooling2d_856 (MaxPooling2D (None, 10, 10, 128)  0           conv2d_856[0][0]                 
__________________________________________________________________________________________________
max_pooling2d_859 (MaxPooling2D (None, 10, 10, 128)  0           conv2d_859[0][0]                 
__________________________________________________________________________________________________
max_pooling2d_862 (MaxPooling2D (None, 10, 10, 128)  0           conv2d_862[0][0]                 
__________________________________________________________________________________________________
max_pooling2d_865 (MaxPooling2D (None, 10, 10, 128)  0           conv2d_865[0][0]                 
__________________________________________________________________________________________________
concatenate_50 (Concatenate)    (None, 10, 10, 640)  0           max_pooling2d_853[0][0]          
                                                                 max_pooling2d_856[0][0]          
                                                                 max_pooling2d_859[0][0]          
                                                                 max_pooling2d_862[0][0]          
                                                                 max_pooling2d_865[0][0]          
__________________________________________________________________________________________________
flatten_2050 (Flatten)          (None, 64000)        0           concatenate_50[0][0]             
__________________________________________________________________________________________________
dense_150 (Dense)               (None, 1024)         65537024    flatten_2050[0][0]               
__________________________________________________________________________________________________
dropout_100 (Dropout)           (None, 1024)         0           dense_150[0][0]                  
__________________________________________________________________________________________________
dense_151 (Dense)               (None, 1024)         1049600     dropout_100[0][0]                
__________________________________________________________________________________________________
dropout_101 (Dropout)           (None, 1024)         0           dense_151[0][0]                  
__________________________________________________________________________________________________
dense_152 (Dense)               (None, 5)            5125        dropout_101[0][0]                
==================================================================================================
Total params: 67,072,997
Trainable params: 67,072,997
Non-trainable params: 0
__________________________________________________________________________________________________
start loading dataset ...
load "Big" complete
load "Long" complete
load "Mitotic" complete
…
avg': {'precision': 0.7716348012889366, 'recall': 0.6945205479452055, 'f1-score': 0.6080156119342301, 'support': 260.0}, 'weighted avg': {'precision': 0.7944711228621003, 'recall': 0.676923076923077, 'f1-score': 0.6058838496078846, 'support': 260.0}}
Model: "model_101"
__________________________________________________________________________________________________
Layer (type)                    Output Shape         Param #     Connected to                     
==================================================================================================
input_51 (InputLayer)           [(None, 150, 150, 7) 0                                            
__________________________________________________________________________________________________
lambda_250 (Lambda)             (None, 150, 150, 7)  0           input_51[0][0]                   
__________________________________________________________________________________________________
conv2d_850 (Conv2D)             (None, 150, 150, 32) 2048        lambda_250[0][0]                 
__________________________________________________________________________________________________
max_pooling2d_850 (MaxPooling2D (None, 75, 75, 32)   0           conv2d_850[0][0]                 
__________________________________________________________________________________________________
lambda_251 (Lambda)             (None, 75, 75, 7)    0           lambda_250[0][0]                 
__________________________________________________________________________________________________
lambda_252 (Lambda)             (None, 75, 75, 7)    0           lambda_250[0][0]                 
__________________________________________________________________________________________________
lambda_253 (Lambda)             (None, 75, 75, 7)    0           lambda_250[0][0]                 
__________________________________________________________________________________________________
lambda_254 (Lambda)             (None, 75, 75, 7)    0           lambda_250[0][0]                 
__________________________________________________________________________________________________
conv2d_851 (Conv2D)             (None, 75, 75, 32)   9248        max_pooling2d_850[0][0]          
__________________________________________________________________________________________________
conv2d_854 (Conv2D)             (None, 75, 75, 32)   2048        lambda_251[0][0]                 
__________________________________________________________________________________________________
conv2d_857 (Conv2D)             (None, 75, 75, 32)   2048        lambda_252[0][0]                 
__________________________________________________________________________________________________
conv2d_860 (Conv2D)             (None, 75, 75, 32)   2048        lambda_253[0][0]                 
__________________________________________________________________________________________________
conv2d_863 (Conv2D)             (None, 75, 75, 32)   2048        lambda_254[0][0]                 
__________________________________________________________________________________________________
max_pooling2d_851 (MaxPooling2D (None, 38, 38, 32)   0           conv2d_851[0][0]                 
__________________________________________________________________________________________________
max_pooling2d_854 (MaxPooling2D (None, 38, 38, 32)   0           conv2d_854[0][0]                 
__________________________________________________________________________________________________
max_pooling2d_857 (MaxPooling2D (None, 38, 38, 32)   0           conv2d_857[0][0]                 
__________________________________________________________________________________________________
max_pooling2d_860 (MaxPooling2D (None, 38, 38, 32)   0           conv2d_860[0][0]                 
__________________________________________________________________________________________________
max_pooling2d_863 (MaxPooling2D (None, 38, 38, 32)   0           conv2d_863[0][0]                 
__________________________________________________________________________________________________
conv2d_852 (Conv2D)             (None, 38, 38, 64)   18496       max_pooling2d_851[0][0]          
__________________________________________________________________________________________________
conv2d_855 (Conv2D)             (None, 38, 38, 64)   18496       max_pooling2d_854[0][0]          
__________________________________________________________________________________________________
conv2d_858 (Conv2D)             (None, 38, 38, 64)   18496       max_pooling2d_857[0][0]          
__________________________________________________________________________________________________
conv2d_861 (Conv2D)             (None, 38, 38, 64)   18496       max_pooling2d_860[0][0]          
__________________________________________________________________________________________________
conv2d_864 (Conv2D)             (None, 38, 38, 64)   18496       max_pooling2d_863[0][0]          
__________________________________________________________________________________________________
max_pooling2d_852 (MaxPooling2D (None, 19, 19, 64)   0           conv2d_852[0][0]                 
__________________________________________________________________________________________________
max_pooling2d_855 (MaxPooling2D (None, 19, 19, 64)   0           conv2d_855[0][0]                 
__________________________________________________________________________________________________
max_pooling2d_858 (MaxPooling2D (None, 19, 19, 64)   0           conv2d_858[0][0]                 
__________________________________________________________________________________________________
max_pooling2d_861 (MaxPooling2D (None, 19, 19, 64)   0           conv2d_861[0][0]                 
__________________________________________________________________________________________________
max_pooling2d_864 (MaxPooling2D (None, 19, 19, 64)   0           conv2d_864[0][0]                 
__________________________________________________________________________________________________
conv2d_853 (Conv2D)             (None, 19, 19, 128)  73856       max_pooling2d_852[0][0]          
__________________________________________________________________________________________________
conv2d_856 (Conv2D)             (None, 19, 19, 128)  73856       max_pooling2d_855[0][0]          
__________________________________________________________________________________________________
conv2d_859 (Conv2D)             (None, 19, 19, 128)  73856       max_pooling2d_858[0][0]          
__________________________________________________________________________________________________
conv2d_862 (Conv2D)             (None, 19, 19, 128)  73856       max_pooling2d_861[0][0]          
__________________________________________________________________________________________________
conv2d_865 (Conv2D)             (None, 19, 19, 128)  73856       max_pooling2d_864[0][0]          
__________________________________________________________________________________________________
max_pooling2d_853 (MaxPooling2D (None, 10, 10, 128)  0           conv2d_853[0][0]                 
__________________________________________________________________________________________________
max_pooling2d_856 (MaxPooling2D (None, 10, 10, 128)  0           conv2d_856[0][0]                 
__________________________________________________________________________________________________
max_pooling2d_859 (MaxPooling2D (None, 10, 10, 128)  0           conv2d_859[0][0]                 
__________________________________________________________________________________________________
max_pooling2d_862 (MaxPooling2D (None, 10, 10, 128)  0           conv2d_862[0][0]                 
__________________________________________________________________________________________________
max_pooling2d_865 (MaxPooling2D (None, 10, 10, 128)  0           conv2d_865[0][0]                 
__________________________________________________________________________________________________
concatenate_50 (Concatenate)    (None, 10, 10, 640)  0           max_pooling2d_853[0][0]          
                                                                 max_pooling2d_856[0][0]          
                                                                 max_pooling2d_859[0][0]          
                                                                 max_pooling2d_862[0][0]          
                                                                 max_pooling2d_865[0][0]          
__________________________________________________________________________________________________
flatten_2050 (Flatten)          (None, 64000)        0           concatenate_50[0][0]             
==================================================================================================
Total params: 481,248
Trainable params: 481,248
Non-trainable params: 0
__________________________________________________________________________________________________
get cnn model
(1052, 64000)
[  0.         0.        80.880226 182.02663  356.9624   143.7484
…
