program start
seed set
[PhysicalDevice(name='/physical_device:GPU:0', device_type='GPU')]
Model: "model_102"
__________________________________________________________________________________________________
Layer (type)                    Output Shape         Param #     Connected to                     
==================================================================================================
input_52 (InputLayer)           [(None, 150, 150, 7) 0                                            
__________________________________________________________________________________________________
lambda_255 (Lambda)             (None, 150, 150, 7)  0           input_52[0][0]                   
__________________________________________________________________________________________________
conv2d_867 (Conv2D)             (None, 150, 150, 32) 2048        lambda_255[0][0]                 
__________________________________________________________________________________________________
max_pooling2d_867 (MaxPooling2D (None, 75, 75, 32)   0           conv2d_867[0][0]                 
__________________________________________________________________________________________________
lambda_256 (Lambda)             (None, 75, 75, 7)    0           lambda_255[0][0]                 
__________________________________________________________________________________________________
lambda_257 (Lambda)             (None, 75, 75, 7)    0           lambda_255[0][0]                 
__________________________________________________________________________________________________
lambda_258 (Lambda)             (None, 75, 75, 7)    0           lambda_255[0][0]                 
__________________________________________________________________________________________________
lambda_259 (Lambda)             (None, 75, 75, 7)    0           lambda_255[0][0]                 
__________________________________________________________________________________________________
conv2d_868 (Conv2D)             (None, 75, 75, 32)   9248        max_pooling2d_867[0][0]          
__________________________________________________________________________________________________
conv2d_871 (Conv2D)             (None, 75, 75, 32)   2048        lambda_256[0][0]                 
__________________________________________________________________________________________________
conv2d_874 (Conv2D)             (None, 75, 75, 32)   2048        lambda_257[0][0]                 
__________________________________________________________________________________________________
conv2d_877 (Conv2D)             (None, 75, 75, 32)   2048        lambda_258[0][0]                 
__________________________________________________________________________________________________
conv2d_880 (Conv2D)             (None, 75, 75, 32)   2048        lambda_259[0][0]                 
__________________________________________________________________________________________________
max_pooling2d_868 (MaxPooling2D (None, 38, 38, 32)   0           conv2d_868[0][0]                 
__________________________________________________________________________________________________
max_pooling2d_871 (MaxPooling2D (None, 38, 38, 32)   0           conv2d_871[0][0]                 
__________________________________________________________________________________________________
max_pooling2d_874 (MaxPooling2D (None, 38, 38, 32)   0           conv2d_874[0][0]                 
__________________________________________________________________________________________________
max_pooling2d_877 (MaxPooling2D (None, 38, 38, 32)   0           conv2d_877[0][0]                 
__________________________________________________________________________________________________
max_pooling2d_880 (MaxPooling2D (None, 38, 38, 32)   0           conv2d_880[0][0]                 
__________________________________________________________________________________________________
conv2d_869 (Conv2D)             (None, 38, 38, 64)   18496       max_pooling2d_868[0][0]          
__________________________________________________________________________________________________
conv2d_872 (Conv2D)             (None, 38, 38, 64)   18496       max_pooling2d_871[0][0]          
__________________________________________________________________________________________________
conv2d_875 (Conv2D)             (None, 38, 38, 64)   18496       max_pooling2d_874[0][0]          
__________________________________________________________________________________________________
conv2d_878 (Conv2D)             (None, 38, 38, 64)   18496       max_pooling2d_877[0][0]          
__________________________________________________________________________________________________
conv2d_881 (Conv2D)             (None, 38, 38, 64)   18496       max_pooling2d_880[0][0]          
__________________________________________________________________________________________________
max_pooling2d_869 (MaxPooling2D (None, 19, 19, 64)   0           conv2d_869[0][0]                 
__________________________________________________________________________________________________
max_pooling2d_872 (MaxPooling2D (None, 19, 19, 64)   0           conv2d_872[0][0]                 
__________________________________________________________________________________________________
max_pooling2d_875 (MaxPooling2D (None, 19, 19, 64)   0           conv2d_875[0][0]                 
__________________________________________________________________________________________________
max_pooling2d_878 (MaxPooling2D (None, 19, 19, 64)   0           conv2d_878[0][0]                 
__________________________________________________________________________________________________
max_pooling2d_881 (MaxPooling2D (None, 19, 19, 64)   0           conv2d_881[0][0]                 
__________________________________________________________________________________________________
conv2d_870 (Conv2D)             (None, 19, 19, 128)  73856       max_pooling2d_869[0][0]          
__________________________________________________________________________________________________
conv2d_873 (Conv2D)             (None, 19, 19, 128)  73856       max_pooling2d_872[0][0]          
__________________________________________________________________________________________________
conv2d_876 (Conv2D)             (None, 19, 19, 128)  73856       max_pooling2d_875[0][0]          
__________________________________________________________________________________________________
conv2d_879 (Conv2D)             (None, 19, 19, 128)  73856       max_pooling2d_878[0][0]          
__________________________________________________________________________________________________
conv2d_882 (Conv2D)             (None, 19, 19, 128)  73856       max_pooling2d_881[0][0]          
__________________________________________________________________________________________________
max_pooling2d_870 (MaxPooling2D (None, 10, 10, 128)  0           conv2d_870[0][0]                 
__________________________________________________________________________________________________
max_pooling2d_873 (MaxPooling2D (None, 10, 10, 128)  0           conv2d_873[0][0]                 
__________________________________________________________________________________________________
max_pooling2d_876 (MaxPooling2D (None, 10, 10, 128)  0           conv2d_876[0][0]                 
__________________________________________________________________________________________________
max_pooling2d_879 (MaxPooling2D (None, 10, 10, 128)  0           conv2d_879[0][0]                 
__________________________________________________________________________________________________
max_pooling2d_882 (MaxPooling2D (None, 10, 10, 128)  0           conv2d_882[0][0]                 
__________________________________________________________________________________________________
concatenate_51 (Concatenate)    (None, 10, 10, 640)  0           max_pooling2d_870[0][0]          
                                                                 max_pooling2d_873[0][0]          
                                                                 max_pooling2d_876[0][0]          
                                                                 max_pooling2d_879[0][0]          
                                                                 max_pooling2d_882[0][0]          
__________________________________________________________________________________________________
flatten_2091 (Flatten)          (None, 64000)        0           concatenate_51[0][0]             
__________________________________________________________________________________________________
dense_153 (Dense)               (None, 1024)         65537024    flatten_2091[0][0]               
__________________________________________________________________________________________________
dropout_102 (Dropout)           (None, 1024)         0           dense_153[0][0]                  
__________________________________________________________________________________________________
dense_154 (Dense)               (None, 1024)         1049600     dropout_102[0][0]                
__________________________________________________________________________________________________
dropout_103 (Dropout)           (None, 1024)         0           dense_154[0][0]                  
__________________________________________________________________________________________________
dense_155 (Dense)               (None, 5)            5125        dropout_103[0][0]                
==================================================================================================
Total params: 67,072,997
Trainable params: 67,072,997
Non-trainable params: 0
__________________________________________________________________________________________________
start loading dataset ...
load "Big" complete
load "Long" complete
load "Mitotic" complete
…
avg': {'precision': 0.7612937819052388, 'recall': 0.7242824527071103, 'f1-score': 0.673546796238323, 'support': 260.0}, 'weighted avg': {'precision': 0.8037123925205881, 'recall': 0.7115384615384616, 'f1-score': 0.6908607873119862, 'support': 260.0}}
Model: "model_103"
__________________________________________________________________________________________________
Layer (type)                    Output Shape         Param #     Connected to                     
==================================================================================================
input_52 (InputLayer)           [(None, 150, 150, 7) 0                                            
__________________________________________________________________________________________________
lambda_255 (Lambda)             (None, 150, 150, 7)  0           input_52[0][0]                   
__________________________________________________________________________________________________
conv2d_867 (Conv2D)             (None, 150, 150, 32) 2048        lambda_255[0][0]                 
__________________________________________________________________________________________________
max_pooling2d_867 (MaxPooling2D (None, 75, 75, 32)   0           conv2d_867[0][0]                 
__________________________________________________________________________________________________
lambda_256 (Lambda)             (None, 75, 75, 7)    0           lambda_255[0][0]                 
__________________________________________________________________________________________________
lambda_257 (Lambda)             (None, 75, 75, 7)    0           lambda_255[0][0]                 
__________________________________________________________________________________________________
lambda_258 (Lambda)             (None, 75, 75, 7)    0           lambda_255[0][0]                 
__________________________________________________________________________________________________
lambda_259 (Lambda)             (None, 75, 75, 7)    0           lambda_255[0][0]                 
__________________________________________________________________________________________________
conv2d_868 (Conv2D)             (None, 75, 75, 32)   9248        max_pooling2d_867[0][0]          
__________________________________________________________________________________________________
conv2d_871 (Conv2D)             (None, 75, 75, 32)   2048        lambda_256[0][0]                 
__________________________________________________________________________________________________
conv2d_874 (Conv2D)             (None, 75, 75, 32)   2048        lambda_257[0][0]                 
__________________________________________________________________________________________________
conv2d_877 (Conv2D)             (None, 75, 75, 32)   2048        lambda_258[0][0]                 
__________________________________________________________________________________________________
conv2d_880 (Conv2D)             (None, 75, 75, 32)   2048        lambda_259[0][0]                 
__________________________________________________________________________________________________
max_pooling2d_868 (MaxPooling2D (None, 38, 38, 32)   0           conv2d_868[0][0]                 
__________________________________________________________________________________________________
max_pooling2d_871 (MaxPooling2D (None, 38, 38, 32)   0           conv2d_871[0][0]                 
__________________________________________________________________________________________________
max_pooling2d_874 (MaxPooling2D (None, 38, 38, 32)   0           conv2d_874[0][0]                 
__________________________________________________________________________________________________
max_pooling2d_877 (MaxPooling2D (None, 38, 38, 32)   0           conv2d_877[0][0]                 
__________________________________________________________________________________________________
max_pooling2d_880 (MaxPooling2D (None, 38, 38, 32)   0           conv2d_880[0][0]                 
__________________________________________________________________________________________________
conv2d_869 (Conv2D)             (None, 38, 38, 64)   18496       max_pooling2d_868[0][0]          
__________________________________________________________________________________________________
conv2d_872 (Conv2D)             (None, 38, 38, 64)   18496       max_pooling2d_871[0][0]          
__________________________________________________________________________________________________
conv2d_875 (Conv2D)             (None, 38, 38, 64)   18496       max_pooling2d_874[0][0]          
__________________________________________________________________________________________________
conv2d_878 (Conv2D)             (None, 38, 38, 64)   18496       max_pooling2d_877[0][0]          
__________________________________________________________________________________________________
conv2d_881 (Conv2D)             (None, 38, 38, 64)   18496       max_pooling2d_880[0][0]          
__________________________________________________________________________________________________
max_pooling2d_869 (MaxPooling2D (None, 19, 19, 64)   0           conv2d_869[0][0]                 
__________________________________________________________________________________________________
max_pooling2d_872 (MaxPooling2D (None, 19, 19, 64)   0           conv2d_872[0][0]                 
__________________________________________________________________________________________________
max_pooling2d_875 (MaxPooling2D (None, 19, 19, 64)   0           conv2d_875[0][0]                 
__________________________________________________________________________________________________
max_pooling2d_878 (MaxPooling2D (None, 19, 19, 64)   0           conv2d_878[0][0]                 
__________________________________________________________________________________________________
max_pooling2d_881 (MaxPooling2D (None, 19, 19, 64)   0           conv2d_881[0][0]                 
__________________________________________________________________________________________________
conv2d_870 (Conv2D)             (None, 19, 19, 128)  73856       max_pooling2d_869[0][0]          
__________________________________________________________________________________________________
conv2d_873 (Conv2D)             (None, 19, 19, 128)  73856       max_pooling2d_872[0][0]          
__________________________________________________________________________________________________
conv2d_876 (Conv2D)             (None, 19, 19, 128)  73856       max_pooling2d_875[0][0]          
__________________________________________________________________________________________________
conv2d_879 (Conv2D)             (None, 19, 19, 128)  73856       max_pooling2d_878[0][0]          
__________________________________________________________________________________________________
conv2d_882 (Conv2D)             (None, 19, 19, 128)  73856       max_pooling2d_881[0][0]          
__________________________________________________________________________________________________
max_pooling2d_870 (MaxPooling2D (None, 10, 10, 128)  0           conv2d_870[0][0]                 
__________________________________________________________________________________________________
max_pooling2d_873 (MaxPooling2D (None, 10, 10, 128)  0           conv2d_873[0][0]                 
__________________________________________________________________________________________________
max_pooling2d_876 (MaxPooling2D (None, 10, 10, 128)  0           conv2d_876[0][0]                 
__________________________________________________________________________________________________
max_pooling2d_879 (MaxPooling2D (None, 10, 10, 128)  0           conv2d_879[0][0]                 
__________________________________________________________________________________________________
max_pooling2d_882 (MaxPooling2D (None, 10, 10, 128)  0           conv2d_882[0][0]                 
__________________________________________________________________________________________________
concatenate_51 (Concatenate)    (None, 10, 10, 640)  0           max_pooling2d_870[0][0]          
                                                                 max_pooling2d_873[0][0]          
                                                                 max_pooling2d_876[0][0]          
                                                                 max_pooling2d_879[0][0]          
                                                                 max_pooling2d_882[0][0]          
__________________________________________________________________________________________________
flatten_2091 (Flatten)          (None, 64000)        0           concatenate_51[0][0]             
==================================================================================================
Total params: 481,248
Trainable params: 481,248
Non-trainable params: 0
__________________________________________________________________________________________________
get cnn model
(1052, 64000)
[ 74.95639   379.47787   140.03252    84.97733   186.25401   113.9525
…
