program start
seed set
[PhysicalDevice(name='/physical_device:GPU:0', device_type='GPU')]
Model: "model_104"
__________________________________________________________________________________________________
Layer (type)                    Output Shape         Param #     Connected to                     
==================================================================================================
input_53 (InputLayer)           [(None, 150, 150, 7) 0                                            
__________________________________________________________________________________________________
lambda_260 (Lambda)             (None, 150, 150, 7)  0           input_53[0][0]                   
__________________________________________________________________________________________________
conv2d_884 (Conv2D)             (None, 150, 150, 32) 2048        lambda_260[0][0]                 
__________________________________________________________________________________________________
max_pooling2d_884 (MaxPooling2D (None, 75, 75, 32)   0           conv2d_884[0][0]                 
__________________________________________________________________________________________________
lambda_261 (Lambda)             (None, 75, 75, 7)    0           lambda_260[0][0]                 
__________________________________________________________________________________________________
lambda_262 (Lambda)             (None, 75, 75, 7)    0           lambda_260[0][0]                 
__________________________________________________________________________________________________
lambda_263 (Lambda)             (None, 75, 75, 7)    0           lambda_260[0][0]                 
__________________________________________________________________________________________________
lambda_264 (Lambda)             (None, 75, 75, 7)    0           lambda_260[0][0]                 
__________________________________________________________________________________________________
conv2d_885 (Conv2D)             (None, 75, 75, 32)   9248        max_pooling2d_884[0][0]          
__________________________________________________________________________________________________
conv2d_888 (Conv2D)             (None, 75, 75, 32)   2048        lambda_261[0][0]                 
__________________________________________________________________________________________________
conv2d_891 (Conv2D)             (None, 75, 75, 32)   2048        lambda_262[0][0]                 
__________________________________________________________________________________________________
conv2d_894 (Conv2D)             (None, 75, 75, 32)   2048        lambda_263[0][0]                 
__________________________________________________________________________________________________
conv2d_897 (Conv2D)             (None, 75, 75, 32)   2048        lambda_264[0][0]                 
__________________________________________________________________________________________________
max_pooling2d_885 (MaxPooling2D (None, 38, 38, 32)   0           conv2d_885[0][0]                 
__________________________________________________________________________________________________
max_pooling2d_888 (MaxPooling2D (None, 38, 38, 32)   0           conv2d_888[0][0]                 
__________________________________________________________________________________________________
max_pooling2d_891 (MaxPooling2D (None, 38, 38, 32)   0           conv2d_891[0][0]                 
__________________________________________________________________________________________________
max_pooling2d_894 (MaxPooling2D (None, 38, 38, 32)   0           conv2d_894[0][0]                 
__________________________________________________________________________________________________
max_pooling2d_897 (MaxPooling2D (None, 38, 38, 32)   0           conv2d_897[0][0]                 
__________________________________________________________________________________________________
conv2d_886 (Conv2D)             (None, 38, 38, 64)   18496       max_pooling2d_885[0][0]          
__________________________________________________________________________________________________
conv2d_889 (Conv2D)             (None, 38, 38, 64)   18496       max_pooling2d_888[0][0]          
__________________________________________________________________________________________________
conv2d_892 (Conv2D)             (None, 38, 38, 64)   18496       max_pooling2d_891[0][0]          
__________________________________________________________________________________________________
conv2d_895 (Conv2D)             (None, 38, 38, 64)   18496       max_pooling2d_894[0][0]          
__________________________________________________________________________________________________
conv2d_898 (Conv2D)             (None, 38, 38, 64)   18496       max_pooling2d_897[0][0]          
__________________________________________________________________________________________________
max_pooling2d_886 (MaxPooling2D (None, 19, 19, 64)   0           conv2d_886[0][0]                 
__________________________________________________________________________________________________
max_pooling2d_889 (MaxPooling2D (None, 19, 19, 64)   0           conv2d_889[0][0]                 
__________________________________________________________________________________________________
max_pooling2d_892 (MaxPooling2D (None, 19, 19, 64)   0           conv2d_892[0][0]                 
__________________________________________________________________________________________________
max_pooling2d_895 (MaxPooling2D (None, 19, 19, 64)   0           conv2d_895[0][0]                 
__________________________________________________________________________________________________
max_pooling2d_898 (MaxPooling2D (None, 19, 19, 64)   0           conv2d_898[0][0]                 
__________________________________________________________________________________________________
conv2d_887 (Conv2D)             (None, 19, 19, 128)  73856       max_pooling2d_886[0][0]          
__________________________________________________________________________________________________
conv2d_890 (Conv2D)             (None, 19, 19, 128)  73856       max_pooling2d_889[0][0]          
__________________________________________________________________________________________________
conv2d_893 (Conv2D)             (None, 19, 19, 128)  73856       max_pooling2d_892[0][0]          
__________________________________________________________________________________________________
conv2d_896 (Conv2D)             (None, 19, 19, 128)  73856       max_pooling2d_895[0][0]          
__________________________________________________________________________________________________
conv2d_899 (Conv2D)             (None, 19, 19, 128)  73856       max_pooling2d_898[0][0]          
__________________________________________________________________________________________________
max_pooling2d_887 (MaxPooling2D (None, 10, 10, 128)  0           conv2d_887[0][0]                 
__________________________________________________________________________________________________
max_pooling2d_890 (MaxPooling2D (None, 10, 10, 128)  0           conv2d_890[0][0]                 
__________________________________________________________________________________________________
max_pooling2d_893 (MaxPooling2D (None, 10, 10, 128)  0           conv2d_893[0][0]                 
__________________________________________________________________________________________________
max_pooling2d_896 (MaxPooling2D (None, 10, 10, 128)  0           conv2d_896[0][0]                 
__________________________________________________________________________________________________
max_pooling2d_899 (MaxPooling2D (None, 10, 10, 128)  0           conv2d_899[0][0]                 
__________________________________________________________________________________________________
concatenate_52 (Concatenate)    (None, 10, 10, 640)  0           max_pooling2d_887[0][0]          
                                                                 max_pooling2d_890[0][0]          
                                                                 max_pooling2d_893[0][0]          
                                                                 max_pooling2d_896[0][0]          
                                                                 max_pooling2d_899[0][0]          
__________________________________________________________________________________________________
flatten_2132 (Flatten)          (None, 64000)        0           concatenate_52[0][0]             
__________________________________________________________________________________________________
dense_156 (Dense)               (None, 1024)         65537024    flatten_2132[0][0]               
__________________________________________________________________________________________________
dropout_104 (Dropout)           (None, 1024)         0           dense_156[0][0]                  
__________________________________________________________________________________________________
dense_157 (Dense)               (None, 1024)         1049600     dropout_104[0][0]                
__________________________________________________________________________________________________
dropout_105 (Dropout)           (None, 1024)         0           dense_157[0][0]                  
__________________________________________________________________________________________________
dense_158 (Dense)               (None, 5)            5125        dropout_105[0][0]                
==================================================================================================
Total params: 67,072,997
Trainable params: 67,072,997
Non-trainable params: 0
__________________________________________________________________________________________________
start loading dataset ...
load "Big" complete
load "Long" complete
load "Mitotic" complete
…
avg': {'precision': 0.5685417928528165, 'recall': 0.659996738421396, 'f1-score': 0.5851924633215573, 'support': 260.0}, 'weighted avg': {'precision': 0.5559114813865722, 'recall': 0.6461538461538462, 'f1-score': 0.5690350247542454, 'support': 260.0}}
Model: "model_105"
__________________________________________________________________________________________________
Layer (type)                    Output Shape         Param #     Connected to                     
==================================================================================================
input_53 (InputLayer)           [(None, 150, 150, 7) 0                                            
__________________________________________________________________________________________________
lambda_260 (Lambda)             (None, 150, 150, 7)  0           input_53[0][0]                   
__________________________________________________________________________________________________
conv2d_884 (Conv2D)             (None, 150, 150, 32) 2048        lambda_260[0][0]                 
__________________________________________________________________________________________________
max_pooling2d_884 (MaxPooling2D (None, 75, 75, 32)   0           conv2d_884[0][0]                 
__________________________________________________________________________________________________
lambda_261 (Lambda)             (None, 75, 75, 7)    0           lambda_260[0][0]                 
__________________________________________________________________________________________________
lambda_262 (Lambda)             (None, 75, 75, 7)    0           lambda_260[0][0]                 
__________________________________________________________________________________________________
lambda_263 (Lambda)             (None, 75, 75, 7)    0           lambda_260[0][0]                 
__________________________________________________________________________________________________
lambda_264 (Lambda)             (None, 75, 75, 7)    0           lambda_260[0][0]                 
__________________________________________________________________________________________________
conv2d_885 (Conv2D)             (None, 75, 75, 32)   9248        max_pooling2d_884[0][0]          
__________________________________________________________________________________________________
conv2d_888 (Conv2D)             (None, 75, 75, 32)   2048        lambda_261[0][0]                 
__________________________________________________________________________________________________
conv2d_891 (Conv2D)             (None, 75, 75, 32)   2048        lambda_262[0][0]                 
__________________________________________________________________________________________________
conv2d_894 (Conv2D)             (None, 75, 75, 32)   2048        lambda_263[0][0]                 
__________________________________________________________________________________________________
conv2d_897 (Conv2D)             (None, 75, 75, 32)   2048        lambda_264[0][0]                 
__________________________________________________________________________________________________
max_pooling2d_885 (MaxPooling2D (None, 38, 38, 32)   0           conv2d_885[0][0]                 
__________________________________________________________________________________________________
max_pooling2d_888 (MaxPooling2D (None, 38, 38, 32)   0           conv2d_888[0][0]                 
__________________________________________________________________________________________________
max_pooling2d_891 (MaxPooling2D (None, 38, 38, 32)   0           conv2d_891[0][0]                 
__________________________________________________________________________________________________
max_pooling2d_894 (MaxPooling2D (None, 38, 38, 32)   0           conv2d_894[0][0]                 
__________________________________________________________________________________________________
max_pooling2d_897 (MaxPooling2D (None, 38, 38, 32)   0           conv2d_897[0][0]                 
__________________________________________________________________________________________________
conv2d_886 (Conv2D)             (None, 38, 38, 64)   18496       max_pooling2d_885[0][0]          
__________________________________________________________________________________________________
conv2d_889 (Conv2D)             (None, 38, 38, 64)   18496       max_pooling2d_888[0][0]          
__________________________________________________________________________________________________
conv2d_892 (Conv2D)             (None, 38, 38, 64)   18496       max_pooling2d_891[0][0]          
__________________________________________________________________________________________________
conv2d_895 (Conv2D)             (None, 38, 38, 64)   18496       max_pooling2d_894[0][0]          
__________________________________________________________________________________________________
conv2d_898 (Conv2D)             (None, 38, 38, 64)   18496       max_pooling2d_897[0][0]          
__________________________________________________________________________________________________
max_pooling2d_886 (MaxPooling2D (None, 19, 19, 64)   0           conv2d_886[0][0]                 
__________________________________________________________________________________________________
max_pooling2d_889 (MaxPooling2D (None, 19, 19, 64)   0           conv2d_889[0][0]                 
__________________________________________________________________________________________________
max_pooling2d_892 (MaxPooling2D (None, 19, 19, 64)   0           conv2d_892[0][0]                 
__________________________________________________________________________________________________
max_pooling2d_895 (MaxPooling2D (None, 19, 19, 64)   0           conv2d_895[0][0]                 
__________________________________________________________________________________________________
max_pooling2d_898 (MaxPooling2D (None, 19, 19, 64)   0           conv2d_898[0][0]                 
__________________________________________________________________________________________________
conv2d_887 (Conv2D)             (None, 19, 19, 128)  73856       max_pooling2d_886[0][0]          
__________________________________________________________________________________________________
conv2d_890 (Conv2D)             (None, 19, 19, 128)  73856       max_pooling2d_889[0][0]          
__________________________________________________________________________________________________
conv2d_893 (Conv2D)             (None, 19, 19, 128)  73856       max_pooling2d_892[0][0]          
__________________________________________________________________________________________________
conv2d_896 (Conv2D)             (None, 19, 19, 128)  73856       max_pooling2d_895[0][0]          
__________________________________________________________________________________________________
conv2d_899 (Conv2D)             (None, 19, 19, 128)  73856       max_pooling2d_898[0][0]          
__________________________________________________________________________________________________
max_pooling2d_887 (MaxPooling2D (None, 10, 10, 128)  0           conv2d_887[0][0]                 
__________________________________________________________________________________________________
max_pooling2d_890 (MaxPooling2D (None, 10, 10, 128)  0           conv2d_890[0][0]                 
__________________________________________________________________________________________________
max_pooling2d_893 (MaxPooling2D (None, 10, 10, 128)  0           conv2d_893[0][0]                 
__________________________________________________________________________________________________
max_pooling2d_896 (MaxPooling2D (None, 10, 10, 128)  0           conv2d_896[0][0]                 
__________________________________________________________________________________________________
max_pooling2d_899 (MaxPooling2D (None, 10, 10, 128)  0           conv2d_899[0][0]                 
__________________________________________________________________________________________________
concatenate_52 (Concatenate)    (None, 10, 10, 640)  0           max_pooling2d_887[0][0]          
                                                                 max_pooling2d_890[0][0]          
                                                                 max_pooling2d_893[0][0]          
                                                                 max_pooling2d_896[0][0]          
                                                                 max_pooling2d_899[0][0]          
__________________________________________________________________________________________________
flatten_2132 (Flatten)          (None, 64000)        0           concatenate_52[0][0]             
==================================================================================================
Total params: 481,248
Trainable params: 481,248
Non-trainable params: 0
__________________________________________________________________________________________________
get cnn model
(1052, 64000)
[139.4196    16.845587   0.         0.       116.936104  26.72877
…
