program start
seed set
[PhysicalDevice(name='/physical_device:GPU:0', device_type='GPU')]
Model: "model_106"
__________________________________________________________________________________________________
Layer (type)                    Output Shape         Param #     Connected to                     
==================================================================================================
input_54 (InputLayer)           [(None, 150, 150, 7) 0                                            
__________________________________________________________________________________________________
lambda_265 (Lambda)             (None, 150, 150, 7)  0           input_54[0][0]                   
__________________________________________________________________________________________________
conv2d_901 (Conv2D)             (None, 150, 150, 32) 2048        lambda_265[0][0]                 
__________________________________________________________________________________________________
max_pooling2d_901 (MaxPooling2D (None, 75, 75, 32)   0           conv2d_901[0][0]                 
__________________________________________________________________________________________________
lambda_266 (Lambda)             (None, 75, 75, 7)    0           lambda_265[0][0]                 
__________________________________________________________________________________________________
lambda_267 (Lambda)             (None, 75, 75, 7)    0           lambda_265[0][0]                 
__________________________________________________________________________________________________
lambda_268 (Lambda)             (None, 75, 75, 7)    0           lambda_265[0][0]                 
__________________________________________________________________________________________________
lambda_269 (Lambda)             (None, 75, 75, 7)    0           lambda_265[0][0]                 
__________________________________________________________________________________________________
conv2d_902 (Conv2D)             (None, 75, 75, 32)   9248        max_pooling2d_901[0][0]          
__________________________________________________________________________________________________
conv2d_905 (Conv2D)             (None, 75, 75, 32)   2048        lambda_266[0][0]                 
__________________________________________________________________________________________________
conv2d_908 (Conv2D)             (None, 75, 75, 32)   2048        lambda_267[0][0]                 
__________________________________________________________________________________________________
conv2d_911 (Conv2D)             (None, 75, 75, 32)   2048        lambda_268[0][0]                 
__________________________________________________________________________________________________
conv2d_914 (Conv2D)             (None, 75, 75, 32)   2048        lambda_269[0][0]                 
__________________________________________________________________________________________________
max_pooling2d_902 (MaxPooling2D (None, 38, 38, 32)   0           conv2d_902[0][0]                 
__________________________________________________________________________________________________
max_pooling2d_905 (MaxPooling2D (None, 38, 38, 32)   0           conv2d_905[0][0]                 
__________________________________________________________________________________________________
max_pooling2d_908 (MaxPooling2D (None, 38, 38, 32)   0           conv2d_908[0][0]                 
__________________________________________________________________________________________________
max_pooling2d_911 (MaxPooling2D (None, 38, 38, 32)   0           conv2d_911[0][0]                 
__________________________________________________________________________________________________
max_pooling2d_914 (MaxPooling2D (None, 38, 38, 32)   0           conv2d_914[0][0]                 
__________________________________________________________________________________________________
conv2d_903 (Conv2D)             (None, 38, 38, 64)   18496       max_pooling2d_902[0][0]          
__________________________________________________________________________________________________
conv2d_906 (Conv2D)             (None, 38, 38, 64)   18496       max_pooling2d_905[0][0]          
__________________________________________________________________________________________________
conv2d_909 (Conv2D)             (None, 38, 38, 64)   18496       max_pooling2d_908[0][0]          
__________________________________________________________________________________________________
conv2d_912 (Conv2D)             (None, 38, 38, 64)   18496       max_pooling2d_911[0][0]          
__________________________________________________________________________________________________
conv2d_915 (Conv2D)             (None, 38, 38, 64)   18496       max_pooling2d_914[0][0]          
__________________________________________________________________________________________________
max_pooling2d_903 (MaxPooling2D (None, 19, 19, 64)   0           conv2d_903[0][0]                 
__________________________________________________________________________________________________
max_pooling2d_906 (MaxPooling2D (None, 19, 19, 64)   0           conv2d_906[0][0]                 
__________________________________________________________________________________________________
max_pooling2d_909 (MaxPooling2D (None, 19, 19, 64)   0           conv2d_909[0][0]                 
__________________________________________________________________________________________________
max_pooling2d_912 (MaxPooling2D (None, 19, 19, 64)   0           conv2d_912[0][0]                 
__________________________________________________________________________________________________
max_pooling2d_915 (MaxPooling2D (None, 19, 19, 64)   0           conv2d_915[0][0]                 
__________________________________________________________________________________________________
conv2d_904 (Conv2D)             (None, 19, 19, 128)  73856       max_pooling2d_903[0][0]          
__________________________________________________________________________________________________
conv2d_907 (Conv2D)             (None, 19, 19, 128)  73856       max_pooling2d_906[0][0]          
__________________________________________________________________________________________________
conv2d_910 (Conv2D)             (None, 19, 19, 128)  73856       max_pooling2d_909[0][0]          
__________________________________________________________________________________________________
conv2d_913 (Conv2D)             (None, 19, 19, 128)  73856       max_pooling2d_912[0][0]          
__________________________________________________________________________________________________
conv2d_916 (Conv2D)             (None, 19, 19, 128)  73856       max_pooling2d_915[0][0]          
__________________________________________________________________________________________________
max_pooling2d_904 (MaxPooling2D (None, 10, 10, 128)  0           conv2d_904[0][0]                 
__________________________________________________________________________________________________
max_pooling2d_907 (MaxPooling2D (None, 10, 10, 128)  0           conv2d_907[0][0]                 
__________________________________________________________________________________________________
max_pooling2d_910 (MaxPooling2D (None, 10, 10, 128)  0           conv2d_910[0][0]                 
__________________________________________________________________________________________________
max_pooling2d_913 (MaxPooling2D (None, 10, 10, 128)  0           conv2d_913[0][0]                 
__________________________________________________________________________________________________
max_pooling2d_916 (MaxPooling2D (None, 10, 10, 128)  0           conv2d_916[0][0]                 
__________________________________________________________________________________________________
concatenate_53 (Concatenate)    (None, 10, 10, 640)  0           max_pooling2d_904[0][0]          
                                                                 max_pooling2d_907[0][0]          
                                                                 max_pooling2d_910[0][0]          
                                                                 max_pooling2d_913[0][0]          
                                                                 max_pooling2d_916[0][0]          
__________________________________________________________________________________________________
flatten_2173 (Flatten)          (None, 64000)        0           concatenate_53[0][0]             
__________________________________________________________________________________________________
dense_159 (Dense)               (None, 1024)         65537024    flatten_2173[0][0]               
__________________________________________________________________________________________________
dropout_106 (Dropout)           (None, 1024)         0           dense_159[0][0]                  
__________________________________________________________________________________________________
dense_160 (Dense)               (None, 1024)         1049600     dropout_106[0][0]                
__________________________________________________________________________________________________
dropout_107 (Dropout)           (None, 1024)         0           dense_160[0][0]                  
__________________________________________________________________________________________________
dense_161 (Dense)               (None, 5)            5125        dropout_107[0][0]                
==================================================================================================
Total params: 67,072,997
Trainable params: 67,072,997
Non-trainable params: 0
__________________________________________________________________________________________________
start loading dataset ...
load "Big" complete
load "Long" complete
load "Mitotic" complete
…
           3       0.96      0.86      0.91        56
           4       1.00      0.04      0.07        56

    accuracy                           0.73       260
   macro avg       0.80      0.75      0.67       260
weighted avg       0.82      0.73      0.67       260

Model: "model_107"
__________________________________________________________________________________________________
Layer (type)                    Output Shape         Param #     Connected to                     
==================================================================================================
input_54 (InputLayer)           [(None, 150, 150, 7) 0                                            
__________________________________________________________________________________________________
lambda_265 (Lambda)             (None, 150, 150, 7)  0           input_54[0][0]                   
__________________________________________________________________________________________________
conv2d_901 (Conv2D)             (None, 150, 150, 32) 2048        lambda_265[0][0]                 
__________________________________________________________________________________________________
max_pooling2d_901 (MaxPooling2D (None, 75, 75, 32)   0           conv2d_901[0][0]                 
__________________________________________________________________________________________________
lambda_266 (Lambda)             (None, 75, 75, 7)    0           lambda_265[0][0]                 
__________________________________________________________________________________________________
lambda_267 (Lambda)             (None, 75, 75, 7)    0           lambda_265[0][0]                 
__________________________________________________________________________________________________
lambda_268 (Lambda)             (None, 75, 75, 7)    0           lambda_265[0][0]                 
__________________________________________________________________________________________________
lambda_269 (Lambda)             (None, 75, 75, 7)    0           lambda_265[0][0]                 
__________________________________________________________________________________________________
conv2d_902 (Conv2D)             (None, 75, 75, 32)   9248        max_pooling2d_901[0][0]          
__________________________________________________________________________________________________
conv2d_905 (Conv2D)             (None, 75, 75, 32)   2048        lambda_266[0][0]                 
__________________________________________________________________________________________________
conv2d_908 (Conv2D)             (None, 75, 75, 32)   2048        lambda_267[0][0]                 
__________________________________________________________________________________________________
conv2d_911 (Conv2D)             (None, 75, 75, 32)   2048        lambda_268[0][0]                 
__________________________________________________________________________________________________
conv2d_914 (Conv2D)             (None, 75, 75, 32)   2048        lambda_269[0][0]                 
__________________________________________________________________________________________________
max_pooling2d_902 (MaxPooling2D (None, 38, 38, 32)   0           conv2d_902[0][0]                 
__________________________________________________________________________________________________
max_pooling2d_905 (MaxPooling2D (None, 38, 38, 32)   0           conv2d_905[0][0]                 
__________________________________________________________________________________________________
max_pooling2d_908 (MaxPooling2D (None, 38, 38, 32)   0           conv2d_908[0][0]                 
__________________________________________________________________________________________________
max_pooling2d_911 (MaxPooling2D (None, 38, 38, 32)   0           conv2d_911[0][0]                 
__________________________________________________________________________________________________
max_pooling2d_914 (MaxPooling2D (None, 38, 38, 32)   0           conv2d_914[0][0]                 
__________________________________________________________________________________________________
conv2d_903 (Conv2D)             (None, 38, 38, 64)   18496       max_pooling2d_902[0][0]          
__________________________________________________________________________________________________
conv2d_906 (Conv2D)             (None, 38, 38, 64)   18496       max_pooling2d_905[0][0]          
__________________________________________________________________________________________________
conv2d_909 (Conv2D)             (None, 38, 38, 64)   18496       max_pooling2d_908[0][0]          
__________________________________________________________________________________________________
conv2d_912 (Conv2D)             (None, 38, 38, 64)   18496       max_pooling2d_911[0][0]          
__________________________________________________________________________________________________
conv2d_915 (Conv2D)             (None, 38, 38, 64)   18496       max_pooling2d_914[0][0]          
__________________________________________________________________________________________________
max_pooling2d_903 (MaxPooling2D (None, 19, 19, 64)   0           conv2d_903[0][0]                 
__________________________________________________________________________________________________
max_pooling2d_906 (MaxPooling2D (None, 19, 19, 64)   0           conv2d_906[0][0]                 
__________________________________________________________________________________________________
max_pooling2d_909 (MaxPooling2D (None, 19, 19, 64)   0           conv2d_909[0][0]                 
__________________________________________________________________________________________________
max_pooling2d_912 (MaxPooling2D (None, 19, 19, 64)   0           conv2d_912[0][0]                 
__________________________________________________________________________________________________
max_pooling2d_915 (MaxPooling2D (None, 19, 19, 64)   0           conv2d_915[0][0]                 
__________________________________________________________________________________________________
conv2d_904 (Conv2D)             (None, 19, 19, 128)  73856       max_pooling2d_903[0][0]          
__________________________________________________________________________________________________
conv2d_907 (Conv2D)             (None, 19, 19, 128)  73856       max_pooling2d_906[0][0]          
__________________________________________________________________________________________________
conv2d_910 (Conv2D)             (None, 19, 19, 128)  73856       max_pooling2d_909[0][0]          
__________________________________________________________________________________________________
conv2d_913 (Conv2D)             (None, 19, 19, 128)  73856       max_pooling2d_912[0][0]          
__________________________________________________________________________________________________
conv2d_916 (Conv2D)             (None, 19, 19, 128)  73856       max_pooling2d_915[0][0]          
__________________________________________________________________________________________________
max_pooling2d_904 (MaxPooling2D (None, 10, 10, 128)  0           conv2d_904[0][0]                 
__________________________________________________________________________________________________
max_pooling2d_907 (MaxPooling2D (None, 10, 10, 128)  0           conv2d_907[0][0]                 
__________________________________________________________________________________________________
max_pooling2d_910 (MaxPooling2D (None, 10, 10, 128)  0           conv2d_910[0][0]                 
__________________________________________________________________________________________________
max_pooling2d_913 (MaxPooling2D (None, 10, 10, 128)  0           conv2d_913[0][0]                 
__________________________________________________________________________________________________
max_pooling2d_916 (MaxPooling2D (None, 10, 10, 128)  0           conv2d_916[0][0]                 
__________________________________________________________________________________________________
concatenate_53 (Concatenate)    (None, 10, 10, 640)  0           max_pooling2d_904[0][0]          
                                                                 max_pooling2d_907[0][0]          
                                                                 max_pooling2d_910[0][0]          
                                                                 max_pooling2d_913[0][0]          
                                                                 max_pooling2d_916[0][0]          
__________________________________________________________________________________________________
flatten_2173 (Flatten)          (None, 64000)        0           concatenate_53[0][0]             
==================================================================================================
Total params: 481,248
Trainable params: 481,248
Non-trainable params: 0
__________________________________________________________________________________________________
get cnn model
(1052, 64000)
[242.21338 592.72174 398.4072    0.        0.      164.15775 168.3418
…
