program start
seed set
[PhysicalDevice(name='/physical_device:GPU:0', device_type='GPU')]
Model: "model_108"
__________________________________________________________________________________________________
Layer (type)                    Output Shape         Param #     Connected to                     
==================================================================================================
input_55 (InputLayer)           [(None, 150, 150, 7) 0                                            
__________________________________________________________________________________________________
lambda_270 (Lambda)             (None, 150, 150, 7)  0           input_55[0][0]                   
__________________________________________________________________________________________________
conv2d_918 (Conv2D)             (None, 150, 150, 32) 2048        lambda_270[0][0]                 
__________________________________________________________________________________________________
max_pooling2d_918 (MaxPooling2D (None, 75, 75, 32)   0           conv2d_918[0][0]                 
__________________________________________________________________________________________________
lambda_271 (Lambda)             (None, 75, 75, 7)    0           lambda_270[0][0]                 
__________________________________________________________________________________________________
lambda_272 (Lambda)             (None, 75, 75, 7)    0           lambda_270[0][0]                 
__________________________________________________________________________________________________
lambda_273 (Lambda)             (None, 75, 75, 7)    0           lambda_270[0][0]                 
__________________________________________________________________________________________________
lambda_274 (Lambda)             (None, 75, 75, 7)    0           lambda_270[0][0]                 
__________________________________________________________________________________________________
conv2d_919 (Conv2D)             (None, 75, 75, 32)   9248        max_pooling2d_918[0][0]          
__________________________________________________________________________________________________
conv2d_922 (Conv2D)             (None, 75, 75, 32)   2048        lambda_271[0][0]                 
__________________________________________________________________________________________________
conv2d_925 (Conv2D)             (None, 75, 75, 32)   2048        lambda_272[0][0]                 
__________________________________________________________________________________________________
conv2d_928 (Conv2D)             (None, 75, 75, 32)   2048        lambda_273[0][0]                 
__________________________________________________________________________________________________
conv2d_931 (Conv2D)             (None, 75, 75, 32)   2048        lambda_274[0][0]                 
__________________________________________________________________________________________________
max_pooling2d_919 (MaxPooling2D (None, 38, 38, 32)   0           conv2d_919[0][0]                 
__________________________________________________________________________________________________
max_pooling2d_922 (MaxPooling2D (None, 38, 38, 32)   0           conv2d_922[0][0]                 
__________________________________________________________________________________________________
max_pooling2d_925 (MaxPooling2D (None, 38, 38, 32)   0           conv2d_925[0][0]                 
__________________________________________________________________________________________________
max_pooling2d_928 (MaxPooling2D (None, 38, 38, 32)   0           conv2d_928[0][0]                 
__________________________________________________________________________________________________
max_pooling2d_931 (MaxPooling2D (None, 38, 38, 32)   0           conv2d_931[0][0]                 
__________________________________________________________________________________________________
conv2d_920 (Conv2D)             (None, 38, 38, 64)   18496       max_pooling2d_919[0][0]          
__________________________________________________________________________________________________
conv2d_923 (Conv2D)             (None, 38, 38, 64)   18496       max_pooling2d_922[0][0]          
__________________________________________________________________________________________________
conv2d_926 (Conv2D)             (None, 38, 38, 64)   18496       max_pooling2d_925[0][0]          
__________________________________________________________________________________________________
conv2d_929 (Conv2D)             (None, 38, 38, 64)   18496       max_pooling2d_928[0][0]          
__________________________________________________________________________________________________
conv2d_932 (Conv2D)             (None, 38, 38, 64)   18496       max_pooling2d_931[0][0]          
__________________________________________________________________________________________________
max_pooling2d_920 (MaxPooling2D (None, 19, 19, 64)   0           conv2d_920[0][0]                 
__________________________________________________________________________________________________
max_pooling2d_923 (MaxPooling2D (None, 19, 19, 64)   0           conv2d_923[0][0]                 
__________________________________________________________________________________________________
max_pooling2d_926 (MaxPooling2D (None, 19, 19, 64)   0           conv2d_926[0][0]                 
__________________________________________________________________________________________________
max_pooling2d_929 (MaxPooling2D (None, 19, 19, 64)   0           conv2d_929[0][0]                 
__________________________________________________________________________________________________
max_pooling2d_932 (MaxPooling2D (None, 19, 19, 64)   0           conv2d_932[0][0]                 
__________________________________________________________________________________________________
conv2d_921 (Conv2D)             (None, 19, 19, 128)  73856       max_pooling2d_920[0][0]          
__________________________________________________________________________________________________
conv2d_924 (Conv2D)             (None, 19, 19, 128)  73856       max_pooling2d_923[0][0]          
__________________________________________________________________________________________________
conv2d_927 (Conv2D)             (None, 19, 19, 128)  73856       max_pooling2d_926[0][0]          
__________________________________________________________________________________________________
conv2d_930 (Conv2D)             (None, 19, 19, 128)  73856       max_pooling2d_929[0][0]          
__________________________________________________________________________________________________
conv2d_933 (Conv2D)             (None, 19, 19, 128)  73856       max_pooling2d_932[0][0]          
__________________________________________________________________________________________________
max_pooling2d_921 (MaxPooling2D (None, 10, 10, 128)  0           conv2d_921[0][0]                 
__________________________________________________________________________________________________
max_pooling2d_924 (MaxPooling2D (None, 10, 10, 128)  0           conv2d_924[0][0]                 
__________________________________________________________________________________________________
max_pooling2d_927 (MaxPooling2D (None, 10, 10, 128)  0           conv2d_927[0][0]                 
__________________________________________________________________________________________________
max_pooling2d_930 (MaxPooling2D (None, 10, 10, 128)  0           conv2d_930[0][0]                 
__________________________________________________________________________________________________
max_pooling2d_933 (MaxPooling2D (None, 10, 10, 128)  0           conv2d_933[0][0]                 
__________________________________________________________________________________________________
concatenate_54 (Concatenate)    (None, 10, 10, 640)  0           max_pooling2d_921[0][0]          
                                                                 max_pooling2d_924[0][0]          
                                                                 max_pooling2d_927[0][0]          
                                                                 max_pooling2d_930[0][0]          
                                                                 max_pooling2d_933[0][0]          
__________________________________________________________________________________________________
flatten_2214 (Flatten)          (None, 64000)        0           concatenate_54[0][0]             
__________________________________________________________________________________________________
dense_162 (Dense)               (None, 1024)         65537024    flatten_2214[0][0]               
__________________________________________________________________________________________________
dropout_108 (Dropout)           (None, 1024)         0           dense_162[0][0]                  
__________________________________________________________________________________________________
dense_163 (Dense)               (None, 1024)         1049600     dropout_108[0][0]                
__________________________________________________________________________________________________
dropout_109 (Dropout)           (None, 1024)         0           dense_163[0][0]                  
__________________________________________________________________________________________________
dense_164 (Dense)               (None, 5)            5125        dropout_109[0][0]                
==================================================================================================
Total params: 67,072,997
Trainable params: 67,072,997
Non-trainable params: 0
__________________________________________________________________________________________________
start loading dataset ...
load "Big" complete
load "Long" complete
load "Mitotic" complete
…
           3       1.00      0.71      0.83        56
           4       1.00      0.05      0.10        56

    accuracy                           0.72       260
   macro avg       0.80      0.73      0.66       260
weighted avg       0.82      0.72      0.65       260

Model: "model_109"
__________________________________________________________________________________________________
Layer (type)                    Output Shape         Param #     Connected to                     
==================================================================================================
input_55 (InputLayer)           [(None, 150, 150, 7) 0                                            
__________________________________________________________________________________________________
lambda_270 (Lambda)             (None, 150, 150, 7)  0           input_55[0][0]                   
__________________________________________________________________________________________________
conv2d_918 (Conv2D)             (None, 150, 150, 32) 2048        lambda_270[0][0]                 
__________________________________________________________________________________________________
max_pooling2d_918 (MaxPooling2D (None, 75, 75, 32)   0           conv2d_918[0][0]                 
__________________________________________________________________________________________________
lambda_271 (Lambda)             (None, 75, 75, 7)    0           lambda_270[0][0]                 
__________________________________________________________________________________________________
lambda_272 (Lambda)             (None, 75, 75, 7)    0           lambda_270[0][0]                 
__________________________________________________________________________________________________
lambda_273 (Lambda)             (None, 75, 75, 7)    0           lambda_270[0][0]                 
__________________________________________________________________________________________________
lambda_274 (Lambda)             (None, 75, 75, 7)    0           lambda_270[0][0]                 
__________________________________________________________________________________________________
conv2d_919 (Conv2D)             (None, 75, 75, 32)   9248        max_pooling2d_918[0][0]          
__________________________________________________________________________________________________
conv2d_922 (Conv2D)             (None, 75, 75, 32)   2048        lambda_271[0][0]                 
__________________________________________________________________________________________________
conv2d_925 (Conv2D)             (None, 75, 75, 32)   2048        lambda_272[0][0]                 
__________________________________________________________________________________________________
conv2d_928 (Conv2D)             (None, 75, 75, 32)   2048        lambda_273[0][0]                 
__________________________________________________________________________________________________
conv2d_931 (Conv2D)             (None, 75, 75, 32)   2048        lambda_274[0][0]                 
__________________________________________________________________________________________________
max_pooling2d_919 (MaxPooling2D (None, 38, 38, 32)   0           conv2d_919[0][0]                 
__________________________________________________________________________________________________
max_pooling2d_922 (MaxPooling2D (None, 38, 38, 32)   0           conv2d_922[0][0]                 
__________________________________________________________________________________________________
max_pooling2d_925 (MaxPooling2D (None, 38, 38, 32)   0           conv2d_925[0][0]                 
__________________________________________________________________________________________________
max_pooling2d_928 (MaxPooling2D (None, 38, 38, 32)   0           conv2d_928[0][0]                 
__________________________________________________________________________________________________
max_pooling2d_931 (MaxPooling2D (None, 38, 38, 32)   0           conv2d_931[0][0]                 
__________________________________________________________________________________________________
conv2d_920 (Conv2D)             (None, 38, 38, 64)   18496       max_pooling2d_919[0][0]          
__________________________________________________________________________________________________
conv2d_923 (Conv2D)             (None, 38, 38, 64)   18496       max_pooling2d_922[0][0]          
__________________________________________________________________________________________________
conv2d_926 (Conv2D)             (None, 38, 38, 64)   18496       max_pooling2d_925[0][0]          
__________________________________________________________________________________________________
conv2d_929 (Conv2D)             (None, 38, 38, 64)   18496       max_pooling2d_928[0][0]          
__________________________________________________________________________________________________
conv2d_932 (Conv2D)             (None, 38, 38, 64)   18496       max_pooling2d_931[0][0]          
__________________________________________________________________________________________________
max_pooling2d_920 (MaxPooling2D (None, 19, 19, 64)   0           conv2d_920[0][0]                 
__________________________________________________________________________________________________
max_pooling2d_923 (MaxPooling2D (None, 19, 19, 64)   0           conv2d_923[0][0]                 
__________________________________________________________________________________________________
max_pooling2d_926 (MaxPooling2D (None, 19, 19, 64)   0           conv2d_926[0][0]                 
__________________________________________________________________________________________________
max_pooling2d_929 (MaxPooling2D (None, 19, 19, 64)   0           conv2d_929[0][0]                 
__________________________________________________________________________________________________
max_pooling2d_932 (MaxPooling2D (None, 19, 19, 64)   0           conv2d_932[0][0]                 
__________________________________________________________________________________________________
conv2d_921 (Conv2D)             (None, 19, 19, 128)  73856       max_pooling2d_920[0][0]          
__________________________________________________________________________________________________
conv2d_924 (Conv2D)             (None, 19, 19, 128)  73856       max_pooling2d_923[0][0]          
__________________________________________________________________________________________________
conv2d_927 (Conv2D)             (None, 19, 19, 128)  73856       max_pooling2d_926[0][0]          
__________________________________________________________________________________________________
conv2d_930 (Conv2D)             (None, 19, 19, 128)  73856       max_pooling2d_929[0][0]          
__________________________________________________________________________________________________
conv2d_933 (Conv2D)             (None, 19, 19, 128)  73856       max_pooling2d_932[0][0]          
__________________________________________________________________________________________________
max_pooling2d_921 (MaxPooling2D (None, 10, 10, 128)  0           conv2d_921[0][0]                 
__________________________________________________________________________________________________
max_pooling2d_924 (MaxPooling2D (None, 10, 10, 128)  0           conv2d_924[0][0]                 
__________________________________________________________________________________________________
max_pooling2d_927 (MaxPooling2D (None, 10, 10, 128)  0           conv2d_927[0][0]                 
__________________________________________________________________________________________________
max_pooling2d_930 (MaxPooling2D (None, 10, 10, 128)  0           conv2d_930[0][0]                 
__________________________________________________________________________________________________
max_pooling2d_933 (MaxPooling2D (None, 10, 10, 128)  0           conv2d_933[0][0]                 
__________________________________________________________________________________________________
concatenate_54 (Concatenate)    (None, 10, 10, 640)  0           max_pooling2d_921[0][0]          
                                                                 max_pooling2d_924[0][0]          
                                                                 max_pooling2d_927[0][0]          
                                                                 max_pooling2d_930[0][0]          
                                                                 max_pooling2d_933[0][0]          
__________________________________________________________________________________________________
flatten_2214 (Flatten)          (None, 64000)        0           concatenate_54[0][0]             
==================================================================================================
Total params: 481,248
Trainable params: 481,248
Non-trainable params: 0
__________________________________________________________________________________________________
get cnn model
(1052, 64000)
[149.38327   52.565365 196.55255  369.21606    0.        92.34096
…
