program start
seed set
[PhysicalDevice(name='/physical_device:GPU:0', device_type='GPU')]
Model: "model_110"
__________________________________________________________________________________________________
Layer (type)                    Output Shape         Param #     Connected to                     
==================================================================================================
input_56 (InputLayer)           [(None, 150, 150, 7) 0                                            
__________________________________________________________________________________________________
lambda_275 (Lambda)             (None, 150, 150, 7)  0           input_56[0][0]                   
__________________________________________________________________________________________________
conv2d_935 (Conv2D)             (None, 150, 150, 32) 2048        lambda_275[0][0]                 
__________________________________________________________________________________________________
max_pooling2d_935 (MaxPooling2D (None, 75, 75, 32)   0           conv2d_935[0][0]                 
__________________________________________________________________________________________________
lambda_276 (Lambda)             (None, 75, 75, 7)    0           lambda_275[0][0]                 
__________________________________________________________________________________________________
lambda_277 (Lambda)             (None, 75, 75, 7)    0           lambda_275[0][0]                 
__________________________________________________________________________________________________
lambda_278 (Lambda)             (None, 75, 75, 7)    0           lambda_275[0][0]                 
__________________________________________________________________________________________________
lambda_279 (Lambda)             (None, 75, 75, 7)    0           lambda_275[0][0]                 
__________________________________________________________________________________________________
conv2d_936 (Conv2D)             (None, 75, 75, 32)   9248        max_pooling2d_935[0][0]          
__________________________________________________________________________________________________
conv2d_939 (Conv2D)             (None, 75, 75, 32)   2048        lambda_276[0][0]                 
__________________________________________________________________________________________________
conv2d_942 (Conv2D)             (None, 75, 75, 32)   2048        lambda_277[0][0]                 
__________________________________________________________________________________________________
conv2d_945 (Conv2D)             (None, 75, 75, 32)   2048        lambda_278[0][0]                 
__________________________________________________________________________________________________
conv2d_948 (Conv2D)             (None, 75, 75, 32)   2048        lambda_279[0][0]                 
__________________________________________________________________________________________________
max_pooling2d_936 (MaxPooling2D (None, 38, 38, 32)   0           conv2d_936[0][0]                 
__________________________________________________________________________________________________
max_pooling2d_939 (MaxPooling2D (None, 38, 38, 32)   0           conv2d_939[0][0]                 
__________________________________________________________________________________________________
max_pooling2d_942 (MaxPooling2D (None, 38, 38, 32)   0           conv2d_942[0][0]                 
__________________________________________________________________________________________________
max_pooling2d_945 (MaxPooling2D (None, 38, 38, 32)   0           conv2d_945[0][0]                 
__________________________________________________________________________________________________
max_pooling2d_948 (MaxPooling2D (None, 38, 38, 32)   0           conv2d_948[0][0]                 
__________________________________________________________________________________________________
conv2d_937 (Conv2D)             (None, 38, 38, 64)   18496       max_pooling2d_936[0][0]          
__________________________________________________________________________________________________
conv2d_940 (Conv2D)             (None, 38, 38, 64)   18496       max_pooling2d_939[0][0]          
__________________________________________________________________________________________________
conv2d_943 (Conv2D)             (None, 38, 38, 64)   18496       max_pooling2d_942[0][0]          
__________________________________________________________________________________________________
conv2d_946 (Conv2D)             (None, 38, 38, 64)   18496       max_pooling2d_945[0][0]          
__________________________________________________________________________________________________
conv2d_949 (Conv2D)             (None, 38, 38, 64)   18496       max_pooling2d_948[0][0]          
__________________________________________________________________________________________________
max_pooling2d_937 (MaxPooling2D (None, 19, 19, 64)   0           conv2d_937[0][0]                 
__________________________________________________________________________________________________
max_pooling2d_940 (MaxPooling2D (None, 19, 19, 64)   0           conv2d_940[0][0]                 
__________________________________________________________________________________________________
max_pooling2d_943 (MaxPooling2D (None, 19, 19, 64)   0           conv2d_943[0][0]                 
__________________________________________________________________________________________________
max_pooling2d_946 (MaxPooling2D (None, 19, 19, 64)   0           conv2d_946[0][0]                 
__________________________________________________________________________________________________
max_pooling2d_949 (MaxPooling2D (None, 19, 19, 64)   0           conv2d_949[0][0]                 
__________________________________________________________________________________________________
conv2d_938 (Conv2D)             (None, 19, 19, 128)  73856       max_pooling2d_937[0][0]          
__________________________________________________________________________________________________
conv2d_941 (Conv2D)             (None, 19, 19, 128)  73856       max_pooling2d_940[0][0]          
__________________________________________________________________________________________________
conv2d_944 (Conv2D)             (None, 19, 19, 128)  73856       max_pooling2d_943[0][0]          
__________________________________________________________________________________________________
conv2d_947 (Conv2D)             (None, 19, 19, 128)  73856       max_pooling2d_946[0][0]          
__________________________________________________________________________________________________
conv2d_950 (Conv2D)             (None, 19, 19, 128)  73856       max_pooling2d_949[0][0]          
__________________________________________________________________________________________________
max_pooling2d_938 (MaxPooling2D (None, 10, 10, 128)  0           conv2d_938[0][0]                 
__________________________________________________________________________________________________
max_pooling2d_941 (MaxPooling2D (None, 10, 10, 128)  0           conv2d_941[0][0]                 
__________________________________________________________________________________________________
max_pooling2d_944 (MaxPooling2D (None, 10, 10, 128)  0           conv2d_944[0][0]                 
__________________________________________________________________________________________________
max_pooling2d_947 (MaxPooling2D (None, 10, 10, 128)  0           conv2d_947[0][0]                 
__________________________________________________________________________________________________
max_pooling2d_950 (MaxPooling2D (None, 10, 10, 128)  0           conv2d_950[0][0]                 
__________________________________________________________________________________________________
concatenate_55 (Concatenate)    (None, 10, 10, 640)  0           max_pooling2d_938[0][0]          
                                                                 max_pooling2d_941[0][0]          
                                                                 max_pooling2d_944[0][0]          
                                                                 max_pooling2d_947[0][0]          
                                                                 max_pooling2d_950[0][0]          
__________________________________________________________________________________________________
flatten_2255 (Flatten)          (None, 64000)        0           concatenate_55[0][0]             
__________________________________________________________________________________________________
dense_165 (Dense)               (None, 1024)         65537024    flatten_2255[0][0]               
__________________________________________________________________________________________________
dropout_110 (Dropout)           (None, 1024)         0           dense_165[0][0]                  
__________________________________________________________________________________________________
dense_166 (Dense)               (None, 1024)         1049600     dropout_110[0][0]                
__________________________________________________________________________________________________
dropout_111 (Dropout)           (None, 1024)         0           dense_166[0][0]                  
__________________________________________________________________________________________________
dense_167 (Dense)               (None, 5)            5125        dropout_111[0][0]                
==================================================================================================
Total params: 67,072,997
Trainable params: 67,072,997
Non-trainable params: 0
__________________________________________________________________________________________________
start loading dataset ...
load "Big" complete
load "Long" complete
load "Mitotic" complete
…
vg': {'precision': 0.7652416106068252, 'recall': 0.7842791911285063, 'f1-score': 0.7614790703939082, 'support': 260.0}, 'weighted avg': {'precision': 0.7812865622970439, 'recall': 0.7846153846153846, 'f1-score': 0.7700460955855757, 'support': 260.0}}
Model: "model_111"
__________________________________________________________________________________________________
Layer (type)                    Output Shape         Param #     Connected to                     
==================================================================================================
input_56 (InputLayer)           [(None, 150, 150, 7) 0                                            
__________________________________________________________________________________________________
lambda_275 (Lambda)             (None, 150, 150, 7)  0           input_56[0][0]                   
__________________________________________________________________________________________________
conv2d_935 (Conv2D)             (None, 150, 150, 32) 2048        lambda_275[0][0]                 
__________________________________________________________________________________________________
max_pooling2d_935 (MaxPooling2D (None, 75, 75, 32)   0           conv2d_935[0][0]                 
__________________________________________________________________________________________________
lambda_276 (Lambda)             (None, 75, 75, 7)    0           lambda_275[0][0]                 
__________________________________________________________________________________________________
lambda_277 (Lambda)             (None, 75, 75, 7)    0           lambda_275[0][0]                 
__________________________________________________________________________________________________
lambda_278 (Lambda)             (None, 75, 75, 7)    0           lambda_275[0][0]                 
__________________________________________________________________________________________________
lambda_279 (Lambda)             (None, 75, 75, 7)    0           lambda_275[0][0]                 
__________________________________________________________________________________________________
conv2d_936 (Conv2D)             (None, 75, 75, 32)   9248        max_pooling2d_935[0][0]          
__________________________________________________________________________________________________
conv2d_939 (Conv2D)             (None, 75, 75, 32)   2048        lambda_276[0][0]                 
__________________________________________________________________________________________________
conv2d_942 (Conv2D)             (None, 75, 75, 32)   2048        lambda_277[0][0]                 
__________________________________________________________________________________________________
conv2d_945 (Conv2D)             (None, 75, 75, 32)   2048        lambda_278[0][0]                 
__________________________________________________________________________________________________
conv2d_948 (Conv2D)             (None, 75, 75, 32)   2048        lambda_279[0][0]                 
__________________________________________________________________________________________________
max_pooling2d_936 (MaxPooling2D (None, 38, 38, 32)   0           conv2d_936[0][0]                 
__________________________________________________________________________________________________
max_pooling2d_939 (MaxPooling2D (None, 38, 38, 32)   0           conv2d_939[0][0]                 
__________________________________________________________________________________________________
max_pooling2d_942 (MaxPooling2D (None, 38, 38, 32)   0           conv2d_942[0][0]                 
__________________________________________________________________________________________________
max_pooling2d_945 (MaxPooling2D (None, 38, 38, 32)   0           conv2d_945[0][0]                 
__________________________________________________________________________________________________
max_pooling2d_948 (MaxPooling2D (None, 38, 38, 32)   0           conv2d_948[0][0]                 
__________________________________________________________________________________________________
conv2d_937 (Conv2D)             (None, 38, 38, 64)   18496       max_pooling2d_936[0][0]          
__________________________________________________________________________________________________
conv2d_940 (Conv2D)             (None, 38, 38, 64)   18496       max_pooling2d_939[0][0]          
__________________________________________________________________________________________________
conv2d_943 (Conv2D)             (None, 38, 38, 64)   18496       max_pooling2d_942[0][0]          
__________________________________________________________________________________________________
conv2d_946 (Conv2D)             (None, 38, 38, 64)   18496       max_pooling2d_945[0][0]          
__________________________________________________________________________________________________
conv2d_949 (Conv2D)             (None, 38, 38, 64)   18496       max_pooling2d_948[0][0]          
__________________________________________________________________________________________________
max_pooling2d_937 (MaxPooling2D (None, 19, 19, 64)   0           conv2d_937[0][0]                 
__________________________________________________________________________________________________
max_pooling2d_940 (MaxPooling2D (None, 19, 19, 64)   0           conv2d_940[0][0]                 
__________________________________________________________________________________________________
max_pooling2d_943 (MaxPooling2D (None, 19, 19, 64)   0           conv2d_943[0][0]                 
__________________________________________________________________________________________________
max_pooling2d_946 (MaxPooling2D (None, 19, 19, 64)   0           conv2d_946[0][0]                 
__________________________________________________________________________________________________
max_pooling2d_949 (MaxPooling2D (None, 19, 19, 64)   0           conv2d_949[0][0]                 
__________________________________________________________________________________________________
conv2d_938 (Conv2D)             (None, 19, 19, 128)  73856       max_pooling2d_937[0][0]          
__________________________________________________________________________________________________
conv2d_941 (Conv2D)             (None, 19, 19, 128)  73856       max_pooling2d_940[0][0]          
__________________________________________________________________________________________________
conv2d_944 (Conv2D)             (None, 19, 19, 128)  73856       max_pooling2d_943[0][0]          
__________________________________________________________________________________________________
conv2d_947 (Conv2D)             (None, 19, 19, 128)  73856       max_pooling2d_946[0][0]          
__________________________________________________________________________________________________
conv2d_950 (Conv2D)             (None, 19, 19, 128)  73856       max_pooling2d_949[0][0]          
__________________________________________________________________________________________________
max_pooling2d_938 (MaxPooling2D (None, 10, 10, 128)  0           conv2d_938[0][0]                 
__________________________________________________________________________________________________
max_pooling2d_941 (MaxPooling2D (None, 10, 10, 128)  0           conv2d_941[0][0]                 
__________________________________________________________________________________________________
max_pooling2d_944 (MaxPooling2D (None, 10, 10, 128)  0           conv2d_944[0][0]                 
__________________________________________________________________________________________________
max_pooling2d_947 (MaxPooling2D (None, 10, 10, 128)  0           conv2d_947[0][0]                 
__________________________________________________________________________________________________
max_pooling2d_950 (MaxPooling2D (None, 10, 10, 128)  0           conv2d_950[0][0]                 
__________________________________________________________________________________________________
concatenate_55 (Concatenate)    (None, 10, 10, 640)  0           max_pooling2d_938[0][0]          
                                                                 max_pooling2d_941[0][0]          
                                                                 max_pooling2d_944[0][0]          
                                                                 max_pooling2d_947[0][0]          
                                                                 max_pooling2d_950[0][0]          
__________________________________________________________________________________________________
flatten_2255 (Flatten)          (None, 64000)        0           concatenate_55[0][0]             
==================================================================================================
Total params: 481,248
Trainable params: 481,248
Non-trainable params: 0
__________________________________________________________________________________________________
get cnn model
(1052, 64000)
[  0.        0.      118.27894 157.70175 152.56337 246.45212 256.53702
…
