program start
seed set
[PhysicalDevice(name='/physical_device:GPU:0', device_type='GPU')]
Model: "model_112"
__________________________________________________________________________________________________
Layer (type)                    Output Shape         Param #     Connected to                     
==================================================================================================
input_57 (InputLayer)           [(None, 150, 150, 7) 0                                            
__________________________________________________________________________________________________
lambda_280 (Lambda)             (None, 150, 150, 7)  0           input_57[0][0]                   
__________________________________________________________________________________________________
conv2d_952 (Conv2D)             (None, 150, 150, 32) 2048        lambda_280[0][0]                 
__________________________________________________________________________________________________
max_pooling2d_952 (MaxPooling2D (None, 75, 75, 32)   0           conv2d_952[0][0]                 
__________________________________________________________________________________________________
lambda_281 (Lambda)             (None, 75, 75, 7)    0           lambda_280[0][0]                 
__________________________________________________________________________________________________
lambda_282 (Lambda)             (None, 75, 75, 7)    0           lambda_280[0][0]                 
__________________________________________________________________________________________________
lambda_283 (Lambda)             (None, 75, 75, 7)    0           lambda_280[0][0]                 
__________________________________________________________________________________________________
lambda_284 (Lambda)             (None, 75, 75, 7)    0           lambda_280[0][0]                 
__________________________________________________________________________________________________
conv2d_953 (Conv2D)             (None, 75, 75, 32)   9248        max_pooling2d_952[0][0]          
__________________________________________________________________________________________________
conv2d_956 (Conv2D)             (None, 75, 75, 32)   2048        lambda_281[0][0]                 
__________________________________________________________________________________________________
conv2d_959 (Conv2D)             (None, 75, 75, 32)   2048        lambda_282[0][0]                 
__________________________________________________________________________________________________
conv2d_962 (Conv2D)             (None, 75, 75, 32)   2048        lambda_283[0][0]                 
__________________________________________________________________________________________________
conv2d_965 (Conv2D)             (None, 75, 75, 32)   2048        lambda_284[0][0]                 
__________________________________________________________________________________________________
max_pooling2d_953 (MaxPooling2D (None, 38, 38, 32)   0           conv2d_953[0][0]                 
__________________________________________________________________________________________________
max_pooling2d_956 (MaxPooling2D (None, 38, 38, 32)   0           conv2d_956[0][0]                 
__________________________________________________________________________________________________
max_pooling2d_959 (MaxPooling2D (None, 38, 38, 32)   0           conv2d_959[0][0]                 
__________________________________________________________________________________________________
max_pooling2d_962 (MaxPooling2D (None, 38, 38, 32)   0           conv2d_962[0][0]                 
__________________________________________________________________________________________________
max_pooling2d_965 (MaxPooling2D (None, 38, 38, 32)   0           conv2d_965[0][0]                 
__________________________________________________________________________________________________
conv2d_954 (Conv2D)             (None, 38, 38, 64)   18496       max_pooling2d_953[0][0]          
__________________________________________________________________________________________________
conv2d_957 (Conv2D)             (None, 38, 38, 64)   18496       max_pooling2d_956[0][0]          
__________________________________________________________________________________________________
conv2d_960 (Conv2D)             (None, 38, 38, 64)   18496       max_pooling2d_959[0][0]          
__________________________________________________________________________________________________
conv2d_963 (Conv2D)             (None, 38, 38, 64)   18496       max_pooling2d_962[0][0]          
__________________________________________________________________________________________________
conv2d_966 (Conv2D)             (None, 38, 38, 64)   18496       max_pooling2d_965[0][0]          
__________________________________________________________________________________________________
max_pooling2d_954 (MaxPooling2D (None, 19, 19, 64)   0           conv2d_954[0][0]                 
__________________________________________________________________________________________________
max_pooling2d_957 (MaxPooling2D (None, 19, 19, 64)   0           conv2d_957[0][0]                 
__________________________________________________________________________________________________
max_pooling2d_960 (MaxPooling2D (None, 19, 19, 64)   0           conv2d_960[0][0]                 
__________________________________________________________________________________________________
max_pooling2d_963 (MaxPooling2D (None, 19, 19, 64)   0           conv2d_963[0][0]                 
__________________________________________________________________________________________________
max_pooling2d_966 (MaxPooling2D (None, 19, 19, 64)   0           conv2d_966[0][0]                 
__________________________________________________________________________________________________
conv2d_955 (Conv2D)             (None, 19, 19, 128)  73856       max_pooling2d_954[0][0]          
__________________________________________________________________________________________________
conv2d_958 (Conv2D)             (None, 19, 19, 128)  73856       max_pooling2d_957[0][0]          
__________________________________________________________________________________________________
conv2d_961 (Conv2D)             (None, 19, 19, 128)  73856       max_pooling2d_960[0][0]          
__________________________________________________________________________________________________
conv2d_964 (Conv2D)             (None, 19, 19, 128)  73856       max_pooling2d_963[0][0]          
__________________________________________________________________________________________________
conv2d_967 (Conv2D)             (None, 19, 19, 128)  73856       max_pooling2d_966[0][0]          
__________________________________________________________________________________________________
max_pooling2d_955 (MaxPooling2D (None, 10, 10, 128)  0           conv2d_955[0][0]                 
__________________________________________________________________________________________________
max_pooling2d_958 (MaxPooling2D (None, 10, 10, 128)  0           conv2d_958[0][0]                 
__________________________________________________________________________________________________
max_pooling2d_961 (MaxPooling2D (None, 10, 10, 128)  0           conv2d_961[0][0]                 
__________________________________________________________________________________________________
max_pooling2d_964 (MaxPooling2D (None, 10, 10, 128)  0           conv2d_964[0][0]                 
__________________________________________________________________________________________________
max_pooling2d_967 (MaxPooling2D (None, 10, 10, 128)  0           conv2d_967[0][0]                 
__________________________________________________________________________________________________
concatenate_56 (Concatenate)    (None, 10, 10, 640)  0           max_pooling2d_955[0][0]          
                                                                 max_pooling2d_958[0][0]          
                                                                 max_pooling2d_961[0][0]          
                                                                 max_pooling2d_964[0][0]          
                                                                 max_pooling2d_967[0][0]          
__________________________________________________________________________________________________
flatten_2296 (Flatten)          (None, 64000)        0           concatenate_56[0][0]             
__________________________________________________________________________________________________
dense_168 (Dense)               (None, 1024)         65537024    flatten_2296[0][0]               
__________________________________________________________________________________________________
dropout_112 (Dropout)           (None, 1024)         0           dense_168[0][0]                  
__________________________________________________________________________________________________
dense_169 (Dense)               (None, 1024)         1049600     dropout_112[0][0]                
__________________________________________________________________________________________________
dropout_113 (Dropout)           (None, 1024)         0           dense_169[0][0]                  
__________________________________________________________________________________________________
dense_170 (Dense)               (None, 5)            5125        dropout_113[0][0]                
==================================================================================================
Total params: 67,072,997
Trainable params: 67,072,997
Non-trainable params: 0
__________________________________________________________________________________________________
start loading dataset ...
load "Big" complete
load "Long" complete
load "Mitotic" complete
…
           3       0.90      0.82      0.86        56
           4       1.00      0.11      0.19        56

    accuracy                           0.76       260
   macro avg       0.82      0.77      0.71       260
weighted avg       0.83      0.76      0.70       260

Model: "model_113"
__________________________________________________________________________________________________
Layer (type)                    Output Shape         Param #     Connected to                     
==================================================================================================
input_57 (InputLayer)           [(None, 150, 150, 7) 0                                            
__________________________________________________________________________________________________
lambda_280 (Lambda)             (None, 150, 150, 7)  0           input_57[0][0]                   
__________________________________________________________________________________________________
conv2d_952 (Conv2D)             (None, 150, 150, 32) 2048        lambda_280[0][0]                 
__________________________________________________________________________________________________
max_pooling2d_952 (MaxPooling2D (None, 75, 75, 32)   0           conv2d_952[0][0]                 
__________________________________________________________________________________________________
lambda_281 (Lambda)             (None, 75, 75, 7)    0           lambda_280[0][0]                 
__________________________________________________________________________________________________
lambda_282 (Lambda)             (None, 75, 75, 7)    0           lambda_280[0][0]                 
__________________________________________________________________________________________________
lambda_283 (Lambda)             (None, 75, 75, 7)    0           lambda_280[0][0]                 
__________________________________________________________________________________________________
lambda_284 (Lambda)             (None, 75, 75, 7)    0           lambda_280[0][0]                 
__________________________________________________________________________________________________
conv2d_953 (Conv2D)             (None, 75, 75, 32)   9248        max_pooling2d_952[0][0]          
__________________________________________________________________________________________________
conv2d_956 (Conv2D)             (None, 75, 75, 32)   2048        lambda_281[0][0]                 
__________________________________________________________________________________________________
conv2d_959 (Conv2D)             (None, 75, 75, 32)   2048        lambda_282[0][0]                 
__________________________________________________________________________________________________
conv2d_962 (Conv2D)             (None, 75, 75, 32)   2048        lambda_283[0][0]                 
__________________________________________________________________________________________________
conv2d_965 (Conv2D)             (None, 75, 75, 32)   2048        lambda_284[0][0]                 
__________________________________________________________________________________________________
max_pooling2d_953 (MaxPooling2D (None, 38, 38, 32)   0           conv2d_953[0][0]                 
__________________________________________________________________________________________________
max_pooling2d_956 (MaxPooling2D (None, 38, 38, 32)   0           conv2d_956[0][0]                 
__________________________________________________________________________________________________
max_pooling2d_959 (MaxPooling2D (None, 38, 38, 32)   0           conv2d_959[0][0]                 
__________________________________________________________________________________________________
max_pooling2d_962 (MaxPooling2D (None, 38, 38, 32)   0           conv2d_962[0][0]                 
__________________________________________________________________________________________________
max_pooling2d_965 (MaxPooling2D (None, 38, 38, 32)   0           conv2d_965[0][0]                 
__________________________________________________________________________________________________
conv2d_954 (Conv2D)             (None, 38, 38, 64)   18496       max_pooling2d_953[0][0]          
__________________________________________________________________________________________________
conv2d_957 (Conv2D)             (None, 38, 38, 64)   18496       max_pooling2d_956[0][0]          
__________________________________________________________________________________________________
conv2d_960 (Conv2D)             (None, 38, 38, 64)   18496       max_pooling2d_959[0][0]          
__________________________________________________________________________________________________
conv2d_963 (Conv2D)             (None, 38, 38, 64)   18496       max_pooling2d_962[0][0]          
__________________________________________________________________________________________________
conv2d_966 (Conv2D)             (None, 38, 38, 64)   18496       max_pooling2d_965[0][0]          
__________________________________________________________________________________________________
max_pooling2d_954 (MaxPooling2D (None, 19, 19, 64)   0           conv2d_954[0][0]                 
__________________________________________________________________________________________________
max_pooling2d_957 (MaxPooling2D (None, 19, 19, 64)   0           conv2d_957[0][0]                 
__________________________________________________________________________________________________
max_pooling2d_960 (MaxPooling2D (None, 19, 19, 64)   0           conv2d_960[0][0]                 
__________________________________________________________________________________________________
max_pooling2d_963 (MaxPooling2D (None, 19, 19, 64)   0           conv2d_963[0][0]                 
__________________________________________________________________________________________________
max_pooling2d_966 (MaxPooling2D (None, 19, 19, 64)   0           conv2d_966[0][0]                 
__________________________________________________________________________________________________
conv2d_955 (Conv2D)             (None, 19, 19, 128)  73856       max_pooling2d_954[0][0]          
__________________________________________________________________________________________________
conv2d_958 (Conv2D)             (None, 19, 19, 128)  73856       max_pooling2d_957[0][0]          
__________________________________________________________________________________________________
conv2d_961 (Conv2D)             (None, 19, 19, 128)  73856       max_pooling2d_960[0][0]          
__________________________________________________________________________________________________
conv2d_964 (Conv2D)             (None, 19, 19, 128)  73856       max_pooling2d_963[0][0]          
__________________________________________________________________________________________________
conv2d_967 (Conv2D)             (None, 19, 19, 128)  73856       max_pooling2d_966[0][0]          
__________________________________________________________________________________________________
max_pooling2d_955 (MaxPooling2D (None, 10, 10, 128)  0           conv2d_955[0][0]                 
__________________________________________________________________________________________________
max_pooling2d_958 (MaxPooling2D (None, 10, 10, 128)  0           conv2d_958[0][0]                 
__________________________________________________________________________________________________
max_pooling2d_961 (MaxPooling2D (None, 10, 10, 128)  0           conv2d_961[0][0]                 
__________________________________________________________________________________________________
max_pooling2d_964 (MaxPooling2D (None, 10, 10, 128)  0           conv2d_964[0][0]                 
__________________________________________________________________________________________________
max_pooling2d_967 (MaxPooling2D (None, 10, 10, 128)  0           conv2d_967[0][0]                 
__________________________________________________________________________________________________
concatenate_56 (Concatenate)    (None, 10, 10, 640)  0           max_pooling2d_955[0][0]          
                                                                 max_pooling2d_958[0][0]          
                                                                 max_pooling2d_961[0][0]          
                                                                 max_pooling2d_964[0][0]          
                                                                 max_pooling2d_967[0][0]          
__________________________________________________________________________________________________
flatten_2296 (Flatten)          (None, 64000)        0           concatenate_56[0][0]             
==================================================================================================
Total params: 481,248
Trainable params: 481,248
Non-trainable params: 0
__________________________________________________________________________________________________
get cnn model
(1052, 64000)
[  0.       545.8869    79.44326    0.       298.38226  258.17093
…
