program start
seed set
[PhysicalDevice(name='/physical_device:GPU:0', device_type='GPU')]
Model: "model_114"
__________________________________________________________________________________________________
Layer (type)                    Output Shape         Param #     Connected to                     
==================================================================================================
input_58 (InputLayer)           [(None, 150, 150, 7) 0                                            
__________________________________________________________________________________________________
lambda_285 (Lambda)             (None, 150, 150, 7)  0           input_58[0][0]                   
__________________________________________________________________________________________________
conv2d_969 (Conv2D)             (None, 150, 150, 32) 2048        lambda_285[0][0]                 
__________________________________________________________________________________________________
max_pooling2d_969 (MaxPooling2D (None, 75, 75, 32)   0           conv2d_969[0][0]                 
__________________________________________________________________________________________________
lambda_286 (Lambda)             (None, 75, 75, 7)    0           lambda_285[0][0]                 
__________________________________________________________________________________________________
lambda_287 (Lambda)             (None, 75, 75, 7)    0           lambda_285[0][0]                 
__________________________________________________________________________________________________
lambda_288 (Lambda)             (None, 75, 75, 7)    0           lambda_285[0][0]                 
__________________________________________________________________________________________________
lambda_289 (Lambda)             (None, 75, 75, 7)    0           lambda_285[0][0]                 
__________________________________________________________________________________________________
conv2d_970 (Conv2D)             (None, 75, 75, 32)   9248        max_pooling2d_969[0][0]          
__________________________________________________________________________________________________
conv2d_973 (Conv2D)             (None, 75, 75, 32)   2048        lambda_286[0][0]                 
__________________________________________________________________________________________________
conv2d_976 (Conv2D)             (None, 75, 75, 32)   2048        lambda_287[0][0]                 
__________________________________________________________________________________________________
conv2d_979 (Conv2D)             (None, 75, 75, 32)   2048        lambda_288[0][0]                 
__________________________________________________________________________________________________
conv2d_982 (Conv2D)             (None, 75, 75, 32)   2048        lambda_289[0][0]                 
__________________________________________________________________________________________________
max_pooling2d_970 (MaxPooling2D (None, 38, 38, 32)   0           conv2d_970[0][0]                 
__________________________________________________________________________________________________
max_pooling2d_973 (MaxPooling2D (None, 38, 38, 32)   0           conv2d_973[0][0]                 
__________________________________________________________________________________________________
max_pooling2d_976 (MaxPooling2D (None, 38, 38, 32)   0           conv2d_976[0][0]                 
__________________________________________________________________________________________________
max_pooling2d_979 (MaxPooling2D (None, 38, 38, 32)   0           conv2d_979[0][0]                 
__________________________________________________________________________________________________
max_pooling2d_982 (MaxPooling2D (None, 38, 38, 32)   0           conv2d_982[0][0]                 
__________________________________________________________________________________________________
conv2d_971 (Conv2D)             (None, 38, 38, 64)   18496       max_pooling2d_970[0][0]          
__________________________________________________________________________________________________
conv2d_974 (Conv2D)             (None, 38, 38, 64)   18496       max_pooling2d_973[0][0]          
__________________________________________________________________________________________________
conv2d_977 (Conv2D)             (None, 38, 38, 64)   18496       max_pooling2d_976[0][0]          
__________________________________________________________________________________________________
conv2d_980 (Conv2D)             (None, 38, 38, 64)   18496       max_pooling2d_979[0][0]          
__________________________________________________________________________________________________
conv2d_983 (Conv2D)             (None, 38, 38, 64)   18496       max_pooling2d_982[0][0]          
__________________________________________________________________________________________________
max_pooling2d_971 (MaxPooling2D (None, 19, 19, 64)   0           conv2d_971[0][0]                 
__________________________________________________________________________________________________
max_pooling2d_974 (MaxPooling2D (None, 19, 19, 64)   0           conv2d_974[0][0]                 
__________________________________________________________________________________________________
max_pooling2d_977 (MaxPooling2D (None, 19, 19, 64)   0           conv2d_977[0][0]                 
__________________________________________________________________________________________________
max_pooling2d_980 (MaxPooling2D (None, 19, 19, 64)   0           conv2d_980[0][0]                 
__________________________________________________________________________________________________
max_pooling2d_983 (MaxPooling2D (None, 19, 19, 64)   0           conv2d_983[0][0]                 
__________________________________________________________________________________________________
conv2d_972 (Conv2D)             (None, 19, 19, 128)  73856       max_pooling2d_971[0][0]          
__________________________________________________________________________________________________
conv2d_975 (Conv2D)             (None, 19, 19, 128)  73856       max_pooling2d_974[0][0]          
__________________________________________________________________________________________________
conv2d_978 (Conv2D)             (None, 19, 19, 128)  73856       max_pooling2d_977[0][0]          
__________________________________________________________________________________________________
conv2d_981 (Conv2D)             (None, 19, 19, 128)  73856       max_pooling2d_980[0][0]          
__________________________________________________________________________________________________
conv2d_984 (Conv2D)             (None, 19, 19, 128)  73856       max_pooling2d_983[0][0]          
__________________________________________________________________________________________________
max_pooling2d_972 (MaxPooling2D (None, 10, 10, 128)  0           conv2d_972[0][0]                 
__________________________________________________________________________________________________
max_pooling2d_975 (MaxPooling2D (None, 10, 10, 128)  0           conv2d_975[0][0]                 
__________________________________________________________________________________________________
max_pooling2d_978 (MaxPooling2D (None, 10, 10, 128)  0           conv2d_978[0][0]                 
__________________________________________________________________________________________________
max_pooling2d_981 (MaxPooling2D (None, 10, 10, 128)  0           conv2d_981[0][0]                 
__________________________________________________________________________________________________
max_pooling2d_984 (MaxPooling2D (None, 10, 10, 128)  0           conv2d_984[0][0]                 
__________________________________________________________________________________________________
concatenate_57 (Concatenate)    (None, 10, 10, 640)  0           max_pooling2d_972[0][0]          
                                                                 max_pooling2d_975[0][0]          
                                                                 max_pooling2d_978[0][0]          
                                                                 max_pooling2d_981[0][0]          
                                                                 max_pooling2d_984[0][0]          
__________________________________________________________________________________________________
flatten_2337 (Flatten)          (None, 64000)        0           concatenate_57[0][0]             
__________________________________________________________________________________________________
dense_171 (Dense)               (None, 1024)         65537024    flatten_2337[0][0]               
__________________________________________________________________________________________________
dropout_114 (Dropout)           (None, 1024)         0           dense_171[0][0]                  
__________________________________________________________________________________________________
dense_172 (Dense)               (None, 1024)         1049600     dropout_114[0][0]                
__________________________________________________________________________________________________
dropout_115 (Dropout)           (None, 1024)         0           dense_172[0][0]                  
__________________________________________________________________________________________________
dense_173 (Dense)               (None, 5)            5125        dropout_115[0][0]                
==================================================================================================
Total params: 67,072,997
Trainable params: 67,072,997
Non-trainable params: 0
__________________________________________________________________________________________________
start loading dataset ...
load "Big" complete
load "Long" complete
load "Mitotic" complete
…
o avg': {'precision': 0.7909150607538116, 'recall': 0.7599967384213959, 'f1-score': 0.6832939140138, 'support': 260.0}, 'weighted avg': {'precision': 0.8255429228209297, 'recall': 0.7461538461538462, 'f1-score': 0.6918602705452312, 'support': 260.0}}
Model: "model_115"
__________________________________________________________________________________________________
Layer (type)                    Output Shape         Param #     Connected to                     
==================================================================================================
input_58 (InputLayer)           [(None, 150, 150, 7) 0                                            
__________________________________________________________________________________________________
lambda_285 (Lambda)             (None, 150, 150, 7)  0           input_58[0][0]                   
__________________________________________________________________________________________________
conv2d_969 (Conv2D)             (None, 150, 150, 32) 2048        lambda_285[0][0]                 
__________________________________________________________________________________________________
max_pooling2d_969 (MaxPooling2D (None, 75, 75, 32)   0           conv2d_969[0][0]                 
__________________________________________________________________________________________________
lambda_286 (Lambda)             (None, 75, 75, 7)    0           lambda_285[0][0]                 
__________________________________________________________________________________________________
lambda_287 (Lambda)             (None, 75, 75, 7)    0           lambda_285[0][0]                 
__________________________________________________________________________________________________
lambda_288 (Lambda)             (None, 75, 75, 7)    0           lambda_285[0][0]                 
__________________________________________________________________________________________________
lambda_289 (Lambda)             (None, 75, 75, 7)    0           lambda_285[0][0]                 
__________________________________________________________________________________________________
conv2d_970 (Conv2D)             (None, 75, 75, 32)   9248        max_pooling2d_969[0][0]          
__________________________________________________________________________________________________
conv2d_973 (Conv2D)             (None, 75, 75, 32)   2048        lambda_286[0][0]                 
__________________________________________________________________________________________________
conv2d_976 (Conv2D)             (None, 75, 75, 32)   2048        lambda_287[0][0]                 
__________________________________________________________________________________________________
conv2d_979 (Conv2D)             (None, 75, 75, 32)   2048        lambda_288[0][0]                 
__________________________________________________________________________________________________
conv2d_982 (Conv2D)             (None, 75, 75, 32)   2048        lambda_289[0][0]                 
__________________________________________________________________________________________________
max_pooling2d_970 (MaxPooling2D (None, 38, 38, 32)   0           conv2d_970[0][0]                 
__________________________________________________________________________________________________
max_pooling2d_973 (MaxPooling2D (None, 38, 38, 32)   0           conv2d_973[0][0]                 
__________________________________________________________________________________________________
max_pooling2d_976 (MaxPooling2D (None, 38, 38, 32)   0           conv2d_976[0][0]                 
__________________________________________________________________________________________________
max_pooling2d_979 (MaxPooling2D (None, 38, 38, 32)   0           conv2d_979[0][0]                 
__________________________________________________________________________________________________
max_pooling2d_982 (MaxPooling2D (None, 38, 38, 32)   0           conv2d_982[0][0]                 
__________________________________________________________________________________________________
conv2d_971 (Conv2D)             (None, 38, 38, 64)   18496       max_pooling2d_970[0][0]          
__________________________________________________________________________________________________
conv2d_974 (Conv2D)             (None, 38, 38, 64)   18496       max_pooling2d_973[0][0]          
__________________________________________________________________________________________________
conv2d_977 (Conv2D)             (None, 38, 38, 64)   18496       max_pooling2d_976[0][0]          
__________________________________________________________________________________________________
conv2d_980 (Conv2D)             (None, 38, 38, 64)   18496       max_pooling2d_979[0][0]          
__________________________________________________________________________________________________
conv2d_983 (Conv2D)             (None, 38, 38, 64)   18496       max_pooling2d_982[0][0]          
__________________________________________________________________________________________________
max_pooling2d_971 (MaxPooling2D (None, 19, 19, 64)   0           conv2d_971[0][0]                 
__________________________________________________________________________________________________
max_pooling2d_974 (MaxPooling2D (None, 19, 19, 64)   0           conv2d_974[0][0]                 
__________________________________________________________________________________________________
max_pooling2d_977 (MaxPooling2D (None, 19, 19, 64)   0           conv2d_977[0][0]                 
__________________________________________________________________________________________________
max_pooling2d_980 (MaxPooling2D (None, 19, 19, 64)   0           conv2d_980[0][0]                 
__________________________________________________________________________________________________
max_pooling2d_983 (MaxPooling2D (None, 19, 19, 64)   0           conv2d_983[0][0]                 
__________________________________________________________________________________________________
conv2d_972 (Conv2D)             (None, 19, 19, 128)  73856       max_pooling2d_971[0][0]          
__________________________________________________________________________________________________
conv2d_975 (Conv2D)             (None, 19, 19, 128)  73856       max_pooling2d_974[0][0]          
__________________________________________________________________________________________________
conv2d_978 (Conv2D)             (None, 19, 19, 128)  73856       max_pooling2d_977[0][0]          
__________________________________________________________________________________________________
conv2d_981 (Conv2D)             (None, 19, 19, 128)  73856       max_pooling2d_980[0][0]          
__________________________________________________________________________________________________
conv2d_984 (Conv2D)             (None, 19, 19, 128)  73856       max_pooling2d_983[0][0]          
__________________________________________________________________________________________________
max_pooling2d_972 (MaxPooling2D (None, 10, 10, 128)  0           conv2d_972[0][0]                 
__________________________________________________________________________________________________
max_pooling2d_975 (MaxPooling2D (None, 10, 10, 128)  0           conv2d_975[0][0]                 
__________________________________________________________________________________________________
max_pooling2d_978 (MaxPooling2D (None, 10, 10, 128)  0           conv2d_978[0][0]                 
__________________________________________________________________________________________________
max_pooling2d_981 (MaxPooling2D (None, 10, 10, 128)  0           conv2d_981[0][0]                 
__________________________________________________________________________________________________
max_pooling2d_984 (MaxPooling2D (None, 10, 10, 128)  0           conv2d_984[0][0]                 
__________________________________________________________________________________________________
concatenate_57 (Concatenate)    (None, 10, 10, 640)  0           max_pooling2d_972[0][0]          
                                                                 max_pooling2d_975[0][0]          
                                                                 max_pooling2d_978[0][0]          
                                                                 max_pooling2d_981[0][0]          
                                                                 max_pooling2d_984[0][0]          
__________________________________________________________________________________________________
flatten_2337 (Flatten)          (None, 64000)        0           concatenate_57[0][0]             
==================================================================================================
Total params: 481,248
Trainable params: 481,248
Non-trainable params: 0
__________________________________________________________________________________________________
get cnn model
(1052, 64000)
[211.26218  464.18826    0.         0.        38.097664   0.
…
