program start
seed set
[PhysicalDevice(name='/physical_device:GPU:0', device_type='GPU')]
Model: "model_116"
__________________________________________________________________________________________________
Layer (type)                    Output Shape         Param #     Connected to                     
==================================================================================================
input_59 (InputLayer)           [(None, 150, 150, 7) 0                                            
__________________________________________________________________________________________________
lambda_290 (Lambda)             (None, 150, 150, 7)  0           input_59[0][0]                   
__________________________________________________________________________________________________
conv2d_986 (Conv2D)             (None, 150, 150, 32) 2048        lambda_290[0][0]                 
__________________________________________________________________________________________________
max_pooling2d_986 (MaxPooling2D (None, 75, 75, 32)   0           conv2d_986[0][0]                 
__________________________________________________________________________________________________
lambda_291 (Lambda)             (None, 75, 75, 7)    0           lambda_290[0][0]                 
__________________________________________________________________________________________________
lambda_292 (Lambda)             (None, 75, 75, 7)    0           lambda_290[0][0]                 
__________________________________________________________________________________________________
lambda_293 (Lambda)             (None, 75, 75, 7)    0           lambda_290[0][0]                 
__________________________________________________________________________________________________
lambda_294 (Lambda)             (None, 75, 75, 7)    0           lambda_290[0][0]                 
__________________________________________________________________________________________________
conv2d_987 (Conv2D)             (None, 75, 75, 32)   9248        max_pooling2d_986[0][0]          
__________________________________________________________________________________________________
conv2d_990 (Conv2D)             (None, 75, 75, 32)   2048        lambda_291[0][0]                 
__________________________________________________________________________________________________
conv2d_993 (Conv2D)             (None, 75, 75, 32)   2048        lambda_292[0][0]                 
__________________________________________________________________________________________________
conv2d_996 (Conv2D)             (None, 75, 75, 32)   2048        lambda_293[0][0]                 
__________________________________________________________________________________________________
conv2d_999 (Conv2D)             (None, 75, 75, 32)   2048        lambda_294[0][0]                 
__________________________________________________________________________________________________
max_pooling2d_987 (MaxPooling2D (None, 38, 38, 32)   0           conv2d_987[0][0]                 
__________________________________________________________________________________________________
max_pooling2d_990 (MaxPooling2D (None, 38, 38, 32)   0           conv2d_990[0][0]                 
__________________________________________________________________________________________________
max_pooling2d_993 (MaxPooling2D (None, 38, 38, 32)   0           conv2d_993[0][0]                 
__________________________________________________________________________________________________
max_pooling2d_996 (MaxPooling2D (None, 38, 38, 32)   0           conv2d_996[0][0]                 
__________________________________________________________________________________________________
max_pooling2d_999 (MaxPooling2D (None, 38, 38, 32)   0           conv2d_999[0][0]                 
__________________________________________________________________________________________________
conv2d_988 (Conv2D)             (None, 38, 38, 64)   18496       max_pooling2d_987[0][0]          
__________________________________________________________________________________________________
conv2d_991 (Conv2D)             (None, 38, 38, 64)   18496       max_pooling2d_990[0][0]          
__________________________________________________________________________________________________
conv2d_994 (Conv2D)             (None, 38, 38, 64)   18496       max_pooling2d_993[0][0]          
__________________________________________________________________________________________________
conv2d_997 (Conv2D)             (None, 38, 38, 64)   18496       max_pooling2d_996[0][0]          
__________________________________________________________________________________________________
conv2d_1000 (Conv2D)            (None, 38, 38, 64)   18496       max_pooling2d_999[0][0]          
__________________________________________________________________________________________________
max_pooling2d_988 (MaxPooling2D (None, 19, 19, 64)   0           conv2d_988[0][0]                 
__________________________________________________________________________________________________
max_pooling2d_991 (MaxPooling2D (None, 19, 19, 64)   0           conv2d_991[0][0]                 
__________________________________________________________________________________________________
max_pooling2d_994 (MaxPooling2D (None, 19, 19, 64)   0           conv2d_994[0][0]                 
__________________________________________________________________________________________________
max_pooling2d_997 (MaxPooling2D (None, 19, 19, 64)   0           conv2d_997[0][0]                 
__________________________________________________________________________________________________
max_pooling2d_1000 (MaxPooling2 (None, 19, 19, 64)   0           conv2d_1000[0][0]                
__________________________________________________________________________________________________
conv2d_989 (Conv2D)             (None, 19, 19, 128)  73856       max_pooling2d_988[0][0]          
__________________________________________________________________________________________________
conv2d_992 (Conv2D)             (None, 19, 19, 128)  73856       max_pooling2d_991[0][0]          
__________________________________________________________________________________________________
conv2d_995 (Conv2D)             (None, 19, 19, 128)  73856       max_pooling2d_994[0][0]          
__________________________________________________________________________________________________
conv2d_998 (Conv2D)             (None, 19, 19, 128)  73856       max_pooling2d_997[0][0]          
__________________________________________________________________________________________________
conv2d_1001 (Conv2D)            (None, 19, 19, 128)  73856       max_pooling2d_1000[0][0]         
__________________________________________________________________________________________________
max_pooling2d_989 (MaxPooling2D (None, 10, 10, 128)  0           conv2d_989[0][0]                 
__________________________________________________________________________________________________
max_pooling2d_992 (MaxPooling2D (None, 10, 10, 128)  0           conv2d_992[0][0]                 
__________________________________________________________________________________________________
max_pooling2d_995 (MaxPooling2D (None, 10, 10, 128)  0           conv2d_995[0][0]                 
__________________________________________________________________________________________________
max_pooling2d_998 (MaxPooling2D (None, 10, 10, 128)  0           conv2d_998[0][0]                 
__________________________________________________________________________________________________
max_pooling2d_1001 (MaxPooling2 (None, 10, 10, 128)  0           conv2d_1001[0][0]                
__________________________________________________________________________________________________
concatenate_58 (Concatenate)    (None, 10, 10, 640)  0           max_pooling2d_989[0][0]          
                                                                 max_pooling2d_992[0][0]          
                                                                 max_pooling2d_995[0][0]          
                                                                 max_pooling2d_998[0][0]          
                                                                 max_pooling2d_1001[0][0]         
__________________________________________________________________________________________________
flatten_2378 (Flatten)          (None, 64000)        0           concatenate_58[0][0]             
__________________________________________________________________________________________________
dense_174 (Dense)               (None, 1024)         65537024    flatten_2378[0][0]               
__________________________________________________________________________________________________
dropout_116 (Dropout)           (None, 1024)         0           dense_174[0][0]                  
__________________________________________________________________________________________________
dense_175 (Dense)               (None, 1024)         1049600     dropout_116[0][0]                
__________________________________________________________________________________________________
dropout_117 (Dropout)           (None, 1024)         0           dense_175[0][0]                  
__________________________________________________________________________________________________
dense_176 (Dense)               (None, 5)            5125        dropout_117[0][0]                
==================================================================================================
Total params: 67,072,997
Trainable params: 67,072,997
Non-trainable params: 0
__________________________________________________________________________________________________
start loading dataset ...
load "Big" complete
load "Long" complete
load "Mitotic" complete
…
0.75, 'macro avg': {'precision': 0.8180316661214302, 'recall': 0.7571828856075431, 'f1-score': 0.6914363898804126, 'support': 260.0}, 'weighted avg': {'precision': 0.8349806808046013, 'recall': 0.75, 'f1-score': 0.6928291833371384, 'support': 260.0}}
Model: "model_117"
__________________________________________________________________________________________________
Layer (type)                    Output Shape         Param #     Connected to                     
==================================================================================================
input_59 (InputLayer)           [(None, 150, 150, 7) 0                                            
__________________________________________________________________________________________________
lambda_290 (Lambda)             (None, 150, 150, 7)  0           input_59[0][0]                   
__________________________________________________________________________________________________
conv2d_986 (Conv2D)             (None, 150, 150, 32) 2048        lambda_290[0][0]                 
__________________________________________________________________________________________________
max_pooling2d_986 (MaxPooling2D (None, 75, 75, 32)   0           conv2d_986[0][0]                 
__________________________________________________________________________________________________
lambda_291 (Lambda)             (None, 75, 75, 7)    0           lambda_290[0][0]                 
__________________________________________________________________________________________________
lambda_292 (Lambda)             (None, 75, 75, 7)    0           lambda_290[0][0]                 
__________________________________________________________________________________________________
lambda_293 (Lambda)             (None, 75, 75, 7)    0           lambda_290[0][0]                 
__________________________________________________________________________________________________
lambda_294 (Lambda)             (None, 75, 75, 7)    0           lambda_290[0][0]                 
__________________________________________________________________________________________________
conv2d_987 (Conv2D)             (None, 75, 75, 32)   9248        max_pooling2d_986[0][0]          
__________________________________________________________________________________________________
conv2d_990 (Conv2D)             (None, 75, 75, 32)   2048        lambda_291[0][0]                 
__________________________________________________________________________________________________
conv2d_993 (Conv2D)             (None, 75, 75, 32)   2048        lambda_292[0][0]                 
__________________________________________________________________________________________________
conv2d_996 (Conv2D)             (None, 75, 75, 32)   2048        lambda_293[0][0]                 
__________________________________________________________________________________________________
conv2d_999 (Conv2D)             (None, 75, 75, 32)   2048        lambda_294[0][0]                 
__________________________________________________________________________________________________
max_pooling2d_987 (MaxPooling2D (None, 38, 38, 32)   0           conv2d_987[0][0]                 
__________________________________________________________________________________________________
max_pooling2d_990 (MaxPooling2D (None, 38, 38, 32)   0           conv2d_990[0][0]                 
__________________________________________________________________________________________________
max_pooling2d_993 (MaxPooling2D (None, 38, 38, 32)   0           conv2d_993[0][0]                 
__________________________________________________________________________________________________
max_pooling2d_996 (MaxPooling2D (None, 38, 38, 32)   0           conv2d_996[0][0]                 
__________________________________________________________________________________________________
max_pooling2d_999 (MaxPooling2D (None, 38, 38, 32)   0           conv2d_999[0][0]                 
__________________________________________________________________________________________________
conv2d_988 (Conv2D)             (None, 38, 38, 64)   18496       max_pooling2d_987[0][0]          
__________________________________________________________________________________________________
conv2d_991 (Conv2D)             (None, 38, 38, 64)   18496       max_pooling2d_990[0][0]          
__________________________________________________________________________________________________
conv2d_994 (Conv2D)             (None, 38, 38, 64)   18496       max_pooling2d_993[0][0]          
__________________________________________________________________________________________________
conv2d_997 (Conv2D)             (None, 38, 38, 64)   18496       max_pooling2d_996[0][0]          
__________________________________________________________________________________________________
conv2d_1000 (Conv2D)            (None, 38, 38, 64)   18496       max_pooling2d_999[0][0]          
__________________________________________________________________________________________________
max_pooling2d_988 (MaxPooling2D (None, 19, 19, 64)   0           conv2d_988[0][0]                 
__________________________________________________________________________________________________
max_pooling2d_991 (MaxPooling2D (None, 19, 19, 64)   0           conv2d_991[0][0]                 
__________________________________________________________________________________________________
max_pooling2d_994 (MaxPooling2D (None, 19, 19, 64)   0           conv2d_994[0][0]                 
__________________________________________________________________________________________________
max_pooling2d_997 (MaxPooling2D (None, 19, 19, 64)   0           conv2d_997[0][0]                 
__________________________________________________________________________________________________
max_pooling2d_1000 (MaxPooling2 (None, 19, 19, 64)   0           conv2d_1000[0][0]                
__________________________________________________________________________________________________
conv2d_989 (Conv2D)             (None, 19, 19, 128)  73856       max_pooling2d_988[0][0]          
__________________________________________________________________________________________________
conv2d_992 (Conv2D)             (None, 19, 19, 128)  73856       max_pooling2d_991[0][0]          
__________________________________________________________________________________________________
conv2d_995 (Conv2D)             (None, 19, 19, 128)  73856       max_pooling2d_994[0][0]          
__________________________________________________________________________________________________
conv2d_998 (Conv2D)             (None, 19, 19, 128)  73856       max_pooling2d_997[0][0]          
__________________________________________________________________________________________________
conv2d_1001 (Conv2D)            (None, 19, 19, 128)  73856       max_pooling2d_1000[0][0]         
__________________________________________________________________________________________________
max_pooling2d_989 (MaxPooling2D (None, 10, 10, 128)  0           conv2d_989[0][0]                 
__________________________________________________________________________________________________
max_pooling2d_992 (MaxPooling2D (None, 10, 10, 128)  0           conv2d_992[0][0]                 
__________________________________________________________________________________________________
max_pooling2d_995 (MaxPooling2D (None, 10, 10, 128)  0           conv2d_995[0][0]                 
__________________________________________________________________________________________________
max_pooling2d_998 (MaxPooling2D (None, 10, 10, 128)  0           conv2d_998[0][0]                 
__________________________________________________________________________________________________
max_pooling2d_1001 (MaxPooling2 (None, 10, 10, 128)  0           conv2d_1001[0][0]                
__________________________________________________________________________________________________
concatenate_58 (Concatenate)    (None, 10, 10, 640)  0           max_pooling2d_989[0][0]          
                                                                 max_pooling2d_992[0][0]          
                                                                 max_pooling2d_995[0][0]          
                                                                 max_pooling2d_998[0][0]          
                                                                 max_pooling2d_1001[0][0]         
__________________________________________________________________________________________________
flatten_2378 (Flatten)          (None, 64000)        0           concatenate_58[0][0]             
==================================================================================================
Total params: 481,248
Trainable params: 481,248
Non-trainable params: 0
__________________________________________________________________________________________________
get cnn model
(1052, 64000)
[ 62.210766  376.27423   121.842094   55.836662   19.229156   47.141426
…
