program start
seed set
[PhysicalDevice(name='/physical_device:GPU:0', device_type='GPU')]
Model: "model_10"
__________________________________________________________________________________________________
Layer (type)                    Output Shape         Param #     Connected to                     
==================================================================================================
input_6 (InputLayer)            [(None, 150, 150, 7) 0                                            
__________________________________________________________________________________________________
lambda_25 (Lambda)              (None, 150, 150, 7)  0           input_6[0][0]                    
__________________________________________________________________________________________________
conv2d_85 (Conv2D)              (None, 150, 150, 32) 2048        lambda_25[0][0]                  
__________________________________________________________________________________________________
max_pooling2d_85 (MaxPooling2D) (None, 75, 75, 32)   0           conv2d_85[0][0]                  
__________________________________________________________________________________________________
lambda_26 (Lambda)              (None, 75, 75, 7)    0           lambda_25[0][0]                  
__________________________________________________________________________________________________
lambda_27 (Lambda)              (None, 75, 75, 7)    0           lambda_25[0][0]                  
__________________________________________________________________________________________________
lambda_28 (Lambda)              (None, 75, 75, 7)    0           lambda_25[0][0]                  
__________________________________________________________________________________________________
lambda_29 (Lambda)              (None, 75, 75, 7)    0           lambda_25[0][0]                  
__________________________________________________________________________________________________
conv2d_86 (Conv2D)              (None, 75, 75, 32)   9248        max_pooling2d_85[0][0]           
__________________________________________________________________________________________________
conv2d_89 (Conv2D)              (None, 75, 75, 32)   2048        lambda_26[0][0]                  
__________________________________________________________________________________________________
conv2d_92 (Conv2D)              (None, 75, 75, 32)   2048        lambda_27[0][0]                  
__________________________________________________________________________________________________
conv2d_95 (Conv2D)              (None, 75, 75, 32)   2048        lambda_28[0][0]                  
__________________________________________________________________________________________________
conv2d_98 (Conv2D)              (None, 75, 75, 32)   2048        lambda_29[0][0]                  
__________________________________________________________________________________________________
max_pooling2d_86 (MaxPooling2D) (None, 38, 38, 32)   0           conv2d_86[0][0]                  
__________________________________________________________________________________________________
max_pooling2d_89 (MaxPooling2D) (None, 38, 38, 32)   0           conv2d_89[0][0]                  
__________________________________________________________________________________________________
max_pooling2d_92 (MaxPooling2D) (None, 38, 38, 32)   0           conv2d_92[0][0]                  
__________________________________________________________________________________________________
max_pooling2d_95 (MaxPooling2D) (None, 38, 38, 32)   0           conv2d_95[0][0]                  
__________________________________________________________________________________________________
max_pooling2d_98 (MaxPooling2D) (None, 38, 38, 32)   0           conv2d_98[0][0]                  
__________________________________________________________________________________________________
conv2d_87 (Conv2D)              (None, 38, 38, 64)   18496       max_pooling2d_86[0][0]           
__________________________________________________________________________________________________
conv2d_90 (Conv2D)              (None, 38, 38, 64)   18496       max_pooling2d_89[0][0]           
__________________________________________________________________________________________________
conv2d_93 (Conv2D)              (None, 38, 38, 64)   18496       max_pooling2d_92[0][0]           
__________________________________________________________________________________________________
conv2d_96 (Conv2D)              (None, 38, 38, 64)   18496       max_pooling2d_95[0][0]           
__________________________________________________________________________________________________
conv2d_99 (Conv2D)              (None, 38, 38, 64)   18496       max_pooling2d_98[0][0]           
__________________________________________________________________________________________________
max_pooling2d_87 (MaxPooling2D) (None, 19, 19, 64)   0           conv2d_87[0][0]                  
__________________________________________________________________________________________________
max_pooling2d_90 (MaxPooling2D) (None, 19, 19, 64)   0           conv2d_90[0][0]                  
__________________________________________________________________________________________________
max_pooling2d_93 (MaxPooling2D) (None, 19, 19, 64)   0           conv2d_93[0][0]                  
__________________________________________________________________________________________________
max_pooling2d_96 (MaxPooling2D) (None, 19, 19, 64)   0           conv2d_96[0][0]                  
__________________________________________________________________________________________________
max_pooling2d_99 (MaxPooling2D) (None, 19, 19, 64)   0           conv2d_99[0][0]                  
__________________________________________________________________________________________________
conv2d_88 (Conv2D)              (None, 19, 19, 128)  73856       max_pooling2d_87[0][0]           
__________________________________________________________________________________________________
conv2d_91 (Conv2D)              (None, 19, 19, 128)  73856       max_pooling2d_90[0][0]           
__________________________________________________________________________________________________
conv2d_94 (Conv2D)              (None, 19, 19, 128)  73856       max_pooling2d_93[0][0]           
__________________________________________________________________________________________________
conv2d_97 (Conv2D)              (None, 19, 19, 128)  73856       max_pooling2d_96[0][0]           
__________________________________________________________________________________________________
conv2d_100 (Conv2D)             (None, 19, 19, 128)  73856       max_pooling2d_99[0][0]           
__________________________________________________________________________________________________
max_pooling2d_88 (MaxPooling2D) (None, 10, 10, 128)  0           conv2d_88[0][0]                  
__________________________________________________________________________________________________
max_pooling2d_91 (MaxPooling2D) (None, 10, 10, 128)  0           conv2d_91[0][0]                  
__________________________________________________________________________________________________
max_pooling2d_94 (MaxPooling2D) (None, 10, 10, 128)  0           conv2d_94[0][0]                  
__________________________________________________________________________________________________
max_pooling2d_97 (MaxPooling2D) (None, 10, 10, 128)  0           conv2d_97[0][0]                  
__________________________________________________________________________________________________
max_pooling2d_100 (MaxPooling2D (None, 10, 10, 128)  0           conv2d_100[0][0]                 
__________________________________________________________________________________________________
concatenate_5 (Concatenate)     (None, 10, 10, 640)  0           max_pooling2d_88[0][0]           
                                                                 max_pooling2d_91[0][0]           
                                                                 max_pooling2d_94[0][0]           
                                                                 max_pooling2d_97[0][0]           
                                                                 max_pooling2d_100[0][0]          
__________________________________________________________________________________________________
flatten_205 (Flatten)           (None, 64000)        0           concatenate_5[0][0]              
__________________________________________________________________________________________________
dense_15 (Dense)                (None, 1024)         65537024    flatten_205[0][0]                
__________________________________________________________________________________________________
dropout_10 (Dropout)            (None, 1024)         0           dense_15[0][0]                   
__________________________________________________________________________________________________
dense_16 (Dense)                (None, 1024)         1049600     dropout_10[0][0]                 
__________________________________________________________________________________________________
dropout_11 (Dropout)            (None, 1024)         0           dense_16[0][0]                   
__________________________________________________________________________________________________
dense_17 (Dense)                (None, 5)            5125        dropout_11[0][0]                 
==================================================================================================
Total params: 67,072,997
Trainable params: 67,072,997
Non-trainable params: 0
__________________________________________________________________________________________________
start loading dataset ...
load "Big" complete
load "Long" complete
load "Mitotic" complete
…
avg': {'precision': 0.8287058932628554, 'recall': 0.7338062622309198, 'f1-score': 0.6756968607825733, 'support': 260.0}, 'weighted avg': {'precision': 0.8355622550121089, 'recall': 0.7423076923076923, 'f1-score': 0.6819010487700877, 'support': 260.0}}
Model: "model_11"
__________________________________________________________________________________________________
Layer (type)                    Output Shape         Param #     Connected to                     
==================================================================================================
input_6 (InputLayer)            [(None, 150, 150, 7) 0                                            
__________________________________________________________________________________________________
lambda_25 (Lambda)              (None, 150, 150, 7)  0           input_6[0][0]                    
__________________________________________________________________________________________________
conv2d_85 (Conv2D)              (None, 150, 150, 32) 2048        lambda_25[0][0]                  
__________________________________________________________________________________________________
max_pooling2d_85 (MaxPooling2D) (None, 75, 75, 32)   0           conv2d_85[0][0]                  
__________________________________________________________________________________________________
lambda_26 (Lambda)              (None, 75, 75, 7)    0           lambda_25[0][0]                  
__________________________________________________________________________________________________
lambda_27 (Lambda)              (None, 75, 75, 7)    0           lambda_25[0][0]                  
__________________________________________________________________________________________________
lambda_28 (Lambda)              (None, 75, 75, 7)    0           lambda_25[0][0]                  
__________________________________________________________________________________________________
lambda_29 (Lambda)              (None, 75, 75, 7)    0           lambda_25[0][0]                  
__________________________________________________________________________________________________
conv2d_86 (Conv2D)              (None, 75, 75, 32)   9248        max_pooling2d_85[0][0]           
__________________________________________________________________________________________________
conv2d_89 (Conv2D)              (None, 75, 75, 32)   2048        lambda_26[0][0]                  
__________________________________________________________________________________________________
conv2d_92 (Conv2D)              (None, 75, 75, 32)   2048        lambda_27[0][0]                  
__________________________________________________________________________________________________
conv2d_95 (Conv2D)              (None, 75, 75, 32)   2048        lambda_28[0][0]                  
__________________________________________________________________________________________________
conv2d_98 (Conv2D)              (None, 75, 75, 32)   2048        lambda_29[0][0]                  
__________________________________________________________________________________________________
max_pooling2d_86 (MaxPooling2D) (None, 38, 38, 32)   0           conv2d_86[0][0]                  
__________________________________________________________________________________________________
max_pooling2d_89 (MaxPooling2D) (None, 38, 38, 32)   0           conv2d_89[0][0]                  
__________________________________________________________________________________________________
max_pooling2d_92 (MaxPooling2D) (None, 38, 38, 32)   0           conv2d_92[0][0]                  
__________________________________________________________________________________________________
max_pooling2d_95 (MaxPooling2D) (None, 38, 38, 32)   0           conv2d_95[0][0]                  
__________________________________________________________________________________________________
max_pooling2d_98 (MaxPooling2D) (None, 38, 38, 32)   0           conv2d_98[0][0]                  
__________________________________________________________________________________________________
conv2d_87 (Conv2D)              (None, 38, 38, 64)   18496       max_pooling2d_86[0][0]           
__________________________________________________________________________________________________
conv2d_90 (Conv2D)              (None, 38, 38, 64)   18496       max_pooling2d_89[0][0]           
__________________________________________________________________________________________________
conv2d_93 (Conv2D)              (None, 38, 38, 64)   18496       max_pooling2d_92[0][0]           
__________________________________________________________________________________________________
conv2d_96 (Conv2D)              (None, 38, 38, 64)   18496       max_pooling2d_95[0][0]           
__________________________________________________________________________________________________
conv2d_99 (Conv2D)              (None, 38, 38, 64)   18496       max_pooling2d_98[0][0]           
__________________________________________________________________________________________________
max_pooling2d_87 (MaxPooling2D) (None, 19, 19, 64)   0           conv2d_87[0][0]                  
__________________________________________________________________________________________________
max_pooling2d_90 (MaxPooling2D) (None, 19, 19, 64)   0           conv2d_90[0][0]                  
__________________________________________________________________________________________________
max_pooling2d_93 (MaxPooling2D) (None, 19, 19, 64)   0           conv2d_93[0][0]                  
__________________________________________________________________________________________________
max_pooling2d_96 (MaxPooling2D) (None, 19, 19, 64)   0           conv2d_96[0][0]                  
__________________________________________________________________________________________________
max_pooling2d_99 (MaxPooling2D) (None, 19, 19, 64)   0           conv2d_99[0][0]                  
__________________________________________________________________________________________________
conv2d_88 (Conv2D)              (None, 19, 19, 128)  73856       max_pooling2d_87[0][0]           
__________________________________________________________________________________________________
conv2d_91 (Conv2D)              (None, 19, 19, 128)  73856       max_pooling2d_90[0][0]           
__________________________________________________________________________________________________
conv2d_94 (Conv2D)              (None, 19, 19, 128)  73856       max_pooling2d_93[0][0]           
__________________________________________________________________________________________________
conv2d_97 (Conv2D)              (None, 19, 19, 128)  73856       max_pooling2d_96[0][0]           
__________________________________________________________________________________________________
conv2d_100 (Conv2D)             (None, 19, 19, 128)  73856       max_pooling2d_99[0][0]           
__________________________________________________________________________________________________
max_pooling2d_88 (MaxPooling2D) (None, 10, 10, 128)  0           conv2d_88[0][0]                  
__________________________________________________________________________________________________
max_pooling2d_91 (MaxPooling2D) (None, 10, 10, 128)  0           conv2d_91[0][0]                  
__________________________________________________________________________________________________
max_pooling2d_94 (MaxPooling2D) (None, 10, 10, 128)  0           conv2d_94[0][0]                  
__________________________________________________________________________________________________
max_pooling2d_97 (MaxPooling2D) (None, 10, 10, 128)  0           conv2d_97[0][0]                  
__________________________________________________________________________________________________
max_pooling2d_100 (MaxPooling2D (None, 10, 10, 128)  0           conv2d_100[0][0]                 
__________________________________________________________________________________________________
concatenate_5 (Concatenate)     (None, 10, 10, 640)  0           max_pooling2d_88[0][0]           
                                                                 max_pooling2d_91[0][0]           
                                                                 max_pooling2d_94[0][0]           
                                                                 max_pooling2d_97[0][0]           
                                                                 max_pooling2d_100[0][0]          
__________________________________________________________________________________________________
flatten_205 (Flatten)           (None, 64000)        0           concatenate_5[0][0]              
==================================================================================================
Total params: 481,248
Trainable params: 481,248
Non-trainable params: 0
__________________________________________________________________________________________________
get cnn model
(1052, 64000)
[129.97278    0.       126.337364 134.52438  192.00363    0.
…
