program start
seed set
[PhysicalDevice(name='/physical_device:GPU:0', device_type='GPU')]
Model: "model_118"
__________________________________________________________________________________________________
Layer (type)                    Output Shape         Param #     Connected to                     
==================================================================================================
input_60 (InputLayer)           [(None, 150, 150, 7) 0                                            
__________________________________________________________________________________________________
lambda_295 (Lambda)             (None, 150, 150, 7)  0           input_60[0][0]                   
__________________________________________________________________________________________________
conv2d_1003 (Conv2D)            (None, 150, 150, 32) 2048        lambda_295[0][0]                 
__________________________________________________________________________________________________
max_pooling2d_1003 (MaxPooling2 (None, 75, 75, 32)   0           conv2d_1003[0][0]                
__________________________________________________________________________________________________
lambda_296 (Lambda)             (None, 75, 75, 7)    0           lambda_295[0][0]                 
__________________________________________________________________________________________________
lambda_297 (Lambda)             (None, 75, 75, 7)    0           lambda_295[0][0]                 
__________________________________________________________________________________________________
lambda_298 (Lambda)             (None, 75, 75, 7)    0           lambda_295[0][0]                 
__________________________________________________________________________________________________
lambda_299 (Lambda)             (None, 75, 75, 7)    0           lambda_295[0][0]                 
__________________________________________________________________________________________________
conv2d_1004 (Conv2D)            (None, 75, 75, 32)   9248        max_pooling2d_1003[0][0]         
__________________________________________________________________________________________________
conv2d_1007 (Conv2D)            (None, 75, 75, 32)   2048        lambda_296[0][0]                 
__________________________________________________________________________________________________
conv2d_1010 (Conv2D)            (None, 75, 75, 32)   2048        lambda_297[0][0]                 
__________________________________________________________________________________________________
conv2d_1013 (Conv2D)            (None, 75, 75, 32)   2048        lambda_298[0][0]                 
__________________________________________________________________________________________________
conv2d_1016 (Conv2D)            (None, 75, 75, 32)   2048        lambda_299[0][0]                 
__________________________________________________________________________________________________
max_pooling2d_1004 (MaxPooling2 (None, 38, 38, 32)   0           conv2d_1004[0][0]                
__________________________________________________________________________________________________
max_pooling2d_1007 (MaxPooling2 (None, 38, 38, 32)   0           conv2d_1007[0][0]                
__________________________________________________________________________________________________
max_pooling2d_1010 (MaxPooling2 (None, 38, 38, 32)   0           conv2d_1010[0][0]                
__________________________________________________________________________________________________
max_pooling2d_1013 (MaxPooling2 (None, 38, 38, 32)   0           conv2d_1013[0][0]                
__________________________________________________________________________________________________
max_pooling2d_1016 (MaxPooling2 (None, 38, 38, 32)   0           conv2d_1016[0][0]                
__________________________________________________________________________________________________
conv2d_1005 (Conv2D)            (None, 38, 38, 64)   18496       max_pooling2d_1004[0][0]         
__________________________________________________________________________________________________
conv2d_1008 (Conv2D)            (None, 38, 38, 64)   18496       max_pooling2d_1007[0][0]         
__________________________________________________________________________________________________
conv2d_1011 (Conv2D)            (None, 38, 38, 64)   18496       max_pooling2d_1010[0][0]         
__________________________________________________________________________________________________
conv2d_1014 (Conv2D)            (None, 38, 38, 64)   18496       max_pooling2d_1013[0][0]         
__________________________________________________________________________________________________
conv2d_1017 (Conv2D)            (None, 38, 38, 64)   18496       max_pooling2d_1016[0][0]         
__________________________________________________________________________________________________
max_pooling2d_1005 (MaxPooling2 (None, 19, 19, 64)   0           conv2d_1005[0][0]                
__________________________________________________________________________________________________
max_pooling2d_1008 (MaxPooling2 (None, 19, 19, 64)   0           conv2d_1008[0][0]                
__________________________________________________________________________________________________
max_pooling2d_1011 (MaxPooling2 (None, 19, 19, 64)   0           conv2d_1011[0][0]                
__________________________________________________________________________________________________
max_pooling2d_1014 (MaxPooling2 (None, 19, 19, 64)   0           conv2d_1014[0][0]                
__________________________________________________________________________________________________
max_pooling2d_1017 (MaxPooling2 (None, 19, 19, 64)   0           conv2d_1017[0][0]                
__________________________________________________________________________________________________
conv2d_1006 (Conv2D)            (None, 19, 19, 128)  73856       max_pooling2d_1005[0][0]         
__________________________________________________________________________________________________
conv2d_1009 (Conv2D)            (None, 19, 19, 128)  73856       max_pooling2d_1008[0][0]         
__________________________________________________________________________________________________
conv2d_1012 (Conv2D)            (None, 19, 19, 128)  73856       max_pooling2d_1011[0][0]         
__________________________________________________________________________________________________
conv2d_1015 (Conv2D)            (None, 19, 19, 128)  73856       max_pooling2d_1014[0][0]         
__________________________________________________________________________________________________
conv2d_1018 (Conv2D)            (None, 19, 19, 128)  73856       max_pooling2d_1017[0][0]         
__________________________________________________________________________________________________
max_pooling2d_1006 (MaxPooling2 (None, 10, 10, 128)  0           conv2d_1006[0][0]                
__________________________________________________________________________________________________
max_pooling2d_1009 (MaxPooling2 (None, 10, 10, 128)  0           conv2d_1009[0][0]                
__________________________________________________________________________________________________
max_pooling2d_1012 (MaxPooling2 (None, 10, 10, 128)  0           conv2d_1012[0][0]                
__________________________________________________________________________________________________
max_pooling2d_1015 (MaxPooling2 (None, 10, 10, 128)  0           conv2d_1015[0][0]                
__________________________________________________________________________________________________
max_pooling2d_1018 (MaxPooling2 (None, 10, 10, 128)  0           conv2d_1018[0][0]                
__________________________________________________________________________________________________
concatenate_59 (Concatenate)    (None, 10, 10, 640)  0           max_pooling2d_1006[0][0]         
                                                                 max_pooling2d_1009[0][0]         
                                                                 max_pooling2d_1012[0][0]         
                                                                 max_pooling2d_1015[0][0]         
                                                                 max_pooling2d_1018[0][0]         
__________________________________________________________________________________________________
flatten_2419 (Flatten)          (None, 64000)        0           concatenate_59[0][0]             
__________________________________________________________________________________________________
dense_177 (Dense)               (None, 1024)         65537024    flatten_2419[0][0]               
__________________________________________________________________________________________________
dropout_118 (Dropout)           (None, 1024)         0           dense_177[0][0]                  
__________________________________________________________________________________________________
dense_178 (Dense)               (None, 1024)         1049600     dropout_118[0][0]                
__________________________________________________________________________________________________
dropout_119 (Dropout)           (None, 1024)         0           dense_178[0][0]                  
__________________________________________________________________________________________________
dense_179 (Dense)               (None, 5)            5125        dropout_119[0][0]                
==================================================================================================
Total params: 67,072,997
Trainable params: 67,072,997
Non-trainable params: 0
__________________________________________________________________________________________________
start loading dataset ...
load "Big" complete
load "Long" complete
load "Mitotic" complete
…
 avg': {'precision': 0.7890785328130034, 'recall': 0.773091976516634, 'f1-score': 0.7226932005453323, 'support': 260.0}, 'weighted avg': {'precision': 0.8193003999553845, 'recall': 0.7615384615384615, 'f1-score': 0.732185144872056, 'support': 260.0}}
Model: "model_119"
__________________________________________________________________________________________________
Layer (type)                    Output Shape         Param #     Connected to                     
==================================================================================================
input_60 (InputLayer)           [(None, 150, 150, 7) 0                                            
__________________________________________________________________________________________________
lambda_295 (Lambda)             (None, 150, 150, 7)  0           input_60[0][0]                   
__________________________________________________________________________________________________
conv2d_1003 (Conv2D)            (None, 150, 150, 32) 2048        lambda_295[0][0]                 
__________________________________________________________________________________________________
max_pooling2d_1003 (MaxPooling2 (None, 75, 75, 32)   0           conv2d_1003[0][0]                
__________________________________________________________________________________________________
lambda_296 (Lambda)             (None, 75, 75, 7)    0           lambda_295[0][0]                 
__________________________________________________________________________________________________
lambda_297 (Lambda)             (None, 75, 75, 7)    0           lambda_295[0][0]                 
__________________________________________________________________________________________________
lambda_298 (Lambda)             (None, 75, 75, 7)    0           lambda_295[0][0]                 
__________________________________________________________________________________________________
lambda_299 (Lambda)             (None, 75, 75, 7)    0           lambda_295[0][0]                 
__________________________________________________________________________________________________
conv2d_1004 (Conv2D)            (None, 75, 75, 32)   9248        max_pooling2d_1003[0][0]         
__________________________________________________________________________________________________
conv2d_1007 (Conv2D)            (None, 75, 75, 32)   2048        lambda_296[0][0]                 
__________________________________________________________________________________________________
conv2d_1010 (Conv2D)            (None, 75, 75, 32)   2048        lambda_297[0][0]                 
__________________________________________________________________________________________________
conv2d_1013 (Conv2D)            (None, 75, 75, 32)   2048        lambda_298[0][0]                 
__________________________________________________________________________________________________
conv2d_1016 (Conv2D)            (None, 75, 75, 32)   2048        lambda_299[0][0]                 
__________________________________________________________________________________________________
max_pooling2d_1004 (MaxPooling2 (None, 38, 38, 32)   0           conv2d_1004[0][0]                
__________________________________________________________________________________________________
max_pooling2d_1007 (MaxPooling2 (None, 38, 38, 32)   0           conv2d_1007[0][0]                
__________________________________________________________________________________________________
max_pooling2d_1010 (MaxPooling2 (None, 38, 38, 32)   0           conv2d_1010[0][0]                
__________________________________________________________________________________________________
max_pooling2d_1013 (MaxPooling2 (None, 38, 38, 32)   0           conv2d_1013[0][0]                
__________________________________________________________________________________________________
max_pooling2d_1016 (MaxPooling2 (None, 38, 38, 32)   0           conv2d_1016[0][0]                
__________________________________________________________________________________________________
conv2d_1005 (Conv2D)            (None, 38, 38, 64)   18496       max_pooling2d_1004[0][0]         
__________________________________________________________________________________________________
conv2d_1008 (Conv2D)            (None, 38, 38, 64)   18496       max_pooling2d_1007[0][0]         
__________________________________________________________________________________________________
conv2d_1011 (Conv2D)            (None, 38, 38, 64)   18496       max_pooling2d_1010[0][0]         
__________________________________________________________________________________________________
conv2d_1014 (Conv2D)            (None, 38, 38, 64)   18496       max_pooling2d_1013[0][0]         
__________________________________________________________________________________________________
conv2d_1017 (Conv2D)            (None, 38, 38, 64)   18496       max_pooling2d_1016[0][0]         
__________________________________________________________________________________________________
max_pooling2d_1005 (MaxPooling2 (None, 19, 19, 64)   0           conv2d_1005[0][0]                
__________________________________________________________________________________________________
max_pooling2d_1008 (MaxPooling2 (None, 19, 19, 64)   0           conv2d_1008[0][0]                
__________________________________________________________________________________________________
max_pooling2d_1011 (MaxPooling2 (None, 19, 19, 64)   0           conv2d_1011[0][0]                
__________________________________________________________________________________________________
max_pooling2d_1014 (MaxPooling2 (None, 19, 19, 64)   0           conv2d_1014[0][0]                
__________________________________________________________________________________________________
max_pooling2d_1017 (MaxPooling2 (None, 19, 19, 64)   0           conv2d_1017[0][0]                
__________________________________________________________________________________________________
conv2d_1006 (Conv2D)            (None, 19, 19, 128)  73856       max_pooling2d_1005[0][0]         
__________________________________________________________________________________________________
conv2d_1009 (Conv2D)            (None, 19, 19, 128)  73856       max_pooling2d_1008[0][0]         
__________________________________________________________________________________________________
conv2d_1012 (Conv2D)            (None, 19, 19, 128)  73856       max_pooling2d_1011[0][0]         
__________________________________________________________________________________________________
conv2d_1015 (Conv2D)            (None, 19, 19, 128)  73856       max_pooling2d_1014[0][0]         
__________________________________________________________________________________________________
conv2d_1018 (Conv2D)            (None, 19, 19, 128)  73856       max_pooling2d_1017[0][0]         
__________________________________________________________________________________________________
max_pooling2d_1006 (MaxPooling2 (None, 10, 10, 128)  0           conv2d_1006[0][0]                
__________________________________________________________________________________________________
max_pooling2d_1009 (MaxPooling2 (None, 10, 10, 128)  0           conv2d_1009[0][0]                
__________________________________________________________________________________________________
max_pooling2d_1012 (MaxPooling2 (None, 10, 10, 128)  0           conv2d_1012[0][0]                
__________________________________________________________________________________________________
max_pooling2d_1015 (MaxPooling2 (None, 10, 10, 128)  0           conv2d_1015[0][0]                
__________________________________________________________________________________________________
max_pooling2d_1018 (MaxPooling2 (None, 10, 10, 128)  0           conv2d_1018[0][0]                
__________________________________________________________________________________________________
concatenate_59 (Concatenate)    (None, 10, 10, 640)  0           max_pooling2d_1006[0][0]         
                                                                 max_pooling2d_1009[0][0]         
                                                                 max_pooling2d_1012[0][0]         
                                                                 max_pooling2d_1015[0][0]         
                                                                 max_pooling2d_1018[0][0]         
__________________________________________________________________________________________________
flatten_2419 (Flatten)          (None, 64000)        0           concatenate_59[0][0]             
==================================================================================================
Total params: 481,248
Trainable params: 481,248
Non-trainable params: 0
__________________________________________________________________________________________________
get cnn model
(1052, 64000)
[  0.        0.      209.07811 108.55157  71.38282   0.      188.8462
…
