program start
seed set
[PhysicalDevice(name='/physical_device:GPU:0', device_type='GPU')]
Model: "model_120"
__________________________________________________________________________________________________
Layer (type)                    Output Shape         Param #     Connected to                     
==================================================================================================
input_61 (InputLayer)           [(None, 150, 150, 7) 0                                            
__________________________________________________________________________________________________
lambda_300 (Lambda)             (None, 150, 150, 7)  0           input_61[0][0]                   
__________________________________________________________________________________________________
conv2d_1020 (Conv2D)            (None, 150, 150, 32) 2048        lambda_300[0][0]                 
__________________________________________________________________________________________________
max_pooling2d_1020 (MaxPooling2 (None, 75, 75, 32)   0           conv2d_1020[0][0]                
__________________________________________________________________________________________________
lambda_301 (Lambda)             (None, 75, 75, 7)    0           lambda_300[0][0]                 
__________________________________________________________________________________________________
lambda_302 (Lambda)             (None, 75, 75, 7)    0           lambda_300[0][0]                 
__________________________________________________________________________________________________
lambda_303 (Lambda)             (None, 75, 75, 7)    0           lambda_300[0][0]                 
__________________________________________________________________________________________________
lambda_304 (Lambda)             (None, 75, 75, 7)    0           lambda_300[0][0]                 
__________________________________________________________________________________________________
conv2d_1021 (Conv2D)            (None, 75, 75, 32)   9248        max_pooling2d_1020[0][0]         
__________________________________________________________________________________________________
conv2d_1024 (Conv2D)            (None, 75, 75, 32)   2048        lambda_301[0][0]                 
__________________________________________________________________________________________________
conv2d_1027 (Conv2D)            (None, 75, 75, 32)   2048        lambda_302[0][0]                 
__________________________________________________________________________________________________
conv2d_1030 (Conv2D)            (None, 75, 75, 32)   2048        lambda_303[0][0]                 
__________________________________________________________________________________________________
conv2d_1033 (Conv2D)            (None, 75, 75, 32)   2048        lambda_304[0][0]                 
__________________________________________________________________________________________________
max_pooling2d_1021 (MaxPooling2 (None, 38, 38, 32)   0           conv2d_1021[0][0]                
__________________________________________________________________________________________________
max_pooling2d_1024 (MaxPooling2 (None, 38, 38, 32)   0           conv2d_1024[0][0]                
__________________________________________________________________________________________________
max_pooling2d_1027 (MaxPooling2 (None, 38, 38, 32)   0           conv2d_1027[0][0]                
__________________________________________________________________________________________________
max_pooling2d_1030 (MaxPooling2 (None, 38, 38, 32)   0           conv2d_1030[0][0]                
__________________________________________________________________________________________________
max_pooling2d_1033 (MaxPooling2 (None, 38, 38, 32)   0           conv2d_1033[0][0]                
__________________________________________________________________________________________________
conv2d_1022 (Conv2D)            (None, 38, 38, 64)   18496       max_pooling2d_1021[0][0]         
__________________________________________________________________________________________________
conv2d_1025 (Conv2D)            (None, 38, 38, 64)   18496       max_pooling2d_1024[0][0]         
__________________________________________________________________________________________________
conv2d_1028 (Conv2D)            (None, 38, 38, 64)   18496       max_pooling2d_1027[0][0]         
__________________________________________________________________________________________________
conv2d_1031 (Conv2D)            (None, 38, 38, 64)   18496       max_pooling2d_1030[0][0]         
__________________________________________________________________________________________________
conv2d_1034 (Conv2D)            (None, 38, 38, 64)   18496       max_pooling2d_1033[0][0]         
__________________________________________________________________________________________________
max_pooling2d_1022 (MaxPooling2 (None, 19, 19, 64)   0           conv2d_1022[0][0]                
__________________________________________________________________________________________________
max_pooling2d_1025 (MaxPooling2 (None, 19, 19, 64)   0           conv2d_1025[0][0]                
__________________________________________________________________________________________________
max_pooling2d_1028 (MaxPooling2 (None, 19, 19, 64)   0           conv2d_1028[0][0]                
__________________________________________________________________________________________________
max_pooling2d_1031 (MaxPooling2 (None, 19, 19, 64)   0           conv2d_1031[0][0]                
__________________________________________________________________________________________________
max_pooling2d_1034 (MaxPooling2 (None, 19, 19, 64)   0           conv2d_1034[0][0]                
__________________________________________________________________________________________________
conv2d_1023 (Conv2D)            (None, 19, 19, 128)  73856       max_pooling2d_1022[0][0]         
__________________________________________________________________________________________________
conv2d_1026 (Conv2D)            (None, 19, 19, 128)  73856       max_pooling2d_1025[0][0]         
__________________________________________________________________________________________________
conv2d_1029 (Conv2D)            (None, 19, 19, 128)  73856       max_pooling2d_1028[0][0]         
__________________________________________________________________________________________________
conv2d_1032 (Conv2D)            (None, 19, 19, 128)  73856       max_pooling2d_1031[0][0]         
__________________________________________________________________________________________________
conv2d_1035 (Conv2D)            (None, 19, 19, 128)  73856       max_pooling2d_1034[0][0]         
__________________________________________________________________________________________________
max_pooling2d_1023 (MaxPooling2 (None, 10, 10, 128)  0           conv2d_1023[0][0]                
__________________________________________________________________________________________________
max_pooling2d_1026 (MaxPooling2 (None, 10, 10, 128)  0           conv2d_1026[0][0]                
__________________________________________________________________________________________________
max_pooling2d_1029 (MaxPooling2 (None, 10, 10, 128)  0           conv2d_1029[0][0]                
__________________________________________________________________________________________________
max_pooling2d_1032 (MaxPooling2 (None, 10, 10, 128)  0           conv2d_1032[0][0]                
__________________________________________________________________________________________________
max_pooling2d_1035 (MaxPooling2 (None, 10, 10, 128)  0           conv2d_1035[0][0]                
__________________________________________________________________________________________________
concatenate_60 (Concatenate)    (None, 10, 10, 640)  0           max_pooling2d_1023[0][0]         
                                                                 max_pooling2d_1026[0][0]         
                                                                 max_pooling2d_1029[0][0]         
                                                                 max_pooling2d_1032[0][0]         
                                                                 max_pooling2d_1035[0][0]         
__________________________________________________________________________________________________
flatten_2460 (Flatten)          (None, 64000)        0           concatenate_60[0][0]             
__________________________________________________________________________________________________
dense_180 (Dense)               (None, 1024)         65537024    flatten_2460[0][0]               
__________________________________________________________________________________________________
dropout_120 (Dropout)           (None, 1024)         0           dense_180[0][0]                  
__________________________________________________________________________________________________
dense_181 (Dense)               (None, 1024)         1049600     dropout_120[0][0]                
__________________________________________________________________________________________________
dropout_121 (Dropout)           (None, 1024)         0           dense_181[0][0]                  
__________________________________________________________________________________________________
dense_182 (Dense)               (None, 5)            5125        dropout_121[0][0]                
==================================================================================================
Total params: 67,072,997
Trainable params: 67,072,997
Non-trainable params: 0
__________________________________________________________________________________________________
start loading dataset ...
load "Big" complete
load "Long" complete
load "Mitotic" complete
…
           3       0.98      0.80      0.88        56
           4       1.00      0.14      0.25        56

    accuracy                           0.75       260
   macro avg       0.80      0.76      0.70       260
weighted avg       0.83      0.75      0.71       260

Model: "model_121"
__________________________________________________________________________________________________
Layer (type)                    Output Shape         Param #     Connected to                     
==================================================================================================
input_61 (InputLayer)           [(None, 150, 150, 7) 0                                            
__________________________________________________________________________________________________
lambda_300 (Lambda)             (None, 150, 150, 7)  0           input_61[0][0]                   
__________________________________________________________________________________________________
conv2d_1020 (Conv2D)            (None, 150, 150, 32) 2048        lambda_300[0][0]                 
__________________________________________________________________________________________________
max_pooling2d_1020 (MaxPooling2 (None, 75, 75, 32)   0           conv2d_1020[0][0]                
__________________________________________________________________________________________________
lambda_301 (Lambda)             (None, 75, 75, 7)    0           lambda_300[0][0]                 
__________________________________________________________________________________________________
lambda_302 (Lambda)             (None, 75, 75, 7)    0           lambda_300[0][0]                 
__________________________________________________________________________________________________
lambda_303 (Lambda)             (None, 75, 75, 7)    0           lambda_300[0][0]                 
__________________________________________________________________________________________________
lambda_304 (Lambda)             (None, 75, 75, 7)    0           lambda_300[0][0]                 
__________________________________________________________________________________________________
conv2d_1021 (Conv2D)            (None, 75, 75, 32)   9248        max_pooling2d_1020[0][0]         
__________________________________________________________________________________________________
conv2d_1024 (Conv2D)            (None, 75, 75, 32)   2048        lambda_301[0][0]                 
__________________________________________________________________________________________________
conv2d_1027 (Conv2D)            (None, 75, 75, 32)   2048        lambda_302[0][0]                 
__________________________________________________________________________________________________
conv2d_1030 (Conv2D)            (None, 75, 75, 32)   2048        lambda_303[0][0]                 
__________________________________________________________________________________________________
conv2d_1033 (Conv2D)            (None, 75, 75, 32)   2048        lambda_304[0][0]                 
__________________________________________________________________________________________________
max_pooling2d_1021 (MaxPooling2 (None, 38, 38, 32)   0           conv2d_1021[0][0]                
__________________________________________________________________________________________________
max_pooling2d_1024 (MaxPooling2 (None, 38, 38, 32)   0           conv2d_1024[0][0]                
__________________________________________________________________________________________________
max_pooling2d_1027 (MaxPooling2 (None, 38, 38, 32)   0           conv2d_1027[0][0]                
__________________________________________________________________________________________________
max_pooling2d_1030 (MaxPooling2 (None, 38, 38, 32)   0           conv2d_1030[0][0]                
__________________________________________________________________________________________________
max_pooling2d_1033 (MaxPooling2 (None, 38, 38, 32)   0           conv2d_1033[0][0]                
__________________________________________________________________________________________________
conv2d_1022 (Conv2D)            (None, 38, 38, 64)   18496       max_pooling2d_1021[0][0]         
__________________________________________________________________________________________________
conv2d_1025 (Conv2D)            (None, 38, 38, 64)   18496       max_pooling2d_1024[0][0]         
__________________________________________________________________________________________________
conv2d_1028 (Conv2D)            (None, 38, 38, 64)   18496       max_pooling2d_1027[0][0]         
__________________________________________________________________________________________________
conv2d_1031 (Conv2D)            (None, 38, 38, 64)   18496       max_pooling2d_1030[0][0]         
__________________________________________________________________________________________________
conv2d_1034 (Conv2D)            (None, 38, 38, 64)   18496       max_pooling2d_1033[0][0]         
__________________________________________________________________________________________________
max_pooling2d_1022 (MaxPooling2 (None, 19, 19, 64)   0           conv2d_1022[0][0]                
__________________________________________________________________________________________________
max_pooling2d_1025 (MaxPooling2 (None, 19, 19, 64)   0           conv2d_1025[0][0]                
__________________________________________________________________________________________________
max_pooling2d_1028 (MaxPooling2 (None, 19, 19, 64)   0           conv2d_1028[0][0]                
__________________________________________________________________________________________________
max_pooling2d_1031 (MaxPooling2 (None, 19, 19, 64)   0           conv2d_1031[0][0]                
__________________________________________________________________________________________________
max_pooling2d_1034 (MaxPooling2 (None, 19, 19, 64)   0           conv2d_1034[0][0]                
__________________________________________________________________________________________________
conv2d_1023 (Conv2D)            (None, 19, 19, 128)  73856       max_pooling2d_1022[0][0]         
__________________________________________________________________________________________________
conv2d_1026 (Conv2D)            (None, 19, 19, 128)  73856       max_pooling2d_1025[0][0]         
__________________________________________________________________________________________________
conv2d_1029 (Conv2D)            (None, 19, 19, 128)  73856       max_pooling2d_1028[0][0]         
__________________________________________________________________________________________________
conv2d_1032 (Conv2D)            (None, 19, 19, 128)  73856       max_pooling2d_1031[0][0]         
__________________________________________________________________________________________________
conv2d_1035 (Conv2D)            (None, 19, 19, 128)  73856       max_pooling2d_1034[0][0]         
__________________________________________________________________________________________________
max_pooling2d_1023 (MaxPooling2 (None, 10, 10, 128)  0           conv2d_1023[0][0]                
__________________________________________________________________________________________________
max_pooling2d_1026 (MaxPooling2 (None, 10, 10, 128)  0           conv2d_1026[0][0]                
__________________________________________________________________________________________________
max_pooling2d_1029 (MaxPooling2 (None, 10, 10, 128)  0           conv2d_1029[0][0]                
__________________________________________________________________________________________________
max_pooling2d_1032 (MaxPooling2 (None, 10, 10, 128)  0           conv2d_1032[0][0]                
__________________________________________________________________________________________________
max_pooling2d_1035 (MaxPooling2 (None, 10, 10, 128)  0           conv2d_1035[0][0]                
__________________________________________________________________________________________________
concatenate_60 (Concatenate)    (None, 10, 10, 640)  0           max_pooling2d_1023[0][0]         
                                                                 max_pooling2d_1026[0][0]         
                                                                 max_pooling2d_1029[0][0]         
                                                                 max_pooling2d_1032[0][0]         
                                                                 max_pooling2d_1035[0][0]         
__________________________________________________________________________________________________
flatten_2460 (Flatten)          (None, 64000)        0           concatenate_60[0][0]             
==================================================================================================
Total params: 481,248
Trainable params: 481,248
Non-trainable params: 0
__________________________________________________________________________________________________
get cnn model
(1052, 64000)
[218.22815 200.93243 145.4478   38.86317 397.46075 218.72495 261.8522
…
