program start
seed set
[PhysicalDevice(name='/physical_device:GPU:0', device_type='GPU')]
Model: "model_122"
__________________________________________________________________________________________________
Layer (type)                    Output Shape         Param #     Connected to                     
==================================================================================================
input_62 (InputLayer)           [(None, 150, 150, 7) 0                                            
__________________________________________________________________________________________________
lambda_305 (Lambda)             (None, 150, 150, 7)  0           input_62[0][0]                   
__________________________________________________________________________________________________
conv2d_1037 (Conv2D)            (None, 150, 150, 32) 2048        lambda_305[0][0]                 
__________________________________________________________________________________________________
max_pooling2d_1037 (MaxPooling2 (None, 75, 75, 32)   0           conv2d_1037[0][0]                
__________________________________________________________________________________________________
lambda_306 (Lambda)             (None, 75, 75, 7)    0           lambda_305[0][0]                 
__________________________________________________________________________________________________
lambda_307 (Lambda)             (None, 75, 75, 7)    0           lambda_305[0][0]                 
__________________________________________________________________________________________________
lambda_308 (Lambda)             (None, 75, 75, 7)    0           lambda_305[0][0]                 
__________________________________________________________________________________________________
lambda_309 (Lambda)             (None, 75, 75, 7)    0           lambda_305[0][0]                 
__________________________________________________________________________________________________
conv2d_1038 (Conv2D)            (None, 75, 75, 32)   9248        max_pooling2d_1037[0][0]         
__________________________________________________________________________________________________
conv2d_1041 (Conv2D)            (None, 75, 75, 32)   2048        lambda_306[0][0]                 
__________________________________________________________________________________________________
conv2d_1044 (Conv2D)            (None, 75, 75, 32)   2048        lambda_307[0][0]                 
__________________________________________________________________________________________________
conv2d_1047 (Conv2D)            (None, 75, 75, 32)   2048        lambda_308[0][0]                 
__________________________________________________________________________________________________
conv2d_1050 (Conv2D)            (None, 75, 75, 32)   2048        lambda_309[0][0]                 
__________________________________________________________________________________________________
max_pooling2d_1038 (MaxPooling2 (None, 38, 38, 32)   0           conv2d_1038[0][0]                
__________________________________________________________________________________________________
max_pooling2d_1041 (MaxPooling2 (None, 38, 38, 32)   0           conv2d_1041[0][0]                
__________________________________________________________________________________________________
max_pooling2d_1044 (MaxPooling2 (None, 38, 38, 32)   0           conv2d_1044[0][0]                
__________________________________________________________________________________________________
max_pooling2d_1047 (MaxPooling2 (None, 38, 38, 32)   0           conv2d_1047[0][0]                
__________________________________________________________________________________________________
max_pooling2d_1050 (MaxPooling2 (None, 38, 38, 32)   0           conv2d_1050[0][0]                
__________________________________________________________________________________________________
conv2d_1039 (Conv2D)            (None, 38, 38, 64)   18496       max_pooling2d_1038[0][0]         
__________________________________________________________________________________________________
conv2d_1042 (Conv2D)            (None, 38, 38, 64)   18496       max_pooling2d_1041[0][0]         
__________________________________________________________________________________________________
conv2d_1045 (Conv2D)            (None, 38, 38, 64)   18496       max_pooling2d_1044[0][0]         
__________________________________________________________________________________________________
conv2d_1048 (Conv2D)            (None, 38, 38, 64)   18496       max_pooling2d_1047[0][0]         
__________________________________________________________________________________________________
conv2d_1051 (Conv2D)            (None, 38, 38, 64)   18496       max_pooling2d_1050[0][0]         
__________________________________________________________________________________________________
max_pooling2d_1039 (MaxPooling2 (None, 19, 19, 64)   0           conv2d_1039[0][0]                
__________________________________________________________________________________________________
max_pooling2d_1042 (MaxPooling2 (None, 19, 19, 64)   0           conv2d_1042[0][0]                
__________________________________________________________________________________________________
max_pooling2d_1045 (MaxPooling2 (None, 19, 19, 64)   0           conv2d_1045[0][0]                
__________________________________________________________________________________________________
max_pooling2d_1048 (MaxPooling2 (None, 19, 19, 64)   0           conv2d_1048[0][0]                
__________________________________________________________________________________________________
max_pooling2d_1051 (MaxPooling2 (None, 19, 19, 64)   0           conv2d_1051[0][0]                
__________________________________________________________________________________________________
conv2d_1040 (Conv2D)            (None, 19, 19, 128)  73856       max_pooling2d_1039[0][0]         
__________________________________________________________________________________________________
conv2d_1043 (Conv2D)            (None, 19, 19, 128)  73856       max_pooling2d_1042[0][0]         
__________________________________________________________________________________________________
conv2d_1046 (Conv2D)            (None, 19, 19, 128)  73856       max_pooling2d_1045[0][0]         
__________________________________________________________________________________________________
conv2d_1049 (Conv2D)            (None, 19, 19, 128)  73856       max_pooling2d_1048[0][0]         
__________________________________________________________________________________________________
conv2d_1052 (Conv2D)            (None, 19, 19, 128)  73856       max_pooling2d_1051[0][0]         
__________________________________________________________________________________________________
max_pooling2d_1040 (MaxPooling2 (None, 10, 10, 128)  0           conv2d_1040[0][0]                
__________________________________________________________________________________________________
max_pooling2d_1043 (MaxPooling2 (None, 10, 10, 128)  0           conv2d_1043[0][0]                
__________________________________________________________________________________________________
max_pooling2d_1046 (MaxPooling2 (None, 10, 10, 128)  0           conv2d_1046[0][0]                
__________________________________________________________________________________________________
max_pooling2d_1049 (MaxPooling2 (None, 10, 10, 128)  0           conv2d_1049[0][0]                
__________________________________________________________________________________________________
max_pooling2d_1052 (MaxPooling2 (None, 10, 10, 128)  0           conv2d_1052[0][0]                
__________________________________________________________________________________________________
concatenate_61 (Concatenate)    (None, 10, 10, 640)  0           max_pooling2d_1040[0][0]         
                                                                 max_pooling2d_1043[0][0]         
                                                                 max_pooling2d_1046[0][0]         
                                                                 max_pooling2d_1049[0][0]         
                                                                 max_pooling2d_1052[0][0]         
__________________________________________________________________________________________________
flatten_2501 (Flatten)          (None, 64000)        0           concatenate_61[0][0]             
__________________________________________________________________________________________________
dense_183 (Dense)               (None, 1024)         65537024    flatten_2501[0][0]               
__________________________________________________________________________________________________
dropout_122 (Dropout)           (None, 1024)         0           dense_183[0][0]                  
__________________________________________________________________________________________________
dense_184 (Dense)               (None, 1024)         1049600     dropout_122[0][0]                
__________________________________________________________________________________________________
dropout_123 (Dropout)           (None, 1024)         0           dense_184[0][0]                  
__________________________________________________________________________________________________
dense_185 (Dense)               (None, 5)            5125        dropout_123[0][0]                
==================================================================================================
Total params: 67,072,997
Trainable params: 67,072,997
Non-trainable params: 0
__________________________________________________________________________________________________
start loading dataset ...
load "Big" complete
load "Long" complete
load "Mitotic" complete
…
           3       0.81      0.93      0.87        56
           4       0.61      0.41      0.49        56

    accuracy                           0.76       260
   macro avg       0.72      0.75      0.73       260
weighted avg       0.74      0.76      0.74       260

Model: "model_123"
__________________________________________________________________________________________________
Layer (type)                    Output Shape         Param #     Connected to                     
==================================================================================================
input_62 (InputLayer)           [(None, 150, 150, 7) 0                                            
__________________________________________________________________________________________________
lambda_305 (Lambda)             (None, 150, 150, 7)  0           input_62[0][0]                   
__________________________________________________________________________________________________
conv2d_1037 (Conv2D)            (None, 150, 150, 32) 2048        lambda_305[0][0]                 
__________________________________________________________________________________________________
max_pooling2d_1037 (MaxPooling2 (None, 75, 75, 32)   0           conv2d_1037[0][0]                
__________________________________________________________________________________________________
lambda_306 (Lambda)             (None, 75, 75, 7)    0           lambda_305[0][0]                 
__________________________________________________________________________________________________
lambda_307 (Lambda)             (None, 75, 75, 7)    0           lambda_305[0][0]                 
__________________________________________________________________________________________________
lambda_308 (Lambda)             (None, 75, 75, 7)    0           lambda_305[0][0]                 
__________________________________________________________________________________________________
lambda_309 (Lambda)             (None, 75, 75, 7)    0           lambda_305[0][0]                 
__________________________________________________________________________________________________
conv2d_1038 (Conv2D)            (None, 75, 75, 32)   9248        max_pooling2d_1037[0][0]         
__________________________________________________________________________________________________
conv2d_1041 (Conv2D)            (None, 75, 75, 32)   2048        lambda_306[0][0]                 
__________________________________________________________________________________________________
conv2d_1044 (Conv2D)            (None, 75, 75, 32)   2048        lambda_307[0][0]                 
__________________________________________________________________________________________________
conv2d_1047 (Conv2D)            (None, 75, 75, 32)   2048        lambda_308[0][0]                 
__________________________________________________________________________________________________
conv2d_1050 (Conv2D)            (None, 75, 75, 32)   2048        lambda_309[0][0]                 
__________________________________________________________________________________________________
max_pooling2d_1038 (MaxPooling2 (None, 38, 38, 32)   0           conv2d_1038[0][0]                
__________________________________________________________________________________________________
max_pooling2d_1041 (MaxPooling2 (None, 38, 38, 32)   0           conv2d_1041[0][0]                
__________________________________________________________________________________________________
max_pooling2d_1044 (MaxPooling2 (None, 38, 38, 32)   0           conv2d_1044[0][0]                
__________________________________________________________________________________________________
max_pooling2d_1047 (MaxPooling2 (None, 38, 38, 32)   0           conv2d_1047[0][0]                
__________________________________________________________________________________________________
max_pooling2d_1050 (MaxPooling2 (None, 38, 38, 32)   0           conv2d_1050[0][0]                
__________________________________________________________________________________________________
conv2d_1039 (Conv2D)            (None, 38, 38, 64)   18496       max_pooling2d_1038[0][0]         
__________________________________________________________________________________________________
conv2d_1042 (Conv2D)            (None, 38, 38, 64)   18496       max_pooling2d_1041[0][0]         
__________________________________________________________________________________________________
conv2d_1045 (Conv2D)            (None, 38, 38, 64)   18496       max_pooling2d_1044[0][0]         
__________________________________________________________________________________________________
conv2d_1048 (Conv2D)            (None, 38, 38, 64)   18496       max_pooling2d_1047[0][0]         
__________________________________________________________________________________________________
conv2d_1051 (Conv2D)            (None, 38, 38, 64)   18496       max_pooling2d_1050[0][0]         
__________________________________________________________________________________________________
max_pooling2d_1039 (MaxPooling2 (None, 19, 19, 64)   0           conv2d_1039[0][0]                
__________________________________________________________________________________________________
max_pooling2d_1042 (MaxPooling2 (None, 19, 19, 64)   0           conv2d_1042[0][0]                
__________________________________________________________________________________________________
max_pooling2d_1045 (MaxPooling2 (None, 19, 19, 64)   0           conv2d_1045[0][0]                
__________________________________________________________________________________________________
max_pooling2d_1048 (MaxPooling2 (None, 19, 19, 64)   0           conv2d_1048[0][0]                
__________________________________________________________________________________________________
max_pooling2d_1051 (MaxPooling2 (None, 19, 19, 64)   0           conv2d_1051[0][0]                
__________________________________________________________________________________________________
conv2d_1040 (Conv2D)            (None, 19, 19, 128)  73856       max_pooling2d_1039[0][0]         
__________________________________________________________________________________________________
conv2d_1043 (Conv2D)            (None, 19, 19, 128)  73856       max_pooling2d_1042[0][0]         
__________________________________________________________________________________________________
conv2d_1046 (Conv2D)            (None, 19, 19, 128)  73856       max_pooling2d_1045[0][0]         
__________________________________________________________________________________________________
conv2d_1049 (Conv2D)            (None, 19, 19, 128)  73856       max_pooling2d_1048[0][0]         
__________________________________________________________________________________________________
conv2d_1052 (Conv2D)            (None, 19, 19, 128)  73856       max_pooling2d_1051[0][0]         
__________________________________________________________________________________________________
max_pooling2d_1040 (MaxPooling2 (None, 10, 10, 128)  0           conv2d_1040[0][0]                
__________________________________________________________________________________________________
max_pooling2d_1043 (MaxPooling2 (None, 10, 10, 128)  0           conv2d_1043[0][0]                
__________________________________________________________________________________________________
max_pooling2d_1046 (MaxPooling2 (None, 10, 10, 128)  0           conv2d_1046[0][0]                
__________________________________________________________________________________________________
max_pooling2d_1049 (MaxPooling2 (None, 10, 10, 128)  0           conv2d_1049[0][0]                
__________________________________________________________________________________________________
max_pooling2d_1052 (MaxPooling2 (None, 10, 10, 128)  0           conv2d_1052[0][0]                
__________________________________________________________________________________________________
concatenate_61 (Concatenate)    (None, 10, 10, 640)  0           max_pooling2d_1040[0][0]         
                                                                 max_pooling2d_1043[0][0]         
                                                                 max_pooling2d_1046[0][0]         
                                                                 max_pooling2d_1049[0][0]         
                                                                 max_pooling2d_1052[0][0]         
__________________________________________________________________________________________________
flatten_2501 (Flatten)          (None, 64000)        0           concatenate_61[0][0]             
==================================================================================================
Total params: 481,248
Trainable params: 481,248
Non-trainable params: 0
__________________________________________________________________________________________________
get cnn model
(1052, 64000)
[ 80.8799    334.61838   268.2819      0.        288.85452     0.
…
