program start
seed set
[PhysicalDevice(name='/physical_device:GPU:0', device_type='GPU')]
Model: "model_124"
__________________________________________________________________________________________________
Layer (type)                    Output Shape         Param #     Connected to                     
==================================================================================================
input_63 (InputLayer)           [(None, 150, 150, 7) 0                                            
__________________________________________________________________________________________________
lambda_310 (Lambda)             (None, 150, 150, 7)  0           input_63[0][0]                   
__________________________________________________________________________________________________
conv2d_1054 (Conv2D)            (None, 150, 150, 32) 2048        lambda_310[0][0]                 
__________________________________________________________________________________________________
max_pooling2d_1054 (MaxPooling2 (None, 75, 75, 32)   0           conv2d_1054[0][0]                
__________________________________________________________________________________________________
lambda_311 (Lambda)             (None, 75, 75, 7)    0           lambda_310[0][0]                 
__________________________________________________________________________________________________
lambda_312 (Lambda)             (None, 75, 75, 7)    0           lambda_310[0][0]                 
__________________________________________________________________________________________________
lambda_313 (Lambda)             (None, 75, 75, 7)    0           lambda_310[0][0]                 
__________________________________________________________________________________________________
lambda_314 (Lambda)             (None, 75, 75, 7)    0           lambda_310[0][0]                 
__________________________________________________________________________________________________
conv2d_1055 (Conv2D)            (None, 75, 75, 32)   9248        max_pooling2d_1054[0][0]         
__________________________________________________________________________________________________
conv2d_1058 (Conv2D)            (None, 75, 75, 32)   2048        lambda_311[0][0]                 
__________________________________________________________________________________________________
conv2d_1061 (Conv2D)            (None, 75, 75, 32)   2048        lambda_312[0][0]                 
__________________________________________________________________________________________________
conv2d_1064 (Conv2D)            (None, 75, 75, 32)   2048        lambda_313[0][0]                 
__________________________________________________________________________________________________
conv2d_1067 (Conv2D)            (None, 75, 75, 32)   2048        lambda_314[0][0]                 
__________________________________________________________________________________________________
max_pooling2d_1055 (MaxPooling2 (None, 38, 38, 32)   0           conv2d_1055[0][0]                
__________________________________________________________________________________________________
max_pooling2d_1058 (MaxPooling2 (None, 38, 38, 32)   0           conv2d_1058[0][0]                
__________________________________________________________________________________________________
max_pooling2d_1061 (MaxPooling2 (None, 38, 38, 32)   0           conv2d_1061[0][0]                
__________________________________________________________________________________________________
max_pooling2d_1064 (MaxPooling2 (None, 38, 38, 32)   0           conv2d_1064[0][0]                
__________________________________________________________________________________________________
max_pooling2d_1067 (MaxPooling2 (None, 38, 38, 32)   0           conv2d_1067[0][0]                
__________________________________________________________________________________________________
conv2d_1056 (Conv2D)            (None, 38, 38, 64)   18496       max_pooling2d_1055[0][0]         
__________________________________________________________________________________________________
conv2d_1059 (Conv2D)            (None, 38, 38, 64)   18496       max_pooling2d_1058[0][0]         
__________________________________________________________________________________________________
conv2d_1062 (Conv2D)            (None, 38, 38, 64)   18496       max_pooling2d_1061[0][0]         
__________________________________________________________________________________________________
conv2d_1065 (Conv2D)            (None, 38, 38, 64)   18496       max_pooling2d_1064[0][0]         
__________________________________________________________________________________________________
conv2d_1068 (Conv2D)            (None, 38, 38, 64)   18496       max_pooling2d_1067[0][0]         
__________________________________________________________________________________________________
max_pooling2d_1056 (MaxPooling2 (None, 19, 19, 64)   0           conv2d_1056[0][0]                
__________________________________________________________________________________________________
max_pooling2d_1059 (MaxPooling2 (None, 19, 19, 64)   0           conv2d_1059[0][0]                
__________________________________________________________________________________________________
max_pooling2d_1062 (MaxPooling2 (None, 19, 19, 64)   0           conv2d_1062[0][0]                
__________________________________________________________________________________________________
max_pooling2d_1065 (MaxPooling2 (None, 19, 19, 64)   0           conv2d_1065[0][0]                
__________________________________________________________________________________________________
max_pooling2d_1068 (MaxPooling2 (None, 19, 19, 64)   0           conv2d_1068[0][0]                
__________________________________________________________________________________________________
conv2d_1057 (Conv2D)            (None, 19, 19, 128)  73856       max_pooling2d_1056[0][0]         
__________________________________________________________________________________________________
conv2d_1060 (Conv2D)            (None, 19, 19, 128)  73856       max_pooling2d_1059[0][0]         
__________________________________________________________________________________________________
conv2d_1063 (Conv2D)            (None, 19, 19, 128)  73856       max_pooling2d_1062[0][0]         
__________________________________________________________________________________________________
conv2d_1066 (Conv2D)            (None, 19, 19, 128)  73856       max_pooling2d_1065[0][0]         
__________________________________________________________________________________________________
conv2d_1069 (Conv2D)            (None, 19, 19, 128)  73856       max_pooling2d_1068[0][0]         
__________________________________________________________________________________________________
max_pooling2d_1057 (MaxPooling2 (None, 10, 10, 128)  0           conv2d_1057[0][0]                
__________________________________________________________________________________________________
max_pooling2d_1060 (MaxPooling2 (None, 10, 10, 128)  0           conv2d_1060[0][0]                
__________________________________________________________________________________________________
max_pooling2d_1063 (MaxPooling2 (None, 10, 10, 128)  0           conv2d_1063[0][0]                
__________________________________________________________________________________________________
max_pooling2d_1066 (MaxPooling2 (None, 10, 10, 128)  0           conv2d_1066[0][0]                
__________________________________________________________________________________________________
max_pooling2d_1069 (MaxPooling2 (None, 10, 10, 128)  0           conv2d_1069[0][0]                
__________________________________________________________________________________________________
concatenate_62 (Concatenate)    (None, 10, 10, 640)  0           max_pooling2d_1057[0][0]         
                                                                 max_pooling2d_1060[0][0]         
                                                                 max_pooling2d_1063[0][0]         
                                                                 max_pooling2d_1066[0][0]         
                                                                 max_pooling2d_1069[0][0]         
__________________________________________________________________________________________________
flatten_2542 (Flatten)          (None, 64000)        0           concatenate_62[0][0]             
__________________________________________________________________________________________________
dense_186 (Dense)               (None, 1024)         65537024    flatten_2542[0][0]               
__________________________________________________________________________________________________
dropout_124 (Dropout)           (None, 1024)         0           dense_186[0][0]                  
__________________________________________________________________________________________________
dense_187 (Dense)               (None, 1024)         1049600     dropout_124[0][0]                
__________________________________________________________________________________________________
dropout_125 (Dropout)           (None, 1024)         0           dense_187[0][0]                  
__________________________________________________________________________________________________
dense_188 (Dense)               (None, 5)            5125        dropout_125[0][0]                
==================================================================================================
Total params: 67,072,997
Trainable params: 67,072,997
Non-trainable params: 0
__________________________________________________________________________________________________
start loading dataset ...
load "Big" complete
load "Long" complete
load "Mitotic" complete
…
           3       0.97      0.68      0.80        56
           4       0.86      0.11      0.19        56

    accuracy                           0.72       260
   macro avg       0.77      0.74      0.67       260
weighted avg       0.81      0.72      0.68       260

Model: "model_125"
__________________________________________________________________________________________________
Layer (type)                    Output Shape         Param #     Connected to                     
==================================================================================================
input_63 (InputLayer)           [(None, 150, 150, 7) 0                                            
__________________________________________________________________________________________________
lambda_310 (Lambda)             (None, 150, 150, 7)  0           input_63[0][0]                   
__________________________________________________________________________________________________
conv2d_1054 (Conv2D)            (None, 150, 150, 32) 2048        lambda_310[0][0]                 
__________________________________________________________________________________________________
max_pooling2d_1054 (MaxPooling2 (None, 75, 75, 32)   0           conv2d_1054[0][0]                
__________________________________________________________________________________________________
lambda_311 (Lambda)             (None, 75, 75, 7)    0           lambda_310[0][0]                 
__________________________________________________________________________________________________
lambda_312 (Lambda)             (None, 75, 75, 7)    0           lambda_310[0][0]                 
__________________________________________________________________________________________________
lambda_313 (Lambda)             (None, 75, 75, 7)    0           lambda_310[0][0]                 
__________________________________________________________________________________________________
lambda_314 (Lambda)             (None, 75, 75, 7)    0           lambda_310[0][0]                 
__________________________________________________________________________________________________
conv2d_1055 (Conv2D)            (None, 75, 75, 32)   9248        max_pooling2d_1054[0][0]         
__________________________________________________________________________________________________
conv2d_1058 (Conv2D)            (None, 75, 75, 32)   2048        lambda_311[0][0]                 
__________________________________________________________________________________________________
conv2d_1061 (Conv2D)            (None, 75, 75, 32)   2048        lambda_312[0][0]                 
__________________________________________________________________________________________________
conv2d_1064 (Conv2D)            (None, 75, 75, 32)   2048        lambda_313[0][0]                 
__________________________________________________________________________________________________
conv2d_1067 (Conv2D)            (None, 75, 75, 32)   2048        lambda_314[0][0]                 
__________________________________________________________________________________________________
max_pooling2d_1055 (MaxPooling2 (None, 38, 38, 32)   0           conv2d_1055[0][0]                
__________________________________________________________________________________________________
max_pooling2d_1058 (MaxPooling2 (None, 38, 38, 32)   0           conv2d_1058[0][0]                
__________________________________________________________________________________________________
max_pooling2d_1061 (MaxPooling2 (None, 38, 38, 32)   0           conv2d_1061[0][0]                
__________________________________________________________________________________________________
max_pooling2d_1064 (MaxPooling2 (None, 38, 38, 32)   0           conv2d_1064[0][0]                
__________________________________________________________________________________________________
max_pooling2d_1067 (MaxPooling2 (None, 38, 38, 32)   0           conv2d_1067[0][0]                
__________________________________________________________________________________________________
conv2d_1056 (Conv2D)            (None, 38, 38, 64)   18496       max_pooling2d_1055[0][0]         
__________________________________________________________________________________________________
conv2d_1059 (Conv2D)            (None, 38, 38, 64)   18496       max_pooling2d_1058[0][0]         
__________________________________________________________________________________________________
conv2d_1062 (Conv2D)            (None, 38, 38, 64)   18496       max_pooling2d_1061[0][0]         
__________________________________________________________________________________________________
conv2d_1065 (Conv2D)            (None, 38, 38, 64)   18496       max_pooling2d_1064[0][0]         
__________________________________________________________________________________________________
conv2d_1068 (Conv2D)            (None, 38, 38, 64)   18496       max_pooling2d_1067[0][0]         
__________________________________________________________________________________________________
max_pooling2d_1056 (MaxPooling2 (None, 19, 19, 64)   0           conv2d_1056[0][0]                
__________________________________________________________________________________________________
max_pooling2d_1059 (MaxPooling2 (None, 19, 19, 64)   0           conv2d_1059[0][0]                
__________________________________________________________________________________________________
max_pooling2d_1062 (MaxPooling2 (None, 19, 19, 64)   0           conv2d_1062[0][0]                
__________________________________________________________________________________________________
max_pooling2d_1065 (MaxPooling2 (None, 19, 19, 64)   0           conv2d_1065[0][0]                
__________________________________________________________________________________________________
max_pooling2d_1068 (MaxPooling2 (None, 19, 19, 64)   0           conv2d_1068[0][0]                
__________________________________________________________________________________________________
conv2d_1057 (Conv2D)            (None, 19, 19, 128)  73856       max_pooling2d_1056[0][0]         
__________________________________________________________________________________________________
conv2d_1060 (Conv2D)            (None, 19, 19, 128)  73856       max_pooling2d_1059[0][0]         
__________________________________________________________________________________________________
conv2d_1063 (Conv2D)            (None, 19, 19, 128)  73856       max_pooling2d_1062[0][0]         
__________________________________________________________________________________________________
conv2d_1066 (Conv2D)            (None, 19, 19, 128)  73856       max_pooling2d_1065[0][0]         
__________________________________________________________________________________________________
conv2d_1069 (Conv2D)            (None, 19, 19, 128)  73856       max_pooling2d_1068[0][0]         
__________________________________________________________________________________________________
max_pooling2d_1057 (MaxPooling2 (None, 10, 10, 128)  0           conv2d_1057[0][0]                
__________________________________________________________________________________________________
max_pooling2d_1060 (MaxPooling2 (None, 10, 10, 128)  0           conv2d_1060[0][0]                
__________________________________________________________________________________________________
max_pooling2d_1063 (MaxPooling2 (None, 10, 10, 128)  0           conv2d_1063[0][0]                
__________________________________________________________________________________________________
max_pooling2d_1066 (MaxPooling2 (None, 10, 10, 128)  0           conv2d_1066[0][0]                
__________________________________________________________________________________________________
max_pooling2d_1069 (MaxPooling2 (None, 10, 10, 128)  0           conv2d_1069[0][0]                
__________________________________________________________________________________________________
concatenate_62 (Concatenate)    (None, 10, 10, 640)  0           max_pooling2d_1057[0][0]         
                                                                 max_pooling2d_1060[0][0]         
                                                                 max_pooling2d_1063[0][0]         
                                                                 max_pooling2d_1066[0][0]         
                                                                 max_pooling2d_1069[0][0]         
__________________________________________________________________________________________________
flatten_2542 (Flatten)          (None, 64000)        0           concatenate_62[0][0]             
==================================================================================================
Total params: 481,248
Trainable params: 481,248
Non-trainable params: 0
__________________________________________________________________________________________________
get cnn model
(1052, 64000)
[125.061874 351.43716  361.0858     0.       228.46362  221.42204
…
