program start
seed set
[PhysicalDevice(name='/physical_device:GPU:0', device_type='GPU')]
Model: "model_126"
__________________________________________________________________________________________________
Layer (type)                    Output Shape         Param #     Connected to                     
==================================================================================================
input_64 (InputLayer)           [(None, 150, 150, 7) 0                                            
__________________________________________________________________________________________________
lambda_315 (Lambda)             (None, 150, 150, 7)  0           input_64[0][0]                   
__________________________________________________________________________________________________
conv2d_1071 (Conv2D)            (None, 150, 150, 32) 2048        lambda_315[0][0]                 
__________________________________________________________________________________________________
max_pooling2d_1071 (MaxPooling2 (None, 75, 75, 32)   0           conv2d_1071[0][0]                
__________________________________________________________________________________________________
lambda_316 (Lambda)             (None, 75, 75, 7)    0           lambda_315[0][0]                 
__________________________________________________________________________________________________
lambda_317 (Lambda)             (None, 75, 75, 7)    0           lambda_315[0][0]                 
__________________________________________________________________________________________________
lambda_318 (Lambda)             (None, 75, 75, 7)    0           lambda_315[0][0]                 
__________________________________________________________________________________________________
lambda_319 (Lambda)             (None, 75, 75, 7)    0           lambda_315[0][0]                 
__________________________________________________________________________________________________
conv2d_1072 (Conv2D)            (None, 75, 75, 32)   9248        max_pooling2d_1071[0][0]         
__________________________________________________________________________________________________
conv2d_1075 (Conv2D)            (None, 75, 75, 32)   2048        lambda_316[0][0]                 
__________________________________________________________________________________________________
conv2d_1078 (Conv2D)            (None, 75, 75, 32)   2048        lambda_317[0][0]                 
__________________________________________________________________________________________________
conv2d_1081 (Conv2D)            (None, 75, 75, 32)   2048        lambda_318[0][0]                 
__________________________________________________________________________________________________
conv2d_1084 (Conv2D)            (None, 75, 75, 32)   2048        lambda_319[0][0]                 
__________________________________________________________________________________________________
max_pooling2d_1072 (MaxPooling2 (None, 38, 38, 32)   0           conv2d_1072[0][0]                
__________________________________________________________________________________________________
max_pooling2d_1075 (MaxPooling2 (None, 38, 38, 32)   0           conv2d_1075[0][0]                
__________________________________________________________________________________________________
max_pooling2d_1078 (MaxPooling2 (None, 38, 38, 32)   0           conv2d_1078[0][0]                
__________________________________________________________________________________________________
max_pooling2d_1081 (MaxPooling2 (None, 38, 38, 32)   0           conv2d_1081[0][0]                
__________________________________________________________________________________________________
max_pooling2d_1084 (MaxPooling2 (None, 38, 38, 32)   0           conv2d_1084[0][0]                
__________________________________________________________________________________________________
conv2d_1073 (Conv2D)            (None, 38, 38, 64)   18496       max_pooling2d_1072[0][0]         
__________________________________________________________________________________________________
conv2d_1076 (Conv2D)            (None, 38, 38, 64)   18496       max_pooling2d_1075[0][0]         
__________________________________________________________________________________________________
conv2d_1079 (Conv2D)            (None, 38, 38, 64)   18496       max_pooling2d_1078[0][0]         
__________________________________________________________________________________________________
conv2d_1082 (Conv2D)            (None, 38, 38, 64)   18496       max_pooling2d_1081[0][0]         
__________________________________________________________________________________________________
conv2d_1085 (Conv2D)            (None, 38, 38, 64)   18496       max_pooling2d_1084[0][0]         
__________________________________________________________________________________________________
max_pooling2d_1073 (MaxPooling2 (None, 19, 19, 64)   0           conv2d_1073[0][0]                
__________________________________________________________________________________________________
max_pooling2d_1076 (MaxPooling2 (None, 19, 19, 64)   0           conv2d_1076[0][0]                
__________________________________________________________________________________________________
max_pooling2d_1079 (MaxPooling2 (None, 19, 19, 64)   0           conv2d_1079[0][0]                
__________________________________________________________________________________________________
max_pooling2d_1082 (MaxPooling2 (None, 19, 19, 64)   0           conv2d_1082[0][0]                
__________________________________________________________________________________________________
max_pooling2d_1085 (MaxPooling2 (None, 19, 19, 64)   0           conv2d_1085[0][0]                
__________________________________________________________________________________________________
conv2d_1074 (Conv2D)            (None, 19, 19, 128)  73856       max_pooling2d_1073[0][0]         
__________________________________________________________________________________________________
conv2d_1077 (Conv2D)            (None, 19, 19, 128)  73856       max_pooling2d_1076[0][0]         
__________________________________________________________________________________________________
conv2d_1080 (Conv2D)            (None, 19, 19, 128)  73856       max_pooling2d_1079[0][0]         
__________________________________________________________________________________________________
conv2d_1083 (Conv2D)            (None, 19, 19, 128)  73856       max_pooling2d_1082[0][0]         
__________________________________________________________________________________________________
conv2d_1086 (Conv2D)            (None, 19, 19, 128)  73856       max_pooling2d_1085[0][0]         
__________________________________________________________________________________________________
max_pooling2d_1074 (MaxPooling2 (None, 10, 10, 128)  0           conv2d_1074[0][0]                
__________________________________________________________________________________________________
max_pooling2d_1077 (MaxPooling2 (None, 10, 10, 128)  0           conv2d_1077[0][0]                
__________________________________________________________________________________________________
max_pooling2d_1080 (MaxPooling2 (None, 10, 10, 128)  0           conv2d_1080[0][0]                
__________________________________________________________________________________________________
max_pooling2d_1083 (MaxPooling2 (None, 10, 10, 128)  0           conv2d_1083[0][0]                
__________________________________________________________________________________________________
max_pooling2d_1086 (MaxPooling2 (None, 10, 10, 128)  0           conv2d_1086[0][0]                
__________________________________________________________________________________________________
concatenate_63 (Concatenate)    (None, 10, 10, 640)  0           max_pooling2d_1074[0][0]         
                                                                 max_pooling2d_1077[0][0]         
                                                                 max_pooling2d_1080[0][0]         
                                                                 max_pooling2d_1083[0][0]         
                                                                 max_pooling2d_1086[0][0]         
__________________________________________________________________________________________________
flatten_2583 (Flatten)          (None, 64000)        0           concatenate_63[0][0]             
__________________________________________________________________________________________________
dense_189 (Dense)               (None, 1024)         65537024    flatten_2583[0][0]               
__________________________________________________________________________________________________
dropout_126 (Dropout)           (None, 1024)         0           dense_189[0][0]                  
__________________________________________________________________________________________________
dense_190 (Dense)               (None, 1024)         1049600     dropout_126[0][0]                
__________________________________________________________________________________________________
dropout_127 (Dropout)           (None, 1024)         0           dense_190[0][0]                  
__________________________________________________________________________________________________
dense_191 (Dense)               (None, 5)            5125        dropout_127[0][0]                
==================================================================================================
Total params: 67,072,997
Trainable params: 67,072,997
Non-trainable params: 0
__________________________________________________________________________________________________
start loading dataset ...
load "Big" complete
load "Long" complete
load "Mitotic" complete
…
vg': {'precision': 0.7987201204592509, 'recall': 0.7457110241356817, 'f1-score': 0.6740557564307392, 'support': 260.0}, 'weighted avg': {'precision': 0.8163018141279009, 'recall': 0.7269230769230769, 'f1-score': 0.6701533246566997, 'support': 260.0}}
Model: "model_127"
__________________________________________________________________________________________________
Layer (type)                    Output Shape         Param #     Connected to                     
==================================================================================================
input_64 (InputLayer)           [(None, 150, 150, 7) 0                                            
__________________________________________________________________________________________________
lambda_315 (Lambda)             (None, 150, 150, 7)  0           input_64[0][0]                   
__________________________________________________________________________________________________
conv2d_1071 (Conv2D)            (None, 150, 150, 32) 2048        lambda_315[0][0]                 
__________________________________________________________________________________________________
max_pooling2d_1071 (MaxPooling2 (None, 75, 75, 32)   0           conv2d_1071[0][0]                
__________________________________________________________________________________________________
lambda_316 (Lambda)             (None, 75, 75, 7)    0           lambda_315[0][0]                 
__________________________________________________________________________________________________
lambda_317 (Lambda)             (None, 75, 75, 7)    0           lambda_315[0][0]                 
__________________________________________________________________________________________________
lambda_318 (Lambda)             (None, 75, 75, 7)    0           lambda_315[0][0]                 
__________________________________________________________________________________________________
lambda_319 (Lambda)             (None, 75, 75, 7)    0           lambda_315[0][0]                 
__________________________________________________________________________________________________
conv2d_1072 (Conv2D)            (None, 75, 75, 32)   9248        max_pooling2d_1071[0][0]         
__________________________________________________________________________________________________
conv2d_1075 (Conv2D)            (None, 75, 75, 32)   2048        lambda_316[0][0]                 
__________________________________________________________________________________________________
conv2d_1078 (Conv2D)            (None, 75, 75, 32)   2048        lambda_317[0][0]                 
__________________________________________________________________________________________________
conv2d_1081 (Conv2D)            (None, 75, 75, 32)   2048        lambda_318[0][0]                 
__________________________________________________________________________________________________
conv2d_1084 (Conv2D)            (None, 75, 75, 32)   2048        lambda_319[0][0]                 
__________________________________________________________________________________________________
max_pooling2d_1072 (MaxPooling2 (None, 38, 38, 32)   0           conv2d_1072[0][0]                
__________________________________________________________________________________________________
max_pooling2d_1075 (MaxPooling2 (None, 38, 38, 32)   0           conv2d_1075[0][0]                
__________________________________________________________________________________________________
max_pooling2d_1078 (MaxPooling2 (None, 38, 38, 32)   0           conv2d_1078[0][0]                
__________________________________________________________________________________________________
max_pooling2d_1081 (MaxPooling2 (None, 38, 38, 32)   0           conv2d_1081[0][0]                
__________________________________________________________________________________________________
max_pooling2d_1084 (MaxPooling2 (None, 38, 38, 32)   0           conv2d_1084[0][0]                
__________________________________________________________________________________________________
conv2d_1073 (Conv2D)            (None, 38, 38, 64)   18496       max_pooling2d_1072[0][0]         
__________________________________________________________________________________________________
conv2d_1076 (Conv2D)            (None, 38, 38, 64)   18496       max_pooling2d_1075[0][0]         
__________________________________________________________________________________________________
conv2d_1079 (Conv2D)            (None, 38, 38, 64)   18496       max_pooling2d_1078[0][0]         
__________________________________________________________________________________________________
conv2d_1082 (Conv2D)            (None, 38, 38, 64)   18496       max_pooling2d_1081[0][0]         
__________________________________________________________________________________________________
conv2d_1085 (Conv2D)            (None, 38, 38, 64)   18496       max_pooling2d_1084[0][0]         
__________________________________________________________________________________________________
max_pooling2d_1073 (MaxPooling2 (None, 19, 19, 64)   0           conv2d_1073[0][0]                
__________________________________________________________________________________________________
max_pooling2d_1076 (MaxPooling2 (None, 19, 19, 64)   0           conv2d_1076[0][0]                
__________________________________________________________________________________________________
max_pooling2d_1079 (MaxPooling2 (None, 19, 19, 64)   0           conv2d_1079[0][0]                
__________________________________________________________________________________________________
max_pooling2d_1082 (MaxPooling2 (None, 19, 19, 64)   0           conv2d_1082[0][0]                
__________________________________________________________________________________________________
max_pooling2d_1085 (MaxPooling2 (None, 19, 19, 64)   0           conv2d_1085[0][0]                
__________________________________________________________________________________________________
conv2d_1074 (Conv2D)            (None, 19, 19, 128)  73856       max_pooling2d_1073[0][0]         
__________________________________________________________________________________________________
conv2d_1077 (Conv2D)            (None, 19, 19, 128)  73856       max_pooling2d_1076[0][0]         
__________________________________________________________________________________________________
conv2d_1080 (Conv2D)            (None, 19, 19, 128)  73856       max_pooling2d_1079[0][0]         
__________________________________________________________________________________________________
conv2d_1083 (Conv2D)            (None, 19, 19, 128)  73856       max_pooling2d_1082[0][0]         
__________________________________________________________________________________________________
conv2d_1086 (Conv2D)            (None, 19, 19, 128)  73856       max_pooling2d_1085[0][0]         
__________________________________________________________________________________________________
max_pooling2d_1074 (MaxPooling2 (None, 10, 10, 128)  0           conv2d_1074[0][0]                
__________________________________________________________________________________________________
max_pooling2d_1077 (MaxPooling2 (None, 10, 10, 128)  0           conv2d_1077[0][0]                
__________________________________________________________________________________________________
max_pooling2d_1080 (MaxPooling2 (None, 10, 10, 128)  0           conv2d_1080[0][0]                
__________________________________________________________________________________________________
max_pooling2d_1083 (MaxPooling2 (None, 10, 10, 128)  0           conv2d_1083[0][0]                
__________________________________________________________________________________________________
max_pooling2d_1086 (MaxPooling2 (None, 10, 10, 128)  0           conv2d_1086[0][0]                
__________________________________________________________________________________________________
concatenate_63 (Concatenate)    (None, 10, 10, 640)  0           max_pooling2d_1074[0][0]         
                                                                 max_pooling2d_1077[0][0]         
                                                                 max_pooling2d_1080[0][0]         
                                                                 max_pooling2d_1083[0][0]         
                                                                 max_pooling2d_1086[0][0]         
__________________________________________________________________________________________________
flatten_2583 (Flatten)          (None, 64000)        0           concatenate_63[0][0]             
==================================================================================================
Total params: 481,248
Trainable params: 481,248
Non-trainable params: 0
__________________________________________________________________________________________________
get cnn model
(1052, 64000)
[370.03363    14.614703    3.6601744 117.45466     0.         82.28299
…
