program start
seed set
[PhysicalDevice(name='/physical_device:GPU:0', device_type='GPU')]
Model: "model_128"
__________________________________________________________________________________________________
Layer (type)                    Output Shape         Param #     Connected to                     
==================================================================================================
input_65 (InputLayer)           [(None, 150, 150, 7) 0                                            
__________________________________________________________________________________________________
lambda_320 (Lambda)             (None, 150, 150, 7)  0           input_65[0][0]                   
__________________________________________________________________________________________________
conv2d_1088 (Conv2D)            (None, 150, 150, 32) 2048        lambda_320[0][0]                 
__________________________________________________________________________________________________
max_pooling2d_1088 (MaxPooling2 (None, 75, 75, 32)   0           conv2d_1088[0][0]                
__________________________________________________________________________________________________
lambda_321 (Lambda)             (None, 75, 75, 7)    0           lambda_320[0][0]                 
__________________________________________________________________________________________________
lambda_322 (Lambda)             (None, 75, 75, 7)    0           lambda_320[0][0]                 
__________________________________________________________________________________________________
lambda_323 (Lambda)             (None, 75, 75, 7)    0           lambda_320[0][0]                 
__________________________________________________________________________________________________
lambda_324 (Lambda)             (None, 75, 75, 7)    0           lambda_320[0][0]                 
__________________________________________________________________________________________________
conv2d_1089 (Conv2D)            (None, 75, 75, 32)   9248        max_pooling2d_1088[0][0]         
__________________________________________________________________________________________________
conv2d_1092 (Conv2D)            (None, 75, 75, 32)   2048        lambda_321[0][0]                 
__________________________________________________________________________________________________
conv2d_1095 (Conv2D)            (None, 75, 75, 32)   2048        lambda_322[0][0]                 
__________________________________________________________________________________________________
conv2d_1098 (Conv2D)            (None, 75, 75, 32)   2048        lambda_323[0][0]                 
__________________________________________________________________________________________________
conv2d_1101 (Conv2D)            (None, 75, 75, 32)   2048        lambda_324[0][0]                 
__________________________________________________________________________________________________
max_pooling2d_1089 (MaxPooling2 (None, 38, 38, 32)   0           conv2d_1089[0][0]                
__________________________________________________________________________________________________
max_pooling2d_1092 (MaxPooling2 (None, 38, 38, 32)   0           conv2d_1092[0][0]                
__________________________________________________________________________________________________
max_pooling2d_1095 (MaxPooling2 (None, 38, 38, 32)   0           conv2d_1095[0][0]                
__________________________________________________________________________________________________
max_pooling2d_1098 (MaxPooling2 (None, 38, 38, 32)   0           conv2d_1098[0][0]                
__________________________________________________________________________________________________
max_pooling2d_1101 (MaxPooling2 (None, 38, 38, 32)   0           conv2d_1101[0][0]                
__________________________________________________________________________________________________
conv2d_1090 (Conv2D)            (None, 38, 38, 64)   18496       max_pooling2d_1089[0][0]         
__________________________________________________________________________________________________
conv2d_1093 (Conv2D)            (None, 38, 38, 64)   18496       max_pooling2d_1092[0][0]         
__________________________________________________________________________________________________
conv2d_1096 (Conv2D)            (None, 38, 38, 64)   18496       max_pooling2d_1095[0][0]         
__________________________________________________________________________________________________
conv2d_1099 (Conv2D)            (None, 38, 38, 64)   18496       max_pooling2d_1098[0][0]         
__________________________________________________________________________________________________
conv2d_1102 (Conv2D)            (None, 38, 38, 64)   18496       max_pooling2d_1101[0][0]         
__________________________________________________________________________________________________
max_pooling2d_1090 (MaxPooling2 (None, 19, 19, 64)   0           conv2d_1090[0][0]                
__________________________________________________________________________________________________
max_pooling2d_1093 (MaxPooling2 (None, 19, 19, 64)   0           conv2d_1093[0][0]                
__________________________________________________________________________________________________
max_pooling2d_1096 (MaxPooling2 (None, 19, 19, 64)   0           conv2d_1096[0][0]                
__________________________________________________________________________________________________
max_pooling2d_1099 (MaxPooling2 (None, 19, 19, 64)   0           conv2d_1099[0][0]                
__________________________________________________________________________________________________
max_pooling2d_1102 (MaxPooling2 (None, 19, 19, 64)   0           conv2d_1102[0][0]                
__________________________________________________________________________________________________
conv2d_1091 (Conv2D)            (None, 19, 19, 128)  73856       max_pooling2d_1090[0][0]         
__________________________________________________________________________________________________
conv2d_1094 (Conv2D)            (None, 19, 19, 128)  73856       max_pooling2d_1093[0][0]         
__________________________________________________________________________________________________
conv2d_1097 (Conv2D)            (None, 19, 19, 128)  73856       max_pooling2d_1096[0][0]         
__________________________________________________________________________________________________
conv2d_1100 (Conv2D)            (None, 19, 19, 128)  73856       max_pooling2d_1099[0][0]         
__________________________________________________________________________________________________
conv2d_1103 (Conv2D)            (None, 19, 19, 128)  73856       max_pooling2d_1102[0][0]         
__________________________________________________________________________________________________
max_pooling2d_1091 (MaxPooling2 (None, 10, 10, 128)  0           conv2d_1091[0][0]                
__________________________________________________________________________________________________
max_pooling2d_1094 (MaxPooling2 (None, 10, 10, 128)  0           conv2d_1094[0][0]                
__________________________________________________________________________________________________
max_pooling2d_1097 (MaxPooling2 (None, 10, 10, 128)  0           conv2d_1097[0][0]                
__________________________________________________________________________________________________
max_pooling2d_1100 (MaxPooling2 (None, 10, 10, 128)  0           conv2d_1100[0][0]                
__________________________________________________________________________________________________
max_pooling2d_1103 (MaxPooling2 (None, 10, 10, 128)  0           conv2d_1103[0][0]                
__________________________________________________________________________________________________
concatenate_64 (Concatenate)    (None, 10, 10, 640)  0           max_pooling2d_1091[0][0]         
                                                                 max_pooling2d_1094[0][0]         
                                                                 max_pooling2d_1097[0][0]         
                                                                 max_pooling2d_1100[0][0]         
                                                                 max_pooling2d_1103[0][0]         
__________________________________________________________________________________________________
flatten_2624 (Flatten)          (None, 64000)        0           concatenate_64[0][0]             
__________________________________________________________________________________________________
dense_192 (Dense)               (None, 1024)         65537024    flatten_2624[0][0]               
__________________________________________________________________________________________________
dropout_128 (Dropout)           (None, 1024)         0           dense_192[0][0]                  
__________________________________________________________________________________________________
dense_193 (Dense)               (None, 1024)         1049600     dropout_128[0][0]                
__________________________________________________________________________________________________
dropout_129 (Dropout)           (None, 1024)         0           dense_193[0][0]                  
__________________________________________________________________________________________________
dense_194 (Dense)               (None, 5)            5125        dropout_129[0][0]                
==================================================================================================
Total params: 67,072,997
Trainable params: 67,072,997
Non-trainable params: 0
__________________________________________________________________________________________________
start loading dataset ...
load "Big" complete
load "Long" complete
load "Mitotic" complete
…
           3       0.84      0.84      0.84        56
           4       0.88      0.12      0.22        56

    accuracy                           0.73       260
   macro avg       0.74      0.73      0.67       260
weighted avg       0.78      0.73      0.68       260

Model: "model_129"
__________________________________________________________________________________________________
Layer (type)                    Output Shape         Param #     Connected to                     
==================================================================================================
input_65 (InputLayer)           [(None, 150, 150, 7) 0                                            
__________________________________________________________________________________________________
lambda_320 (Lambda)             (None, 150, 150, 7)  0           input_65[0][0]                   
__________________________________________________________________________________________________
conv2d_1088 (Conv2D)            (None, 150, 150, 32) 2048        lambda_320[0][0]                 
__________________________________________________________________________________________________
max_pooling2d_1088 (MaxPooling2 (None, 75, 75, 32)   0           conv2d_1088[0][0]                
__________________________________________________________________________________________________
lambda_321 (Lambda)             (None, 75, 75, 7)    0           lambda_320[0][0]                 
__________________________________________________________________________________________________
lambda_322 (Lambda)             (None, 75, 75, 7)    0           lambda_320[0][0]                 
__________________________________________________________________________________________________
lambda_323 (Lambda)             (None, 75, 75, 7)    0           lambda_320[0][0]                 
__________________________________________________________________________________________________
lambda_324 (Lambda)             (None, 75, 75, 7)    0           lambda_320[0][0]                 
__________________________________________________________________________________________________
conv2d_1089 (Conv2D)            (None, 75, 75, 32)   9248        max_pooling2d_1088[0][0]         
__________________________________________________________________________________________________
conv2d_1092 (Conv2D)            (None, 75, 75, 32)   2048        lambda_321[0][0]                 
__________________________________________________________________________________________________
conv2d_1095 (Conv2D)            (None, 75, 75, 32)   2048        lambda_322[0][0]                 
__________________________________________________________________________________________________
conv2d_1098 (Conv2D)            (None, 75, 75, 32)   2048        lambda_323[0][0]                 
__________________________________________________________________________________________________
conv2d_1101 (Conv2D)            (None, 75, 75, 32)   2048        lambda_324[0][0]                 
__________________________________________________________________________________________________
max_pooling2d_1089 (MaxPooling2 (None, 38, 38, 32)   0           conv2d_1089[0][0]                
__________________________________________________________________________________________________
max_pooling2d_1092 (MaxPooling2 (None, 38, 38, 32)   0           conv2d_1092[0][0]                
__________________________________________________________________________________________________
max_pooling2d_1095 (MaxPooling2 (None, 38, 38, 32)   0           conv2d_1095[0][0]                
__________________________________________________________________________________________________
max_pooling2d_1098 (MaxPooling2 (None, 38, 38, 32)   0           conv2d_1098[0][0]                
__________________________________________________________________________________________________
max_pooling2d_1101 (MaxPooling2 (None, 38, 38, 32)   0           conv2d_1101[0][0]                
__________________________________________________________________________________________________
conv2d_1090 (Conv2D)            (None, 38, 38, 64)   18496       max_pooling2d_1089[0][0]         
__________________________________________________________________________________________________
conv2d_1093 (Conv2D)            (None, 38, 38, 64)   18496       max_pooling2d_1092[0][0]         
__________________________________________________________________________________________________
conv2d_1096 (Conv2D)            (None, 38, 38, 64)   18496       max_pooling2d_1095[0][0]         
__________________________________________________________________________________________________
conv2d_1099 (Conv2D)            (None, 38, 38, 64)   18496       max_pooling2d_1098[0][0]         
__________________________________________________________________________________________________
conv2d_1102 (Conv2D)            (None, 38, 38, 64)   18496       max_pooling2d_1101[0][0]         
__________________________________________________________________________________________________
max_pooling2d_1090 (MaxPooling2 (None, 19, 19, 64)   0           conv2d_1090[0][0]                
__________________________________________________________________________________________________
max_pooling2d_1093 (MaxPooling2 (None, 19, 19, 64)   0           conv2d_1093[0][0]                
__________________________________________________________________________________________________
max_pooling2d_1096 (MaxPooling2 (None, 19, 19, 64)   0           conv2d_1096[0][0]                
__________________________________________________________________________________________________
max_pooling2d_1099 (MaxPooling2 (None, 19, 19, 64)   0           conv2d_1099[0][0]                
__________________________________________________________________________________________________
max_pooling2d_1102 (MaxPooling2 (None, 19, 19, 64)   0           conv2d_1102[0][0]                
__________________________________________________________________________________________________
conv2d_1091 (Conv2D)            (None, 19, 19, 128)  73856       max_pooling2d_1090[0][0]         
__________________________________________________________________________________________________
conv2d_1094 (Conv2D)            (None, 19, 19, 128)  73856       max_pooling2d_1093[0][0]         
__________________________________________________________________________________________________
conv2d_1097 (Conv2D)            (None, 19, 19, 128)  73856       max_pooling2d_1096[0][0]         
__________________________________________________________________________________________________
conv2d_1100 (Conv2D)            (None, 19, 19, 128)  73856       max_pooling2d_1099[0][0]         
__________________________________________________________________________________________________
conv2d_1103 (Conv2D)            (None, 19, 19, 128)  73856       max_pooling2d_1102[0][0]         
__________________________________________________________________________________________________
max_pooling2d_1091 (MaxPooling2 (None, 10, 10, 128)  0           conv2d_1091[0][0]                
__________________________________________________________________________________________________
max_pooling2d_1094 (MaxPooling2 (None, 10, 10, 128)  0           conv2d_1094[0][0]                
__________________________________________________________________________________________________
max_pooling2d_1097 (MaxPooling2 (None, 10, 10, 128)  0           conv2d_1097[0][0]                
__________________________________________________________________________________________________
max_pooling2d_1100 (MaxPooling2 (None, 10, 10, 128)  0           conv2d_1100[0][0]                
__________________________________________________________________________________________________
max_pooling2d_1103 (MaxPooling2 (None, 10, 10, 128)  0           conv2d_1103[0][0]                
__________________________________________________________________________________________________
concatenate_64 (Concatenate)    (None, 10, 10, 640)  0           max_pooling2d_1091[0][0]         
                                                                 max_pooling2d_1094[0][0]         
                                                                 max_pooling2d_1097[0][0]         
                                                                 max_pooling2d_1100[0][0]         
                                                                 max_pooling2d_1103[0][0]         
__________________________________________________________________________________________________
flatten_2624 (Flatten)          (None, 64000)        0           concatenate_64[0][0]             
==================================================================================================
Total params: 481,248
Trainable params: 481,248
Non-trainable params: 0
__________________________________________________________________________________________________
get cnn model
(1052, 64000)
[329.01303 259.89014 120.74351 394.1693  439.11823 419.125   194.42526
…
