program start
seed set
[PhysicalDevice(name='/physical_device:GPU:0', device_type='GPU')]
Model: "model_2"
__________________________________________________________________________________________________
Layer (type)                    Output Shape         Param #     Connected to                     
==================================================================================================
input_2 (InputLayer)            [(None, 150, 150, 7) 0                                            
__________________________________________________________________________________________________
lambda_5 (Lambda)               (None, 150, 150, 7)  0           input_2[0][0]                    
__________________________________________________________________________________________________
conv2d_17 (Conv2D)              (None, 150, 150, 32) 2048        lambda_5[0][0]                   
__________________________________________________________________________________________________
max_pooling2d_17 (MaxPooling2D) (None, 75, 75, 32)   0           conv2d_17[0][0]                  
__________________________________________________________________________________________________
lambda_6 (Lambda)               (None, 75, 75, 7)    0           lambda_5[0][0]                   
__________________________________________________________________________________________________
lambda_7 (Lambda)               (None, 75, 75, 7)    0           lambda_5[0][0]                   
__________________________________________________________________________________________________
lambda_8 (Lambda)               (None, 75, 75, 7)    0           lambda_5[0][0]                   
__________________________________________________________________________________________________
lambda_9 (Lambda)               (None, 75, 75, 7)    0           lambda_5[0][0]                   
__________________________________________________________________________________________________
conv2d_18 (Conv2D)              (None, 75, 75, 32)   9248        max_pooling2d_17[0][0]           
__________________________________________________________________________________________________
conv2d_21 (Conv2D)              (None, 75, 75, 32)   2048        lambda_6[0][0]                   
__________________________________________________________________________________________________
conv2d_24 (Conv2D)              (None, 75, 75, 32)   2048        lambda_7[0][0]                   
__________________________________________________________________________________________________
conv2d_27 (Conv2D)              (None, 75, 75, 32)   2048        lambda_8[0][0]                   
__________________________________________________________________________________________________
conv2d_30 (Conv2D)              (None, 75, 75, 32)   2048        lambda_9[0][0]                   
__________________________________________________________________________________________________
max_pooling2d_18 (MaxPooling2D) (None, 38, 38, 32)   0           conv2d_18[0][0]                  
__________________________________________________________________________________________________
max_pooling2d_21 (MaxPooling2D) (None, 38, 38, 32)   0           conv2d_21[0][0]                  
__________________________________________________________________________________________________
max_pooling2d_24 (MaxPooling2D) (None, 38, 38, 32)   0           conv2d_24[0][0]                  
__________________________________________________________________________________________________
max_pooling2d_27 (MaxPooling2D) (None, 38, 38, 32)   0           conv2d_27[0][0]                  
__________________________________________________________________________________________________
max_pooling2d_30 (MaxPooling2D) (None, 38, 38, 32)   0           conv2d_30[0][0]                  
__________________________________________________________________________________________________
conv2d_19 (Conv2D)              (None, 38, 38, 64)   18496       max_pooling2d_18[0][0]           
__________________________________________________________________________________________________
conv2d_22 (Conv2D)              (None, 38, 38, 64)   18496       max_pooling2d_21[0][0]           
__________________________________________________________________________________________________
conv2d_25 (Conv2D)              (None, 38, 38, 64)   18496       max_pooling2d_24[0][0]           
__________________________________________________________________________________________________
conv2d_28 (Conv2D)              (None, 38, 38, 64)   18496       max_pooling2d_27[0][0]           
__________________________________________________________________________________________________
conv2d_31 (Conv2D)              (None, 38, 38, 64)   18496       max_pooling2d_30[0][0]           
__________________________________________________________________________________________________
max_pooling2d_19 (MaxPooling2D) (None, 19, 19, 64)   0           conv2d_19[0][0]                  
__________________________________________________________________________________________________
max_pooling2d_22 (MaxPooling2D) (None, 19, 19, 64)   0           conv2d_22[0][0]                  
__________________________________________________________________________________________________
max_pooling2d_25 (MaxPooling2D) (None, 19, 19, 64)   0           conv2d_25[0][0]                  
__________________________________________________________________________________________________
max_pooling2d_28 (MaxPooling2D) (None, 19, 19, 64)   0           conv2d_28[0][0]                  
__________________________________________________________________________________________________
max_pooling2d_31 (MaxPooling2D) (None, 19, 19, 64)   0           conv2d_31[0][0]                  
__________________________________________________________________________________________________
conv2d_20 (Conv2D)              (None, 19, 19, 128)  73856       max_pooling2d_19[0][0]           
__________________________________________________________________________________________________
conv2d_23 (Conv2D)              (None, 19, 19, 128)  73856       max_pooling2d_22[0][0]           
__________________________________________________________________________________________________
conv2d_26 (Conv2D)              (None, 19, 19, 128)  73856       max_pooling2d_25[0][0]           
__________________________________________________________________________________________________
conv2d_29 (Conv2D)              (None, 19, 19, 128)  73856       max_pooling2d_28[0][0]           
__________________________________________________________________________________________________
conv2d_32 (Conv2D)              (None, 19, 19, 128)  73856       max_pooling2d_31[0][0]           
__________________________________________________________________________________________________
max_pooling2d_20 (MaxPooling2D) (None, 10, 10, 128)  0           conv2d_20[0][0]                  
__________________________________________________________________________________________________
max_pooling2d_23 (MaxPooling2D) (None, 10, 10, 128)  0           conv2d_23[0][0]                  
__________________________________________________________________________________________________
max_pooling2d_26 (MaxPooling2D) (None, 10, 10, 128)  0           conv2d_26[0][0]                  
__________________________________________________________________________________________________
max_pooling2d_29 (MaxPooling2D) (None, 10, 10, 128)  0           conv2d_29[0][0]                  
__________________________________________________________________________________________________
max_pooling2d_32 (MaxPooling2D) (None, 10, 10, 128)  0           conv2d_32[0][0]                  
__________________________________________________________________________________________________
concatenate_1 (Concatenate)     (None, 10, 10, 640)  0           max_pooling2d_20[0][0]           
                                                                 max_pooling2d_23[0][0]           
                                                                 max_pooling2d_26[0][0]           
                                                                 max_pooling2d_29[0][0]           
                                                                 max_pooling2d_32[0][0]           
__________________________________________________________________________________________________
flatten_41 (Flatten)            (None, 64000)        0           concatenate_1[0][0]              
__________________________________________________________________________________________________
dense_3 (Dense)                 (None, 1024)         65537024    flatten_41[0][0]                 
__________________________________________________________________________________________________
dropout_2 (Dropout)             (None, 1024)         0           dense_3[0][0]                    
__________________________________________________________________________________________________
dense_4 (Dense)                 (None, 1024)         1049600     dropout_2[0][0]                  
__________________________________________________________________________________________________
dropout_3 (Dropout)             (None, 1024)         0           dense_4[0][0]                    
__________________________________________________________________________________________________
dense_5 (Dense)                 (None, 5)            5125        dropout_3[0][0]                  
==================================================================================================
Total params: 67,072,997
Trainable params: 67,072,997
Non-trainable params: 0
__________________________________________________________________________________________________
start loading dataset ...
load "Big" complete
load "Long" complete
load "Mitotic" complete
…
           3       0.81      0.91      0.86        56
           4       1.00      0.05      0.10        56

    accuracy                           0.73       260
   macro avg       0.80      0.74      0.67       260
weighted avg       0.80      0.73      0.67       260

Model: "model_3"
__________________________________________________________________________________________________
Layer (type)                    Output Shape         Param #     Connected to                     
==================================================================================================
input_2 (InputLayer)            [(None, 150, 150, 7) 0                                            
__________________________________________________________________________________________________
lambda_5 (Lambda)               (None, 150, 150, 7)  0           input_2[0][0]                    
__________________________________________________________________________________________________
conv2d_17 (Conv2D)              (None, 150, 150, 32) 2048        lambda_5[0][0]                   
__________________________________________________________________________________________________
max_pooling2d_17 (MaxPooling2D) (None, 75, 75, 32)   0           conv2d_17[0][0]                  
__________________________________________________________________________________________________
lambda_6 (Lambda)               (None, 75, 75, 7)    0           lambda_5[0][0]                   
__________________________________________________________________________________________________
lambda_7 (Lambda)               (None, 75, 75, 7)    0           lambda_5[0][0]                   
__________________________________________________________________________________________________
lambda_8 (Lambda)               (None, 75, 75, 7)    0           lambda_5[0][0]                   
__________________________________________________________________________________________________
lambda_9 (Lambda)               (None, 75, 75, 7)    0           lambda_5[0][0]                   
__________________________________________________________________________________________________
conv2d_18 (Conv2D)              (None, 75, 75, 32)   9248        max_pooling2d_17[0][0]           
__________________________________________________________________________________________________
conv2d_21 (Conv2D)              (None, 75, 75, 32)   2048        lambda_6[0][0]                   
__________________________________________________________________________________________________
conv2d_24 (Conv2D)              (None, 75, 75, 32)   2048        lambda_7[0][0]                   
__________________________________________________________________________________________________
conv2d_27 (Conv2D)              (None, 75, 75, 32)   2048        lambda_8[0][0]                   
__________________________________________________________________________________________________
conv2d_30 (Conv2D)              (None, 75, 75, 32)   2048        lambda_9[0][0]                   
__________________________________________________________________________________________________
max_pooling2d_18 (MaxPooling2D) (None, 38, 38, 32)   0           conv2d_18[0][0]                  
__________________________________________________________________________________________________
max_pooling2d_21 (MaxPooling2D) (None, 38, 38, 32)   0           conv2d_21[0][0]                  
__________________________________________________________________________________________________
max_pooling2d_24 (MaxPooling2D) (None, 38, 38, 32)   0           conv2d_24[0][0]                  
__________________________________________________________________________________________________
max_pooling2d_27 (MaxPooling2D) (None, 38, 38, 32)   0           conv2d_27[0][0]                  
__________________________________________________________________________________________________
max_pooling2d_30 (MaxPooling2D) (None, 38, 38, 32)   0           conv2d_30[0][0]                  
__________________________________________________________________________________________________
conv2d_19 (Conv2D)              (None, 38, 38, 64)   18496       max_pooling2d_18[0][0]           
__________________________________________________________________________________________________
conv2d_22 (Conv2D)              (None, 38, 38, 64)   18496       max_pooling2d_21[0][0]           
__________________________________________________________________________________________________
conv2d_25 (Conv2D)              (None, 38, 38, 64)   18496       max_pooling2d_24[0][0]           
__________________________________________________________________________________________________
conv2d_28 (Conv2D)              (None, 38, 38, 64)   18496       max_pooling2d_27[0][0]           
__________________________________________________________________________________________________
conv2d_31 (Conv2D)              (None, 38, 38, 64)   18496       max_pooling2d_30[0][0]           
__________________________________________________________________________________________________
max_pooling2d_19 (MaxPooling2D) (None, 19, 19, 64)   0           conv2d_19[0][0]                  
__________________________________________________________________________________________________
max_pooling2d_22 (MaxPooling2D) (None, 19, 19, 64)   0           conv2d_22[0][0]                  
__________________________________________________________________________________________________
max_pooling2d_25 (MaxPooling2D) (None, 19, 19, 64)   0           conv2d_25[0][0]                  
__________________________________________________________________________________________________
max_pooling2d_28 (MaxPooling2D) (None, 19, 19, 64)   0           conv2d_28[0][0]                  
__________________________________________________________________________________________________
max_pooling2d_31 (MaxPooling2D) (None, 19, 19, 64)   0           conv2d_31[0][0]                  
__________________________________________________________________________________________________
conv2d_20 (Conv2D)              (None, 19, 19, 128)  73856       max_pooling2d_19[0][0]           
__________________________________________________________________________________________________
conv2d_23 (Conv2D)              (None, 19, 19, 128)  73856       max_pooling2d_22[0][0]           
__________________________________________________________________________________________________
conv2d_26 (Conv2D)              (None, 19, 19, 128)  73856       max_pooling2d_25[0][0]           
__________________________________________________________________________________________________
conv2d_29 (Conv2D)              (None, 19, 19, 128)  73856       max_pooling2d_28[0][0]           
__________________________________________________________________________________________________
conv2d_32 (Conv2D)              (None, 19, 19, 128)  73856       max_pooling2d_31[0][0]           
__________________________________________________________________________________________________
max_pooling2d_20 (MaxPooling2D) (None, 10, 10, 128)  0           conv2d_20[0][0]                  
__________________________________________________________________________________________________
max_pooling2d_23 (MaxPooling2D) (None, 10, 10, 128)  0           conv2d_23[0][0]                  
__________________________________________________________________________________________________
max_pooling2d_26 (MaxPooling2D) (None, 10, 10, 128)  0           conv2d_26[0][0]                  
__________________________________________________________________________________________________
max_pooling2d_29 (MaxPooling2D) (None, 10, 10, 128)  0           conv2d_29[0][0]                  
__________________________________________________________________________________________________
max_pooling2d_32 (MaxPooling2D) (None, 10, 10, 128)  0           conv2d_32[0][0]                  
__________________________________________________________________________________________________
concatenate_1 (Concatenate)     (None, 10, 10, 640)  0           max_pooling2d_20[0][0]           
                                                                 max_pooling2d_23[0][0]           
                                                                 max_pooling2d_26[0][0]           
                                                                 max_pooling2d_29[0][0]           
                                                                 max_pooling2d_32[0][0]           
__________________________________________________________________________________________________
flatten_41 (Flatten)            (None, 64000)        0           concatenate_1[0][0]              
==================================================================================================
Total params: 481,248
Trainable params: 481,248
Non-trainable params: 0
__________________________________________________________________________________________________
get cnn model
(1052, 64000)
[412.6995   104.9146    78.60819  188.02412    0.         0.
…
