program start
seed set
[PhysicalDevice(name='/physical_device:GPU:0', device_type='GPU')]
Model: "model_6"
__________________________________________________________________________________________________
Layer (type)                    Output Shape         Param #     Connected to                     
==================================================================================================
input_4 (InputLayer)            [(None, 150, 150, 7) 0                                            
__________________________________________________________________________________________________
lambda_15 (Lambda)              (None, 150, 150, 7)  0           input_4[0][0]                    
__________________________________________________________________________________________________
conv2d_51 (Conv2D)              (None, 150, 150, 32) 2048        lambda_15[0][0]                  
__________________________________________________________________________________________________
max_pooling2d_51 (MaxPooling2D) (None, 75, 75, 32)   0           conv2d_51[0][0]                  
__________________________________________________________________________________________________
lambda_16 (Lambda)              (None, 75, 75, 7)    0           lambda_15[0][0]                  
__________________________________________________________________________________________________
lambda_17 (Lambda)              (None, 75, 75, 7)    0           lambda_15[0][0]                  
__________________________________________________________________________________________________
lambda_18 (Lambda)              (None, 75, 75, 7)    0           lambda_15[0][0]                  
__________________________________________________________________________________________________
lambda_19 (Lambda)              (None, 75, 75, 7)    0           lambda_15[0][0]                  
__________________________________________________________________________________________________
conv2d_52 (Conv2D)              (None, 75, 75, 32)   9248        max_pooling2d_51[0][0]           
__________________________________________________________________________________________________
conv2d_55 (Conv2D)              (None, 75, 75, 32)   2048        lambda_16[0][0]                  
__________________________________________________________________________________________________
conv2d_58 (Conv2D)              (None, 75, 75, 32)   2048        lambda_17[0][0]                  
__________________________________________________________________________________________________
conv2d_61 (Conv2D)              (None, 75, 75, 32)   2048        lambda_18[0][0]                  
__________________________________________________________________________________________________
conv2d_64 (Conv2D)              (None, 75, 75, 32)   2048        lambda_19[0][0]                  
__________________________________________________________________________________________________
max_pooling2d_52 (MaxPooling2D) (None, 38, 38, 32)   0           conv2d_52[0][0]                  
__________________________________________________________________________________________________
max_pooling2d_55 (MaxPooling2D) (None, 38, 38, 32)   0           conv2d_55[0][0]                  
__________________________________________________________________________________________________
max_pooling2d_58 (MaxPooling2D) (None, 38, 38, 32)   0           conv2d_58[0][0]                  
__________________________________________________________________________________________________
max_pooling2d_61 (MaxPooling2D) (None, 38, 38, 32)   0           conv2d_61[0][0]                  
__________________________________________________________________________________________________
max_pooling2d_64 (MaxPooling2D) (None, 38, 38, 32)   0           conv2d_64[0][0]                  
__________________________________________________________________________________________________
conv2d_53 (Conv2D)              (None, 38, 38, 64)   18496       max_pooling2d_52[0][0]           
__________________________________________________________________________________________________
conv2d_56 (Conv2D)              (None, 38, 38, 64)   18496       max_pooling2d_55[0][0]           
__________________________________________________________________________________________________
conv2d_59 (Conv2D)              (None, 38, 38, 64)   18496       max_pooling2d_58[0][0]           
__________________________________________________________________________________________________
conv2d_62 (Conv2D)              (None, 38, 38, 64)   18496       max_pooling2d_61[0][0]           
__________________________________________________________________________________________________
conv2d_65 (Conv2D)              (None, 38, 38, 64)   18496       max_pooling2d_64[0][0]           
__________________________________________________________________________________________________
max_pooling2d_53 (MaxPooling2D) (None, 19, 19, 64)   0           conv2d_53[0][0]                  
__________________________________________________________________________________________________
max_pooling2d_56 (MaxPooling2D) (None, 19, 19, 64)   0           conv2d_56[0][0]                  
__________________________________________________________________________________________________
max_pooling2d_59 (MaxPooling2D) (None, 19, 19, 64)   0           conv2d_59[0][0]                  
__________________________________________________________________________________________________
max_pooling2d_62 (MaxPooling2D) (None, 19, 19, 64)   0           conv2d_62[0][0]                  
__________________________________________________________________________________________________
max_pooling2d_65 (MaxPooling2D) (None, 19, 19, 64)   0           conv2d_65[0][0]                  
__________________________________________________________________________________________________
conv2d_54 (Conv2D)              (None, 19, 19, 128)  73856       max_pooling2d_53[0][0]           
__________________________________________________________________________________________________
conv2d_57 (Conv2D)              (None, 19, 19, 128)  73856       max_pooling2d_56[0][0]           
__________________________________________________________________________________________________
conv2d_60 (Conv2D)              (None, 19, 19, 128)  73856       max_pooling2d_59[0][0]           
__________________________________________________________________________________________________
conv2d_63 (Conv2D)              (None, 19, 19, 128)  73856       max_pooling2d_62[0][0]           
__________________________________________________________________________________________________
conv2d_66 (Conv2D)              (None, 19, 19, 128)  73856       max_pooling2d_65[0][0]           
__________________________________________________________________________________________________
max_pooling2d_54 (MaxPooling2D) (None, 10, 10, 128)  0           conv2d_54[0][0]                  
__________________________________________________________________________________________________
max_pooling2d_57 (MaxPooling2D) (None, 10, 10, 128)  0           conv2d_57[0][0]                  
__________________________________________________________________________________________________
max_pooling2d_60 (MaxPooling2D) (None, 10, 10, 128)  0           conv2d_60[0][0]                  
__________________________________________________________________________________________________
max_pooling2d_63 (MaxPooling2D) (None, 10, 10, 128)  0           conv2d_63[0][0]                  
__________________________________________________________________________________________________
max_pooling2d_66 (MaxPooling2D) (None, 10, 10, 128)  0           conv2d_66[0][0]                  
__________________________________________________________________________________________________
concatenate_3 (Concatenate)     (None, 10, 10, 640)  0           max_pooling2d_54[0][0]           
                                                                 max_pooling2d_57[0][0]           
                                                                 max_pooling2d_60[0][0]           
                                                                 max_pooling2d_63[0][0]           
                                                                 max_pooling2d_66[0][0]           
__________________________________________________________________________________________________
flatten_123 (Flatten)           (None, 64000)        0           concatenate_3[0][0]              
__________________________________________________________________________________________________
dense_9 (Dense)                 (None, 1024)         65537024    flatten_123[0][0]                
__________________________________________________________________________________________________
dropout_6 (Dropout)             (None, 1024)         0           dense_9[0][0]                    
__________________________________________________________________________________________________
dense_10 (Dense)                (None, 1024)         1049600     dropout_6[0][0]                  
__________________________________________________________________________________________________
dropout_7 (Dropout)             (None, 1024)         0           dense_10[0][0]                   
__________________________________________________________________________________________________
dense_11 (Dense)                (None, 5)            5125        dropout_7[0][0]                  
==================================================================================================
Total params: 67,072,997
Trainable params: 67,072,997
Non-trainable params: 0
__________________________________________________________________________________________________
start loading dataset ...
load "Big" complete
load "Long" complete
load "Mitotic" complete
…
           3       0.69      0.96      0.81        56
           4       1.00      0.11      0.19        56

    accuracy                           0.73       260
   macro avg       0.79      0.72      0.67       260
weighted avg       0.79      0.73      0.67       260

Model: "model_7"
__________________________________________________________________________________________________
Layer (type)                    Output Shape         Param #     Connected to                     
==================================================================================================
input_4 (InputLayer)            [(None, 150, 150, 7) 0                                            
__________________________________________________________________________________________________
lambda_15 (Lambda)              (None, 150, 150, 7)  0           input_4[0][0]                    
__________________________________________________________________________________________________
conv2d_51 (Conv2D)              (None, 150, 150, 32) 2048        lambda_15[0][0]                  
__________________________________________________________________________________________________
max_pooling2d_51 (MaxPooling2D) (None, 75, 75, 32)   0           conv2d_51[0][0]                  
__________________________________________________________________________________________________
lambda_16 (Lambda)              (None, 75, 75, 7)    0           lambda_15[0][0]                  
__________________________________________________________________________________________________
lambda_17 (Lambda)              (None, 75, 75, 7)    0           lambda_15[0][0]                  
__________________________________________________________________________________________________
lambda_18 (Lambda)              (None, 75, 75, 7)    0           lambda_15[0][0]                  
__________________________________________________________________________________________________
lambda_19 (Lambda)              (None, 75, 75, 7)    0           lambda_15[0][0]                  
__________________________________________________________________________________________________
conv2d_52 (Conv2D)              (None, 75, 75, 32)   9248        max_pooling2d_51[0][0]           
__________________________________________________________________________________________________
conv2d_55 (Conv2D)              (None, 75, 75, 32)   2048        lambda_16[0][0]                  
__________________________________________________________________________________________________
conv2d_58 (Conv2D)              (None, 75, 75, 32)   2048        lambda_17[0][0]                  
__________________________________________________________________________________________________
conv2d_61 (Conv2D)              (None, 75, 75, 32)   2048        lambda_18[0][0]                  
__________________________________________________________________________________________________
conv2d_64 (Conv2D)              (None, 75, 75, 32)   2048        lambda_19[0][0]                  
__________________________________________________________________________________________________
max_pooling2d_52 (MaxPooling2D) (None, 38, 38, 32)   0           conv2d_52[0][0]                  
__________________________________________________________________________________________________
max_pooling2d_55 (MaxPooling2D) (None, 38, 38, 32)   0           conv2d_55[0][0]                  
__________________________________________________________________________________________________
max_pooling2d_58 (MaxPooling2D) (None, 38, 38, 32)   0           conv2d_58[0][0]                  
__________________________________________________________________________________________________
max_pooling2d_61 (MaxPooling2D) (None, 38, 38, 32)   0           conv2d_61[0][0]                  
__________________________________________________________________________________________________
max_pooling2d_64 (MaxPooling2D) (None, 38, 38, 32)   0           conv2d_64[0][0]                  
__________________________________________________________________________________________________
conv2d_53 (Conv2D)              (None, 38, 38, 64)   18496       max_pooling2d_52[0][0]           
__________________________________________________________________________________________________
conv2d_56 (Conv2D)              (None, 38, 38, 64)   18496       max_pooling2d_55[0][0]           
__________________________________________________________________________________________________
conv2d_59 (Conv2D)              (None, 38, 38, 64)   18496       max_pooling2d_58[0][0]           
__________________________________________________________________________________________________
conv2d_62 (Conv2D)              (None, 38, 38, 64)   18496       max_pooling2d_61[0][0]           
__________________________________________________________________________________________________
conv2d_65 (Conv2D)              (None, 38, 38, 64)   18496       max_pooling2d_64[0][0]           
__________________________________________________________________________________________________
max_pooling2d_53 (MaxPooling2D) (None, 19, 19, 64)   0           conv2d_53[0][0]                  
__________________________________________________________________________________________________
max_pooling2d_56 (MaxPooling2D) (None, 19, 19, 64)   0           conv2d_56[0][0]                  
__________________________________________________________________________________________________
max_pooling2d_59 (MaxPooling2D) (None, 19, 19, 64)   0           conv2d_59[0][0]                  
__________________________________________________________________________________________________
max_pooling2d_62 (MaxPooling2D) (None, 19, 19, 64)   0           conv2d_62[0][0]                  
__________________________________________________________________________________________________
max_pooling2d_65 (MaxPooling2D) (None, 19, 19, 64)   0           conv2d_65[0][0]                  
__________________________________________________________________________________________________
conv2d_54 (Conv2D)              (None, 19, 19, 128)  73856       max_pooling2d_53[0][0]           
__________________________________________________________________________________________________
conv2d_57 (Conv2D)              (None, 19, 19, 128)  73856       max_pooling2d_56[0][0]           
__________________________________________________________________________________________________
conv2d_60 (Conv2D)              (None, 19, 19, 128)  73856       max_pooling2d_59[0][0]           
__________________________________________________________________________________________________
conv2d_63 (Conv2D)              (None, 19, 19, 128)  73856       max_pooling2d_62[0][0]           
__________________________________________________________________________________________________
conv2d_66 (Conv2D)              (None, 19, 19, 128)  73856       max_pooling2d_65[0][0]           
__________________________________________________________________________________________________
max_pooling2d_54 (MaxPooling2D) (None, 10, 10, 128)  0           conv2d_54[0][0]                  
__________________________________________________________________________________________________
max_pooling2d_57 (MaxPooling2D) (None, 10, 10, 128)  0           conv2d_57[0][0]                  
__________________________________________________________________________________________________
max_pooling2d_60 (MaxPooling2D) (None, 10, 10, 128)  0           conv2d_60[0][0]                  
__________________________________________________________________________________________________
max_pooling2d_63 (MaxPooling2D) (None, 10, 10, 128)  0           conv2d_63[0][0]                  
__________________________________________________________________________________________________
max_pooling2d_66 (MaxPooling2D) (None, 10, 10, 128)  0           conv2d_66[0][0]                  
__________________________________________________________________________________________________
concatenate_3 (Concatenate)     (None, 10, 10, 640)  0           max_pooling2d_54[0][0]           
                                                                 max_pooling2d_57[0][0]           
                                                                 max_pooling2d_60[0][0]           
                                                                 max_pooling2d_63[0][0]           
                                                                 max_pooling2d_66[0][0]           
__________________________________________________________________________________________________
flatten_123 (Flatten)           (None, 64000)        0           concatenate_3[0][0]              
==================================================================================================
Total params: 481,248
Trainable params: 481,248
Non-trainable params: 0
__________________________________________________________________________________________________
get cnn model
(1052, 64000)
[  0.        39.821472 254.10324  161.79623  189.11737  329.47067
…
