program start
seed set
[PhysicalDevice(name='/physical_device:GPU:0', device_type='GPU')]
Model: "model_12"
__________________________________________________________________________________________________
Layer (type)                    Output Shape         Param #     Connected to                     
==================================================================================================
input_7 (InputLayer)            [(None, 150, 150, 7) 0                                            
__________________________________________________________________________________________________
lambda_30 (Lambda)              (None, 150, 150, 7)  0           input_7[0][0]                    
__________________________________________________________________________________________________
conv2d_102 (Conv2D)             (None, 150, 150, 32) 2048        lambda_30[0][0]                  
__________________________________________________________________________________________________
max_pooling2d_102 (MaxPooling2D (None, 75, 75, 32)   0           conv2d_102[0][0]                 
__________________________________________________________________________________________________
lambda_31 (Lambda)              (None, 75, 75, 7)    0           lambda_30[0][0]                  
__________________________________________________________________________________________________
lambda_32 (Lambda)              (None, 75, 75, 7)    0           lambda_30[0][0]                  
__________________________________________________________________________________________________
lambda_33 (Lambda)              (None, 75, 75, 7)    0           lambda_30[0][0]                  
__________________________________________________________________________________________________
lambda_34 (Lambda)              (None, 75, 75, 7)    0           lambda_30[0][0]                  
__________________________________________________________________________________________________
conv2d_103 (Conv2D)             (None, 75, 75, 32)   9248        max_pooling2d_102[0][0]          
__________________________________________________________________________________________________
conv2d_106 (Conv2D)             (None, 75, 75, 32)   2048        lambda_31[0][0]                  
__________________________________________________________________________________________________
conv2d_109 (Conv2D)             (None, 75, 75, 32)   2048        lambda_32[0][0]                  
__________________________________________________________________________________________________
conv2d_112 (Conv2D)             (None, 75, 75, 32)   2048        lambda_33[0][0]                  
__________________________________________________________________________________________________
conv2d_115 (Conv2D)             (None, 75, 75, 32)   2048        lambda_34[0][0]                  
__________________________________________________________________________________________________
max_pooling2d_103 (MaxPooling2D (None, 38, 38, 32)   0           conv2d_103[0][0]                 
__________________________________________________________________________________________________
max_pooling2d_106 (MaxPooling2D (None, 38, 38, 32)   0           conv2d_106[0][0]                 
__________________________________________________________________________________________________
max_pooling2d_109 (MaxPooling2D (None, 38, 38, 32)   0           conv2d_109[0][0]                 
__________________________________________________________________________________________________
max_pooling2d_112 (MaxPooling2D (None, 38, 38, 32)   0           conv2d_112[0][0]                 
__________________________________________________________________________________________________
max_pooling2d_115 (MaxPooling2D (None, 38, 38, 32)   0           conv2d_115[0][0]                 
__________________________________________________________________________________________________
conv2d_104 (Conv2D)             (None, 38, 38, 64)   18496       max_pooling2d_103[0][0]          
__________________________________________________________________________________________________
conv2d_107 (Conv2D)             (None, 38, 38, 64)   18496       max_pooling2d_106[0][0]          
__________________________________________________________________________________________________
conv2d_110 (Conv2D)             (None, 38, 38, 64)   18496       max_pooling2d_109[0][0]          
__________________________________________________________________________________________________
conv2d_113 (Conv2D)             (None, 38, 38, 64)   18496       max_pooling2d_112[0][0]          
__________________________________________________________________________________________________
conv2d_116 (Conv2D)             (None, 38, 38, 64)   18496       max_pooling2d_115[0][0]          
__________________________________________________________________________________________________
max_pooling2d_104 (MaxPooling2D (None, 19, 19, 64)   0           conv2d_104[0][0]                 
__________________________________________________________________________________________________
max_pooling2d_107 (MaxPooling2D (None, 19, 19, 64)   0           conv2d_107[0][0]                 
__________________________________________________________________________________________________
max_pooling2d_110 (MaxPooling2D (None, 19, 19, 64)   0           conv2d_110[0][0]                 
__________________________________________________________________________________________________
max_pooling2d_113 (MaxPooling2D (None, 19, 19, 64)   0           conv2d_113[0][0]                 
__________________________________________________________________________________________________
max_pooling2d_116 (MaxPooling2D (None, 19, 19, 64)   0           conv2d_116[0][0]                 
__________________________________________________________________________________________________
conv2d_105 (Conv2D)             (None, 19, 19, 128)  73856       max_pooling2d_104[0][0]          
__________________________________________________________________________________________________
conv2d_108 (Conv2D)             (None, 19, 19, 128)  73856       max_pooling2d_107[0][0]          
__________________________________________________________________________________________________
conv2d_111 (Conv2D)             (None, 19, 19, 128)  73856       max_pooling2d_110[0][0]          
__________________________________________________________________________________________________
conv2d_114 (Conv2D)             (None, 19, 19, 128)  73856       max_pooling2d_113[0][0]          
__________________________________________________________________________________________________
conv2d_117 (Conv2D)             (None, 19, 19, 128)  73856       max_pooling2d_116[0][0]          
__________________________________________________________________________________________________
max_pooling2d_105 (MaxPooling2D (None, 10, 10, 128)  0           conv2d_105[0][0]                 
__________________________________________________________________________________________________
max_pooling2d_108 (MaxPooling2D (None, 10, 10, 128)  0           conv2d_108[0][0]                 
__________________________________________________________________________________________________
max_pooling2d_111 (MaxPooling2D (None, 10, 10, 128)  0           conv2d_111[0][0]                 
__________________________________________________________________________________________________
max_pooling2d_114 (MaxPooling2D (None, 10, 10, 128)  0           conv2d_114[0][0]                 
__________________________________________________________________________________________________
max_pooling2d_117 (MaxPooling2D (None, 10, 10, 128)  0           conv2d_117[0][0]                 
__________________________________________________________________________________________________
concatenate_6 (Concatenate)     (None, 10, 10, 640)  0           max_pooling2d_105[0][0]          
                                                                 max_pooling2d_108[0][0]          
                                                                 max_pooling2d_111[0][0]          
                                                                 max_pooling2d_114[0][0]          
                                                                 max_pooling2d_117[0][0]          
__________________________________________________________________________________________________
flatten_246 (Flatten)           (None, 64000)        0           concatenate_6[0][0]              
__________________________________________________________________________________________________
dense_18 (Dense)                (None, 1024)         65537024    flatten_246[0][0]                
__________________________________________________________________________________________________
dropout_12 (Dropout)            (None, 1024)         0           dense_18[0][0]                   
__________________________________________________________________________________________________
dense_19 (Dense)                (None, 1024)         1049600     dropout_12[0][0]                 
__________________________________________________________________________________________________
dropout_13 (Dropout)            (None, 1024)         0           dense_19[0][0]                   
__________________________________________________________________________________________________
dense_20 (Dense)                (None, 5)            5125        dropout_13[0][0]                 
==================================================================================================
Total params: 67,072,997
Trainable params: 67,072,997
Non-trainable params: 0
__________________________________________________________________________________________________
start loading dataset ...
load "Big" complete
load "Long" complete
load "Mitotic" complete
…
o avg': {'precision': 0.798265166462255, 'recall': 0.7576157860404436, 'f1-score': 0.6865908536908484, 'support': 260.0}, 'weighted avg': {'precision': 0.8096364068928459, 'recall': 0.7461538461538462, 'f1-score': 0.681258444309475, 'support': 260.0}}
Model: "model_13"
__________________________________________________________________________________________________
Layer (type)                    Output Shape         Param #     Connected to                     
==================================================================================================
input_7 (InputLayer)            [(None, 150, 150, 7) 0                                            
__________________________________________________________________________________________________
lambda_30 (Lambda)              (None, 150, 150, 7)  0           input_7[0][0]                    
__________________________________________________________________________________________________
conv2d_102 (Conv2D)             (None, 150, 150, 32) 2048        lambda_30[0][0]                  
__________________________________________________________________________________________________
max_pooling2d_102 (MaxPooling2D (None, 75, 75, 32)   0           conv2d_102[0][0]                 
__________________________________________________________________________________________________
lambda_31 (Lambda)              (None, 75, 75, 7)    0           lambda_30[0][0]                  
__________________________________________________________________________________________________
lambda_32 (Lambda)              (None, 75, 75, 7)    0           lambda_30[0][0]                  
__________________________________________________________________________________________________
lambda_33 (Lambda)              (None, 75, 75, 7)    0           lambda_30[0][0]                  
__________________________________________________________________________________________________
lambda_34 (Lambda)              (None, 75, 75, 7)    0           lambda_30[0][0]                  
__________________________________________________________________________________________________
conv2d_103 (Conv2D)             (None, 75, 75, 32)   9248        max_pooling2d_102[0][0]          
__________________________________________________________________________________________________
conv2d_106 (Conv2D)             (None, 75, 75, 32)   2048        lambda_31[0][0]                  
__________________________________________________________________________________________________
conv2d_109 (Conv2D)             (None, 75, 75, 32)   2048        lambda_32[0][0]                  
__________________________________________________________________________________________________
conv2d_112 (Conv2D)             (None, 75, 75, 32)   2048        lambda_33[0][0]                  
__________________________________________________________________________________________________
conv2d_115 (Conv2D)             (None, 75, 75, 32)   2048        lambda_34[0][0]                  
__________________________________________________________________________________________________
max_pooling2d_103 (MaxPooling2D (None, 38, 38, 32)   0           conv2d_103[0][0]                 
__________________________________________________________________________________________________
max_pooling2d_106 (MaxPooling2D (None, 38, 38, 32)   0           conv2d_106[0][0]                 
__________________________________________________________________________________________________
max_pooling2d_109 (MaxPooling2D (None, 38, 38, 32)   0           conv2d_109[0][0]                 
__________________________________________________________________________________________________
max_pooling2d_112 (MaxPooling2D (None, 38, 38, 32)   0           conv2d_112[0][0]                 
__________________________________________________________________________________________________
max_pooling2d_115 (MaxPooling2D (None, 38, 38, 32)   0           conv2d_115[0][0]                 
__________________________________________________________________________________________________
conv2d_104 (Conv2D)             (None, 38, 38, 64)   18496       max_pooling2d_103[0][0]          
__________________________________________________________________________________________________
conv2d_107 (Conv2D)             (None, 38, 38, 64)   18496       max_pooling2d_106[0][0]          
__________________________________________________________________________________________________
conv2d_110 (Conv2D)             (None, 38, 38, 64)   18496       max_pooling2d_109[0][0]          
__________________________________________________________________________________________________
conv2d_113 (Conv2D)             (None, 38, 38, 64)   18496       max_pooling2d_112[0][0]          
__________________________________________________________________________________________________
conv2d_116 (Conv2D)             (None, 38, 38, 64)   18496       max_pooling2d_115[0][0]          
__________________________________________________________________________________________________
max_pooling2d_104 (MaxPooling2D (None, 19, 19, 64)   0           conv2d_104[0][0]                 
__________________________________________________________________________________________________
max_pooling2d_107 (MaxPooling2D (None, 19, 19, 64)   0           conv2d_107[0][0]                 
__________________________________________________________________________________________________
max_pooling2d_110 (MaxPooling2D (None, 19, 19, 64)   0           conv2d_110[0][0]                 
__________________________________________________________________________________________________
max_pooling2d_113 (MaxPooling2D (None, 19, 19, 64)   0           conv2d_113[0][0]                 
__________________________________________________________________________________________________
max_pooling2d_116 (MaxPooling2D (None, 19, 19, 64)   0           conv2d_116[0][0]                 
__________________________________________________________________________________________________
conv2d_105 (Conv2D)             (None, 19, 19, 128)  73856       max_pooling2d_104[0][0]          
__________________________________________________________________________________________________
conv2d_108 (Conv2D)             (None, 19, 19, 128)  73856       max_pooling2d_107[0][0]          
__________________________________________________________________________________________________
conv2d_111 (Conv2D)             (None, 19, 19, 128)  73856       max_pooling2d_110[0][0]          
__________________________________________________________________________________________________
conv2d_114 (Conv2D)             (None, 19, 19, 128)  73856       max_pooling2d_113[0][0]          
__________________________________________________________________________________________________
conv2d_117 (Conv2D)             (None, 19, 19, 128)  73856       max_pooling2d_116[0][0]          
__________________________________________________________________________________________________
max_pooling2d_105 (MaxPooling2D (None, 10, 10, 128)  0           conv2d_105[0][0]                 
__________________________________________________________________________________________________
max_pooling2d_108 (MaxPooling2D (None, 10, 10, 128)  0           conv2d_108[0][0]                 
__________________________________________________________________________________________________
max_pooling2d_111 (MaxPooling2D (None, 10, 10, 128)  0           conv2d_111[0][0]                 
__________________________________________________________________________________________________
max_pooling2d_114 (MaxPooling2D (None, 10, 10, 128)  0           conv2d_114[0][0]                 
__________________________________________________________________________________________________
max_pooling2d_117 (MaxPooling2D (None, 10, 10, 128)  0           conv2d_117[0][0]                 
__________________________________________________________________________________________________
concatenate_6 (Concatenate)     (None, 10, 10, 640)  0           max_pooling2d_105[0][0]          
                                                                 max_pooling2d_108[0][0]          
                                                                 max_pooling2d_111[0][0]          
                                                                 max_pooling2d_114[0][0]          
                                                                 max_pooling2d_117[0][0]          
__________________________________________________________________________________________________
flatten_246 (Flatten)           (None, 64000)        0           concatenate_6[0][0]              
==================================================================================================
Total params: 481,248
Trainable params: 481,248
Non-trainable params: 0
__________________________________________________________________________________________________
get cnn model
(1052, 64000)
[  0.      176.08955   0.        0.        0.      186.64592 466.93143
…
