program start
seed set
[PhysicalDevice(name='/physical_device:GPU:0', device_type='GPU')]
Model: "model_14"
__________________________________________________________________________________________________
Layer (type)                    Output Shape         Param #     Connected to                     
==================================================================================================
input_8 (InputLayer)            [(None, 150, 150, 7) 0                                            
__________________________________________________________________________________________________
lambda_35 (Lambda)              (None, 150, 150, 7)  0           input_8[0][0]                    
__________________________________________________________________________________________________
conv2d_119 (Conv2D)             (None, 150, 150, 32) 2048        lambda_35[0][0]                  
__________________________________________________________________________________________________
max_pooling2d_119 (MaxPooling2D (None, 75, 75, 32)   0           conv2d_119[0][0]                 
__________________________________________________________________________________________________
lambda_36 (Lambda)              (None, 75, 75, 7)    0           lambda_35[0][0]                  
__________________________________________________________________________________________________
lambda_37 (Lambda)              (None, 75, 75, 7)    0           lambda_35[0][0]                  
__________________________________________________________________________________________________
lambda_38 (Lambda)              (None, 75, 75, 7)    0           lambda_35[0][0]                  
__________________________________________________________________________________________________
lambda_39 (Lambda)              (None, 75, 75, 7)    0           lambda_35[0][0]                  
__________________________________________________________________________________________________
conv2d_120 (Conv2D)             (None, 75, 75, 32)   9248        max_pooling2d_119[0][0]          
__________________________________________________________________________________________________
conv2d_123 (Conv2D)             (None, 75, 75, 32)   2048        lambda_36[0][0]                  
__________________________________________________________________________________________________
conv2d_126 (Conv2D)             (None, 75, 75, 32)   2048        lambda_37[0][0]                  
__________________________________________________________________________________________________
conv2d_129 (Conv2D)             (None, 75, 75, 32)   2048        lambda_38[0][0]                  
__________________________________________________________________________________________________
conv2d_132 (Conv2D)             (None, 75, 75, 32)   2048        lambda_39[0][0]                  
__________________________________________________________________________________________________
max_pooling2d_120 (MaxPooling2D (None, 38, 38, 32)   0           conv2d_120[0][0]                 
__________________________________________________________________________________________________
max_pooling2d_123 (MaxPooling2D (None, 38, 38, 32)   0           conv2d_123[0][0]                 
__________________________________________________________________________________________________
max_pooling2d_126 (MaxPooling2D (None, 38, 38, 32)   0           conv2d_126[0][0]                 
__________________________________________________________________________________________________
max_pooling2d_129 (MaxPooling2D (None, 38, 38, 32)   0           conv2d_129[0][0]                 
__________________________________________________________________________________________________
max_pooling2d_132 (MaxPooling2D (None, 38, 38, 32)   0           conv2d_132[0][0]                 
__________________________________________________________________________________________________
conv2d_121 (Conv2D)             (None, 38, 38, 64)   18496       max_pooling2d_120[0][0]          
__________________________________________________________________________________________________
conv2d_124 (Conv2D)             (None, 38, 38, 64)   18496       max_pooling2d_123[0][0]          
__________________________________________________________________________________________________
conv2d_127 (Conv2D)             (None, 38, 38, 64)   18496       max_pooling2d_126[0][0]          
__________________________________________________________________________________________________
conv2d_130 (Conv2D)             (None, 38, 38, 64)   18496       max_pooling2d_129[0][0]          
__________________________________________________________________________________________________
conv2d_133 (Conv2D)             (None, 38, 38, 64)   18496       max_pooling2d_132[0][0]          
__________________________________________________________________________________________________
max_pooling2d_121 (MaxPooling2D (None, 19, 19, 64)   0           conv2d_121[0][0]                 
__________________________________________________________________________________________________
max_pooling2d_124 (MaxPooling2D (None, 19, 19, 64)   0           conv2d_124[0][0]                 
__________________________________________________________________________________________________
max_pooling2d_127 (MaxPooling2D (None, 19, 19, 64)   0           conv2d_127[0][0]                 
__________________________________________________________________________________________________
max_pooling2d_130 (MaxPooling2D (None, 19, 19, 64)   0           conv2d_130[0][0]                 
__________________________________________________________________________________________________
max_pooling2d_133 (MaxPooling2D (None, 19, 19, 64)   0           conv2d_133[0][0]                 
__________________________________________________________________________________________________
conv2d_122 (Conv2D)             (None, 19, 19, 128)  73856       max_pooling2d_121[0][0]          
__________________________________________________________________________________________________
conv2d_125 (Conv2D)             (None, 19, 19, 128)  73856       max_pooling2d_124[0][0]          
__________________________________________________________________________________________________
conv2d_128 (Conv2D)             (None, 19, 19, 128)  73856       max_pooling2d_127[0][0]          
__________________________________________________________________________________________________
conv2d_131 (Conv2D)             (None, 19, 19, 128)  73856       max_pooling2d_130[0][0]          
__________________________________________________________________________________________________
conv2d_134 (Conv2D)             (None, 19, 19, 128)  73856       max_pooling2d_133[0][0]          
__________________________________________________________________________________________________
max_pooling2d_122 (MaxPooling2D (None, 10, 10, 128)  0           conv2d_122[0][0]                 
__________________________________________________________________________________________________
max_pooling2d_125 (MaxPooling2D (None, 10, 10, 128)  0           conv2d_125[0][0]                 
__________________________________________________________________________________________________
max_pooling2d_128 (MaxPooling2D (None, 10, 10, 128)  0           conv2d_128[0][0]                 
__________________________________________________________________________________________________
max_pooling2d_131 (MaxPooling2D (None, 10, 10, 128)  0           conv2d_131[0][0]                 
__________________________________________________________________________________________________
max_pooling2d_134 (MaxPooling2D (None, 10, 10, 128)  0           conv2d_134[0][0]                 
__________________________________________________________________________________________________
concatenate_7 (Concatenate)     (None, 10, 10, 640)  0           max_pooling2d_122[0][0]          
                                                                 max_pooling2d_125[0][0]          
                                                                 max_pooling2d_128[0][0]          
                                                                 max_pooling2d_131[0][0]          
                                                                 max_pooling2d_134[0][0]          
__________________________________________________________________________________________________
flatten_287 (Flatten)           (None, 64000)        0           concatenate_7[0][0]              
__________________________________________________________________________________________________
dense_21 (Dense)                (None, 1024)         65537024    flatten_287[0][0]                
__________________________________________________________________________________________________
dropout_14 (Dropout)            (None, 1024)         0           dense_21[0][0]                   
__________________________________________________________________________________________________
dense_22 (Dense)                (None, 1024)         1049600     dropout_14[0][0]                 
__________________________________________________________________________________________________
dropout_15 (Dropout)            (None, 1024)         0           dense_22[0][0]                   
__________________________________________________________________________________________________
dense_23 (Dense)                (None, 5)            5125        dropout_15[0][0]                 
==================================================================================================
Total params: 67,072,997
Trainable params: 67,072,997
Non-trainable params: 0
__________________________________________________________________________________________________
start loading dataset ...
load "Big" complete
load "Long" complete
load "Mitotic" complete
…
           3       1.00      0.84      0.91        56
           4       0.85      0.20      0.32        56

    accuracy                           0.77       260
   macro avg       0.81      0.79      0.74       260
weighted avg       0.82      0.77      0.74       260

Model: "model_15"
__________________________________________________________________________________________________
Layer (type)                    Output Shape         Param #     Connected to                     
==================================================================================================
input_8 (InputLayer)            [(None, 150, 150, 7) 0                                            
__________________________________________________________________________________________________
lambda_35 (Lambda)              (None, 150, 150, 7)  0           input_8[0][0]                    
__________________________________________________________________________________________________
conv2d_119 (Conv2D)             (None, 150, 150, 32) 2048        lambda_35[0][0]                  
__________________________________________________________________________________________________
max_pooling2d_119 (MaxPooling2D (None, 75, 75, 32)   0           conv2d_119[0][0]                 
__________________________________________________________________________________________________
lambda_36 (Lambda)              (None, 75, 75, 7)    0           lambda_35[0][0]                  
__________________________________________________________________________________________________
lambda_37 (Lambda)              (None, 75, 75, 7)    0           lambda_35[0][0]                  
__________________________________________________________________________________________________
lambda_38 (Lambda)              (None, 75, 75, 7)    0           lambda_35[0][0]                  
__________________________________________________________________________________________________
lambda_39 (Lambda)              (None, 75, 75, 7)    0           lambda_35[0][0]                  
__________________________________________________________________________________________________
conv2d_120 (Conv2D)             (None, 75, 75, 32)   9248        max_pooling2d_119[0][0]          
__________________________________________________________________________________________________
conv2d_123 (Conv2D)             (None, 75, 75, 32)   2048        lambda_36[0][0]                  
__________________________________________________________________________________________________
conv2d_126 (Conv2D)             (None, 75, 75, 32)   2048        lambda_37[0][0]                  
__________________________________________________________________________________________________
conv2d_129 (Conv2D)             (None, 75, 75, 32)   2048        lambda_38[0][0]                  
__________________________________________________________________________________________________
conv2d_132 (Conv2D)             (None, 75, 75, 32)   2048        lambda_39[0][0]                  
__________________________________________________________________________________________________
max_pooling2d_120 (MaxPooling2D (None, 38, 38, 32)   0           conv2d_120[0][0]                 
__________________________________________________________________________________________________
max_pooling2d_123 (MaxPooling2D (None, 38, 38, 32)   0           conv2d_123[0][0]                 
__________________________________________________________________________________________________
max_pooling2d_126 (MaxPooling2D (None, 38, 38, 32)   0           conv2d_126[0][0]                 
__________________________________________________________________________________________________
max_pooling2d_129 (MaxPooling2D (None, 38, 38, 32)   0           conv2d_129[0][0]                 
__________________________________________________________________________________________________
max_pooling2d_132 (MaxPooling2D (None, 38, 38, 32)   0           conv2d_132[0][0]                 
__________________________________________________________________________________________________
conv2d_121 (Conv2D)             (None, 38, 38, 64)   18496       max_pooling2d_120[0][0]          
__________________________________________________________________________________________________
conv2d_124 (Conv2D)             (None, 38, 38, 64)   18496       max_pooling2d_123[0][0]          
__________________________________________________________________________________________________
conv2d_127 (Conv2D)             (None, 38, 38, 64)   18496       max_pooling2d_126[0][0]          
__________________________________________________________________________________________________
conv2d_130 (Conv2D)             (None, 38, 38, 64)   18496       max_pooling2d_129[0][0]          
__________________________________________________________________________________________________
conv2d_133 (Conv2D)             (None, 38, 38, 64)   18496       max_pooling2d_132[0][0]          
__________________________________________________________________________________________________
max_pooling2d_121 (MaxPooling2D (None, 19, 19, 64)   0           conv2d_121[0][0]                 
__________________________________________________________________________________________________
max_pooling2d_124 (MaxPooling2D (None, 19, 19, 64)   0           conv2d_124[0][0]                 
__________________________________________________________________________________________________
max_pooling2d_127 (MaxPooling2D (None, 19, 19, 64)   0           conv2d_127[0][0]                 
__________________________________________________________________________________________________
max_pooling2d_130 (MaxPooling2D (None, 19, 19, 64)   0           conv2d_130[0][0]                 
__________________________________________________________________________________________________
max_pooling2d_133 (MaxPooling2D (None, 19, 19, 64)   0           conv2d_133[0][0]                 
__________________________________________________________________________________________________
conv2d_122 (Conv2D)             (None, 19, 19, 128)  73856       max_pooling2d_121[0][0]          
__________________________________________________________________________________________________
conv2d_125 (Conv2D)             (None, 19, 19, 128)  73856       max_pooling2d_124[0][0]          
__________________________________________________________________________________________________
conv2d_128 (Conv2D)             (None, 19, 19, 128)  73856       max_pooling2d_127[0][0]          
__________________________________________________________________________________________________
conv2d_131 (Conv2D)             (None, 19, 19, 128)  73856       max_pooling2d_130[0][0]          
__________________________________________________________________________________________________
conv2d_134 (Conv2D)             (None, 19, 19, 128)  73856       max_pooling2d_133[0][0]          
__________________________________________________________________________________________________
max_pooling2d_122 (MaxPooling2D (None, 10, 10, 128)  0           conv2d_122[0][0]                 
__________________________________________________________________________________________________
max_pooling2d_125 (MaxPooling2D (None, 10, 10, 128)  0           conv2d_125[0][0]                 
__________________________________________________________________________________________________
max_pooling2d_128 (MaxPooling2D (None, 10, 10, 128)  0           conv2d_128[0][0]                 
__________________________________________________________________________________________________
max_pooling2d_131 (MaxPooling2D (None, 10, 10, 128)  0           conv2d_131[0][0]                 
__________________________________________________________________________________________________
max_pooling2d_134 (MaxPooling2D (None, 10, 10, 128)  0           conv2d_134[0][0]                 
__________________________________________________________________________________________________
concatenate_7 (Concatenate)     (None, 10, 10, 640)  0           max_pooling2d_122[0][0]          
                                                                 max_pooling2d_125[0][0]          
                                                                 max_pooling2d_128[0][0]          
                                                                 max_pooling2d_131[0][0]          
                                                                 max_pooling2d_134[0][0]          
__________________________________________________________________________________________________
flatten_287 (Flatten)           (None, 64000)        0           concatenate_7[0][0]              
==================================================================================================
Total params: 481,248
Trainable params: 481,248
Non-trainable params: 0
__________________________________________________________________________________________________
get cnn model
(1052, 64000)
[234.29268   252.81851   173.13373    72.49432    55.21937     0.6981685
…
