program start
seed set
[PhysicalDevice(name='/physical_device:GPU:0', device_type='GPU')]
Model: "model_16"
__________________________________________________________________________________________________
Layer (type)                    Output Shape         Param #     Connected to                     
==================================================================================================
input_9 (InputLayer)            [(None, 150, 150, 7) 0                                            
__________________________________________________________________________________________________
lambda_40 (Lambda)              (None, 150, 150, 7)  0           input_9[0][0]                    
__________________________________________________________________________________________________
conv2d_136 (Conv2D)             (None, 150, 150, 32) 2048        lambda_40[0][0]                  
__________________________________________________________________________________________________
max_pooling2d_136 (MaxPooling2D (None, 75, 75, 32)   0           conv2d_136[0][0]                 
__________________________________________________________________________________________________
lambda_41 (Lambda)              (None, 75, 75, 7)    0           lambda_40[0][0]                  
__________________________________________________________________________________________________
lambda_42 (Lambda)              (None, 75, 75, 7)    0           lambda_40[0][0]                  
__________________________________________________________________________________________________
lambda_43 (Lambda)              (None, 75, 75, 7)    0           lambda_40[0][0]                  
__________________________________________________________________________________________________
lambda_44 (Lambda)              (None, 75, 75, 7)    0           lambda_40[0][0]                  
__________________________________________________________________________________________________
conv2d_137 (Conv2D)             (None, 75, 75, 32)   9248        max_pooling2d_136[0][0]          
__________________________________________________________________________________________________
conv2d_140 (Conv2D)             (None, 75, 75, 32)   2048        lambda_41[0][0]                  
__________________________________________________________________________________________________
conv2d_143 (Conv2D)             (None, 75, 75, 32)   2048        lambda_42[0][0]                  
__________________________________________________________________________________________________
conv2d_146 (Conv2D)             (None, 75, 75, 32)   2048        lambda_43[0][0]                  
__________________________________________________________________________________________________
conv2d_149 (Conv2D)             (None, 75, 75, 32)   2048        lambda_44[0][0]                  
__________________________________________________________________________________________________
max_pooling2d_137 (MaxPooling2D (None, 38, 38, 32)   0           conv2d_137[0][0]                 
__________________________________________________________________________________________________
max_pooling2d_140 (MaxPooling2D (None, 38, 38, 32)   0           conv2d_140[0][0]                 
__________________________________________________________________________________________________
max_pooling2d_143 (MaxPooling2D (None, 38, 38, 32)   0           conv2d_143[0][0]                 
__________________________________________________________________________________________________
max_pooling2d_146 (MaxPooling2D (None, 38, 38, 32)   0           conv2d_146[0][0]                 
__________________________________________________________________________________________________
max_pooling2d_149 (MaxPooling2D (None, 38, 38, 32)   0           conv2d_149[0][0]                 
__________________________________________________________________________________________________
conv2d_138 (Conv2D)             (None, 38, 38, 64)   18496       max_pooling2d_137[0][0]          
__________________________________________________________________________________________________
conv2d_141 (Conv2D)             (None, 38, 38, 64)   18496       max_pooling2d_140[0][0]          
__________________________________________________________________________________________________
conv2d_144 (Conv2D)             (None, 38, 38, 64)   18496       max_pooling2d_143[0][0]          
__________________________________________________________________________________________________
conv2d_147 (Conv2D)             (None, 38, 38, 64)   18496       max_pooling2d_146[0][0]          
__________________________________________________________________________________________________
conv2d_150 (Conv2D)             (None, 38, 38, 64)   18496       max_pooling2d_149[0][0]          
__________________________________________________________________________________________________
max_pooling2d_138 (MaxPooling2D (None, 19, 19, 64)   0           conv2d_138[0][0]                 
__________________________________________________________________________________________________
max_pooling2d_141 (MaxPooling2D (None, 19, 19, 64)   0           conv2d_141[0][0]                 
__________________________________________________________________________________________________
max_pooling2d_144 (MaxPooling2D (None, 19, 19, 64)   0           conv2d_144[0][0]                 
__________________________________________________________________________________________________
max_pooling2d_147 (MaxPooling2D (None, 19, 19, 64)   0           conv2d_147[0][0]                 
__________________________________________________________________________________________________
max_pooling2d_150 (MaxPooling2D (None, 19, 19, 64)   0           conv2d_150[0][0]                 
__________________________________________________________________________________________________
conv2d_139 (Conv2D)             (None, 19, 19, 128)  73856       max_pooling2d_138[0][0]          
__________________________________________________________________________________________________
conv2d_142 (Conv2D)             (None, 19, 19, 128)  73856       max_pooling2d_141[0][0]          
__________________________________________________________________________________________________
conv2d_145 (Conv2D)             (None, 19, 19, 128)  73856       max_pooling2d_144[0][0]          
__________________________________________________________________________________________________
conv2d_148 (Conv2D)             (None, 19, 19, 128)  73856       max_pooling2d_147[0][0]          
__________________________________________________________________________________________________
conv2d_151 (Conv2D)             (None, 19, 19, 128)  73856       max_pooling2d_150[0][0]          
__________________________________________________________________________________________________
max_pooling2d_139 (MaxPooling2D (None, 10, 10, 128)  0           conv2d_139[0][0]                 
__________________________________________________________________________________________________
max_pooling2d_142 (MaxPooling2D (None, 10, 10, 128)  0           conv2d_142[0][0]                 
__________________________________________________________________________________________________
max_pooling2d_145 (MaxPooling2D (None, 10, 10, 128)  0           conv2d_145[0][0]                 
__________________________________________________________________________________________________
max_pooling2d_148 (MaxPooling2D (None, 10, 10, 128)  0           conv2d_148[0][0]                 
__________________________________________________________________________________________________
max_pooling2d_151 (MaxPooling2D (None, 10, 10, 128)  0           conv2d_151[0][0]                 
__________________________________________________________________________________________________
concatenate_8 (Concatenate)     (None, 10, 10, 640)  0           max_pooling2d_139[0][0]          
                                                                 max_pooling2d_142[0][0]          
                                                                 max_pooling2d_145[0][0]          
                                                                 max_pooling2d_148[0][0]          
                                                                 max_pooling2d_151[0][0]          
__________________________________________________________________________________________________
flatten_328 (Flatten)           (None, 64000)        0           concatenate_8[0][0]              
__________________________________________________________________________________________________
dense_24 (Dense)                (None, 1024)         65537024    flatten_328[0][0]                
__________________________________________________________________________________________________
dropout_16 (Dropout)            (None, 1024)         0           dense_24[0][0]                   
__________________________________________________________________________________________________
dense_25 (Dense)                (None, 1024)         1049600     dropout_16[0][0]                 
__________________________________________________________________________________________________
dropout_17 (Dropout)            (None, 1024)         0           dense_25[0][0]                   
__________________________________________________________________________________________________
dense_26 (Dense)                (None, 5)            5125        dropout_17[0][0]                 
==================================================================================================
Total params: 67,072,997
Trainable params: 67,072,997
Non-trainable params: 0
__________________________________________________________________________________________________
start loading dataset ...
load "Big" complete
load "Long" complete
load "Mitotic" complete
…
           3       0.86      0.89      0.88        56
           4       1.00      0.02      0.04        56

    accuracy                           0.70       260
   macro avg       0.82      0.69      0.62       260
weighted avg       0.84      0.70      0.64       260

Model: "model_17"
__________________________________________________________________________________________________
Layer (type)                    Output Shape         Param #     Connected to                     
==================================================================================================
input_9 (InputLayer)            [(None, 150, 150, 7) 0                                            
__________________________________________________________________________________________________
lambda_40 (Lambda)              (None, 150, 150, 7)  0           input_9[0][0]                    
__________________________________________________________________________________________________
conv2d_136 (Conv2D)             (None, 150, 150, 32) 2048        lambda_40[0][0]                  
__________________________________________________________________________________________________
max_pooling2d_136 (MaxPooling2D (None, 75, 75, 32)   0           conv2d_136[0][0]                 
__________________________________________________________________________________________________
lambda_41 (Lambda)              (None, 75, 75, 7)    0           lambda_40[0][0]                  
__________________________________________________________________________________________________
lambda_42 (Lambda)              (None, 75, 75, 7)    0           lambda_40[0][0]                  
__________________________________________________________________________________________________
lambda_43 (Lambda)              (None, 75, 75, 7)    0           lambda_40[0][0]                  
__________________________________________________________________________________________________
lambda_44 (Lambda)              (None, 75, 75, 7)    0           lambda_40[0][0]                  
__________________________________________________________________________________________________
conv2d_137 (Conv2D)             (None, 75, 75, 32)   9248        max_pooling2d_136[0][0]          
__________________________________________________________________________________________________
conv2d_140 (Conv2D)             (None, 75, 75, 32)   2048        lambda_41[0][0]                  
__________________________________________________________________________________________________
conv2d_143 (Conv2D)             (None, 75, 75, 32)   2048        lambda_42[0][0]                  
__________________________________________________________________________________________________
conv2d_146 (Conv2D)             (None, 75, 75, 32)   2048        lambda_43[0][0]                  
__________________________________________________________________________________________________
conv2d_149 (Conv2D)             (None, 75, 75, 32)   2048        lambda_44[0][0]                  
__________________________________________________________________________________________________
max_pooling2d_137 (MaxPooling2D (None, 38, 38, 32)   0           conv2d_137[0][0]                 
__________________________________________________________________________________________________
max_pooling2d_140 (MaxPooling2D (None, 38, 38, 32)   0           conv2d_140[0][0]                 
__________________________________________________________________________________________________
max_pooling2d_143 (MaxPooling2D (None, 38, 38, 32)   0           conv2d_143[0][0]                 
__________________________________________________________________________________________________
max_pooling2d_146 (MaxPooling2D (None, 38, 38, 32)   0           conv2d_146[0][0]                 
__________________________________________________________________________________________________
max_pooling2d_149 (MaxPooling2D (None, 38, 38, 32)   0           conv2d_149[0][0]                 
__________________________________________________________________________________________________
conv2d_138 (Conv2D)             (None, 38, 38, 64)   18496       max_pooling2d_137[0][0]          
__________________________________________________________________________________________________
conv2d_141 (Conv2D)             (None, 38, 38, 64)   18496       max_pooling2d_140[0][0]          
__________________________________________________________________________________________________
conv2d_144 (Conv2D)             (None, 38, 38, 64)   18496       max_pooling2d_143[0][0]          
__________________________________________________________________________________________________
conv2d_147 (Conv2D)             (None, 38, 38, 64)   18496       max_pooling2d_146[0][0]          
__________________________________________________________________________________________________
conv2d_150 (Conv2D)             (None, 38, 38, 64)   18496       max_pooling2d_149[0][0]          
__________________________________________________________________________________________________
max_pooling2d_138 (MaxPooling2D (None, 19, 19, 64)   0           conv2d_138[0][0]                 
__________________________________________________________________________________________________
max_pooling2d_141 (MaxPooling2D (None, 19, 19, 64)   0           conv2d_141[0][0]                 
__________________________________________________________________________________________________
max_pooling2d_144 (MaxPooling2D (None, 19, 19, 64)   0           conv2d_144[0][0]                 
__________________________________________________________________________________________________
max_pooling2d_147 (MaxPooling2D (None, 19, 19, 64)   0           conv2d_147[0][0]                 
__________________________________________________________________________________________________
max_pooling2d_150 (MaxPooling2D (None, 19, 19, 64)   0           conv2d_150[0][0]                 
__________________________________________________________________________________________________
conv2d_139 (Conv2D)             (None, 19, 19, 128)  73856       max_pooling2d_138[0][0]          
__________________________________________________________________________________________________
conv2d_142 (Conv2D)             (None, 19, 19, 128)  73856       max_pooling2d_141[0][0]          
__________________________________________________________________________________________________
conv2d_145 (Conv2D)             (None, 19, 19, 128)  73856       max_pooling2d_144[0][0]          
__________________________________________________________________________________________________
conv2d_148 (Conv2D)             (None, 19, 19, 128)  73856       max_pooling2d_147[0][0]          
__________________________________________________________________________________________________
conv2d_151 (Conv2D)             (None, 19, 19, 128)  73856       max_pooling2d_150[0][0]          
__________________________________________________________________________________________________
max_pooling2d_139 (MaxPooling2D (None, 10, 10, 128)  0           conv2d_139[0][0]                 
__________________________________________________________________________________________________
max_pooling2d_142 (MaxPooling2D (None, 10, 10, 128)  0           conv2d_142[0][0]                 
__________________________________________________________________________________________________
max_pooling2d_145 (MaxPooling2D (None, 10, 10, 128)  0           conv2d_145[0][0]                 
__________________________________________________________________________________________________
max_pooling2d_148 (MaxPooling2D (None, 10, 10, 128)  0           conv2d_148[0][0]                 
__________________________________________________________________________________________________
max_pooling2d_151 (MaxPooling2D (None, 10, 10, 128)  0           conv2d_151[0][0]                 
__________________________________________________________________________________________________
concatenate_8 (Concatenate)     (None, 10, 10, 640)  0           max_pooling2d_139[0][0]          
                                                                 max_pooling2d_142[0][0]          
                                                                 max_pooling2d_145[0][0]          
                                                                 max_pooling2d_148[0][0]          
                                                                 max_pooling2d_151[0][0]          
__________________________________________________________________________________________________
flatten_328 (Flatten)           (None, 64000)        0           concatenate_8[0][0]              
==================================================================================================
Total params: 481,248
Trainable params: 481,248
Non-trainable params: 0
__________________________________________________________________________________________________
get cnn model
(1052, 64000)
[ 97.10425 315.33566   0.      347.78195 164.92593 123.04324 150.79922
…
