program start
seed set
[PhysicalDevice(name='/physical_device:GPU:0', device_type='GPU')]
Model: "model_18"
__________________________________________________________________________________________________
Layer (type)                    Output Shape         Param #     Connected to                     
==================================================================================================
input_10 (InputLayer)           [(None, 150, 150, 7) 0                                            
__________________________________________________________________________________________________
lambda_45 (Lambda)              (None, 150, 150, 7)  0           input_10[0][0]                   
__________________________________________________________________________________________________
conv2d_153 (Conv2D)             (None, 150, 150, 32) 2048        lambda_45[0][0]                  
__________________________________________________________________________________________________
max_pooling2d_153 (MaxPooling2D (None, 75, 75, 32)   0           conv2d_153[0][0]                 
__________________________________________________________________________________________________
lambda_46 (Lambda)              (None, 75, 75, 7)    0           lambda_45[0][0]                  
__________________________________________________________________________________________________
lambda_47 (Lambda)              (None, 75, 75, 7)    0           lambda_45[0][0]                  
__________________________________________________________________________________________________
lambda_48 (Lambda)              (None, 75, 75, 7)    0           lambda_45[0][0]                  
__________________________________________________________________________________________________
lambda_49 (Lambda)              (None, 75, 75, 7)    0           lambda_45[0][0]                  
__________________________________________________________________________________________________
conv2d_154 (Conv2D)             (None, 75, 75, 32)   9248        max_pooling2d_153[0][0]          
__________________________________________________________________________________________________
conv2d_157 (Conv2D)             (None, 75, 75, 32)   2048        lambda_46[0][0]                  
__________________________________________________________________________________________________
conv2d_160 (Conv2D)             (None, 75, 75, 32)   2048        lambda_47[0][0]                  
__________________________________________________________________________________________________
conv2d_163 (Conv2D)             (None, 75, 75, 32)   2048        lambda_48[0][0]                  
__________________________________________________________________________________________________
conv2d_166 (Conv2D)             (None, 75, 75, 32)   2048        lambda_49[0][0]                  
__________________________________________________________________________________________________
max_pooling2d_154 (MaxPooling2D (None, 38, 38, 32)   0           conv2d_154[0][0]                 
__________________________________________________________________________________________________
max_pooling2d_157 (MaxPooling2D (None, 38, 38, 32)   0           conv2d_157[0][0]                 
__________________________________________________________________________________________________
max_pooling2d_160 (MaxPooling2D (None, 38, 38, 32)   0           conv2d_160[0][0]                 
__________________________________________________________________________________________________
max_pooling2d_163 (MaxPooling2D (None, 38, 38, 32)   0           conv2d_163[0][0]                 
__________________________________________________________________________________________________
max_pooling2d_166 (MaxPooling2D (None, 38, 38, 32)   0           conv2d_166[0][0]                 
__________________________________________________________________________________________________
conv2d_155 (Conv2D)             (None, 38, 38, 64)   18496       max_pooling2d_154[0][0]          
__________________________________________________________________________________________________
conv2d_158 (Conv2D)             (None, 38, 38, 64)   18496       max_pooling2d_157[0][0]          
__________________________________________________________________________________________________
conv2d_161 (Conv2D)             (None, 38, 38, 64)   18496       max_pooling2d_160[0][0]          
__________________________________________________________________________________________________
conv2d_164 (Conv2D)             (None, 38, 38, 64)   18496       max_pooling2d_163[0][0]          
__________________________________________________________________________________________________
conv2d_167 (Conv2D)             (None, 38, 38, 64)   18496       max_pooling2d_166[0][0]          
__________________________________________________________________________________________________
max_pooling2d_155 (MaxPooling2D (None, 19, 19, 64)   0           conv2d_155[0][0]                 
__________________________________________________________________________________________________
max_pooling2d_158 (MaxPooling2D (None, 19, 19, 64)   0           conv2d_158[0][0]                 
__________________________________________________________________________________________________
max_pooling2d_161 (MaxPooling2D (None, 19, 19, 64)   0           conv2d_161[0][0]                 
__________________________________________________________________________________________________
max_pooling2d_164 (MaxPooling2D (None, 19, 19, 64)   0           conv2d_164[0][0]                 
__________________________________________________________________________________________________
max_pooling2d_167 (MaxPooling2D (None, 19, 19, 64)   0           conv2d_167[0][0]                 
__________________________________________________________________________________________________
conv2d_156 (Conv2D)             (None, 19, 19, 128)  73856       max_pooling2d_155[0][0]          
__________________________________________________________________________________________________
conv2d_159 (Conv2D)             (None, 19, 19, 128)  73856       max_pooling2d_158[0][0]          
__________________________________________________________________________________________________
conv2d_162 (Conv2D)             (None, 19, 19, 128)  73856       max_pooling2d_161[0][0]          
__________________________________________________________________________________________________
conv2d_165 (Conv2D)             (None, 19, 19, 128)  73856       max_pooling2d_164[0][0]          
__________________________________________________________________________________________________
conv2d_168 (Conv2D)             (None, 19, 19, 128)  73856       max_pooling2d_167[0][0]          
__________________________________________________________________________________________________
max_pooling2d_156 (MaxPooling2D (None, 10, 10, 128)  0           conv2d_156[0][0]                 
__________________________________________________________________________________________________
max_pooling2d_159 (MaxPooling2D (None, 10, 10, 128)  0           conv2d_159[0][0]                 
__________________________________________________________________________________________________
max_pooling2d_162 (MaxPooling2D (None, 10, 10, 128)  0           conv2d_162[0][0]                 
__________________________________________________________________________________________________
max_pooling2d_165 (MaxPooling2D (None, 10, 10, 128)  0           conv2d_165[0][0]                 
__________________________________________________________________________________________________
max_pooling2d_168 (MaxPooling2D (None, 10, 10, 128)  0           conv2d_168[0][0]                 
__________________________________________________________________________________________________
concatenate_9 (Concatenate)     (None, 10, 10, 640)  0           max_pooling2d_156[0][0]          
                                                                 max_pooling2d_159[0][0]          
                                                                 max_pooling2d_162[0][0]          
                                                                 max_pooling2d_165[0][0]          
                                                                 max_pooling2d_168[0][0]          
__________________________________________________________________________________________________
flatten_369 (Flatten)           (None, 64000)        0           concatenate_9[0][0]              
__________________________________________________________________________________________________
dense_27 (Dense)                (None, 1024)         65537024    flatten_369[0][0]                
__________________________________________________________________________________________________
dropout_18 (Dropout)            (None, 1024)         0           dense_27[0][0]                   
__________________________________________________________________________________________________
dense_28 (Dense)                (None, 1024)         1049600     dropout_18[0][0]                 
__________________________________________________________________________________________________
dropout_19 (Dropout)            (None, 1024)         0           dense_28[0][0]                   
__________________________________________________________________________________________________
dense_29 (Dense)                (None, 5)            5125        dropout_19[0][0]                 
==================================================================================================
Total params: 67,072,997
Trainable params: 67,072,997
Non-trainable params: 0
__________________________________________________________________________________________________
start loading dataset ...
load "Big" complete
load "Long" complete
load "Mitotic" complete
…
avg': {'precision': 0.8260555536417605, 'recall': 0.7766634050880626, 'f1-score': 0.7098978407392101, 'support': 260.0}, 'weighted avg': {'precision': 0.8408333487909084, 'recall': 0.7615384615384615, 'f1-score': 0.7061503518669623, 'support': 260.0}}
Model: "model_19"
__________________________________________________________________________________________________
Layer (type)                    Output Shape         Param #     Connected to                     
==================================================================================================
input_10 (InputLayer)           [(None, 150, 150, 7) 0                                            
__________________________________________________________________________________________________
lambda_45 (Lambda)              (None, 150, 150, 7)  0           input_10[0][0]                   
__________________________________________________________________________________________________
conv2d_153 (Conv2D)             (None, 150, 150, 32) 2048        lambda_45[0][0]                  
__________________________________________________________________________________________________
max_pooling2d_153 (MaxPooling2D (None, 75, 75, 32)   0           conv2d_153[0][0]                 
__________________________________________________________________________________________________
lambda_46 (Lambda)              (None, 75, 75, 7)    0           lambda_45[0][0]                  
__________________________________________________________________________________________________
lambda_47 (Lambda)              (None, 75, 75, 7)    0           lambda_45[0][0]                  
__________________________________________________________________________________________________
lambda_48 (Lambda)              (None, 75, 75, 7)    0           lambda_45[0][0]                  
__________________________________________________________________________________________________
lambda_49 (Lambda)              (None, 75, 75, 7)    0           lambda_45[0][0]                  
__________________________________________________________________________________________________
conv2d_154 (Conv2D)             (None, 75, 75, 32)   9248        max_pooling2d_153[0][0]          
__________________________________________________________________________________________________
conv2d_157 (Conv2D)             (None, 75, 75, 32)   2048        lambda_46[0][0]                  
__________________________________________________________________________________________________
conv2d_160 (Conv2D)             (None, 75, 75, 32)   2048        lambda_47[0][0]                  
__________________________________________________________________________________________________
conv2d_163 (Conv2D)             (None, 75, 75, 32)   2048        lambda_48[0][0]                  
__________________________________________________________________________________________________
conv2d_166 (Conv2D)             (None, 75, 75, 32)   2048        lambda_49[0][0]                  
__________________________________________________________________________________________________
max_pooling2d_154 (MaxPooling2D (None, 38, 38, 32)   0           conv2d_154[0][0]                 
__________________________________________________________________________________________________
max_pooling2d_157 (MaxPooling2D (None, 38, 38, 32)   0           conv2d_157[0][0]                 
__________________________________________________________________________________________________
max_pooling2d_160 (MaxPooling2D (None, 38, 38, 32)   0           conv2d_160[0][0]                 
__________________________________________________________________________________________________
max_pooling2d_163 (MaxPooling2D (None, 38, 38, 32)   0           conv2d_163[0][0]                 
__________________________________________________________________________________________________
max_pooling2d_166 (MaxPooling2D (None, 38, 38, 32)   0           conv2d_166[0][0]                 
__________________________________________________________________________________________________
conv2d_155 (Conv2D)             (None, 38, 38, 64)   18496       max_pooling2d_154[0][0]          
__________________________________________________________________________________________________
conv2d_158 (Conv2D)             (None, 38, 38, 64)   18496       max_pooling2d_157[0][0]          
__________________________________________________________________________________________________
conv2d_161 (Conv2D)             (None, 38, 38, 64)   18496       max_pooling2d_160[0][0]          
__________________________________________________________________________________________________
conv2d_164 (Conv2D)             (None, 38, 38, 64)   18496       max_pooling2d_163[0][0]          
__________________________________________________________________________________________________
conv2d_167 (Conv2D)             (None, 38, 38, 64)   18496       max_pooling2d_166[0][0]          
__________________________________________________________________________________________________
max_pooling2d_155 (MaxPooling2D (None, 19, 19, 64)   0           conv2d_155[0][0]                 
__________________________________________________________________________________________________
max_pooling2d_158 (MaxPooling2D (None, 19, 19, 64)   0           conv2d_158[0][0]                 
__________________________________________________________________________________________________
max_pooling2d_161 (MaxPooling2D (None, 19, 19, 64)   0           conv2d_161[0][0]                 
__________________________________________________________________________________________________
max_pooling2d_164 (MaxPooling2D (None, 19, 19, 64)   0           conv2d_164[0][0]                 
__________________________________________________________________________________________________
max_pooling2d_167 (MaxPooling2D (None, 19, 19, 64)   0           conv2d_167[0][0]                 
__________________________________________________________________________________________________
conv2d_156 (Conv2D)             (None, 19, 19, 128)  73856       max_pooling2d_155[0][0]          
__________________________________________________________________________________________________
conv2d_159 (Conv2D)             (None, 19, 19, 128)  73856       max_pooling2d_158[0][0]          
__________________________________________________________________________________________________
conv2d_162 (Conv2D)             (None, 19, 19, 128)  73856       max_pooling2d_161[0][0]          
__________________________________________________________________________________________________
conv2d_165 (Conv2D)             (None, 19, 19, 128)  73856       max_pooling2d_164[0][0]          
__________________________________________________________________________________________________
conv2d_168 (Conv2D)             (None, 19, 19, 128)  73856       max_pooling2d_167[0][0]          
__________________________________________________________________________________________________
max_pooling2d_156 (MaxPooling2D (None, 10, 10, 128)  0           conv2d_156[0][0]                 
__________________________________________________________________________________________________
max_pooling2d_159 (MaxPooling2D (None, 10, 10, 128)  0           conv2d_159[0][0]                 
__________________________________________________________________________________________________
max_pooling2d_162 (MaxPooling2D (None, 10, 10, 128)  0           conv2d_162[0][0]                 
__________________________________________________________________________________________________
max_pooling2d_165 (MaxPooling2D (None, 10, 10, 128)  0           conv2d_165[0][0]                 
__________________________________________________________________________________________________
max_pooling2d_168 (MaxPooling2D (None, 10, 10, 128)  0           conv2d_168[0][0]                 
__________________________________________________________________________________________________
concatenate_9 (Concatenate)     (None, 10, 10, 640)  0           max_pooling2d_156[0][0]          
                                                                 max_pooling2d_159[0][0]          
                                                                 max_pooling2d_162[0][0]          
                                                                 max_pooling2d_165[0][0]          
                                                                 max_pooling2d_168[0][0]          
__________________________________________________________________________________________________
flatten_369 (Flatten)           (None, 64000)        0           concatenate_9[0][0]              
==================================================================================================
Total params: 481,248
Trainable params: 481,248
Non-trainable params: 0
__________________________________________________________________________________________________
get cnn model
(1052, 64000)
[109.344955 221.89566  146.98842  154.45703   59.732716 189.9929
…
