program start
seed set
[PhysicalDevice(name='/physical_device:GPU:0', device_type='GPU')]
Model: "model_20"
__________________________________________________________________________________________________
Layer (type)                    Output Shape         Param #     Connected to                     
==================================================================================================
input_11 (InputLayer)           [(None, 150, 150, 7) 0                                            
__________________________________________________________________________________________________
lambda_50 (Lambda)              (None, 150, 150, 7)  0           input_11[0][0]                   
__________________________________________________________________________________________________
conv2d_170 (Conv2D)             (None, 150, 150, 32) 2048        lambda_50[0][0]                  
__________________________________________________________________________________________________
max_pooling2d_170 (MaxPooling2D (None, 75, 75, 32)   0           conv2d_170[0][0]                 
__________________________________________________________________________________________________
lambda_51 (Lambda)              (None, 75, 75, 7)    0           lambda_50[0][0]                  
__________________________________________________________________________________________________
lambda_52 (Lambda)              (None, 75, 75, 7)    0           lambda_50[0][0]                  
__________________________________________________________________________________________________
lambda_53 (Lambda)              (None, 75, 75, 7)    0           lambda_50[0][0]                  
__________________________________________________________________________________________________
lambda_54 (Lambda)              (None, 75, 75, 7)    0           lambda_50[0][0]                  
__________________________________________________________________________________________________
conv2d_171 (Conv2D)             (None, 75, 75, 32)   9248        max_pooling2d_170[0][0]          
__________________________________________________________________________________________________
conv2d_174 (Conv2D)             (None, 75, 75, 32)   2048        lambda_51[0][0]                  
__________________________________________________________________________________________________
conv2d_177 (Conv2D)             (None, 75, 75, 32)   2048        lambda_52[0][0]                  
__________________________________________________________________________________________________
conv2d_180 (Conv2D)             (None, 75, 75, 32)   2048        lambda_53[0][0]                  
__________________________________________________________________________________________________
conv2d_183 (Conv2D)             (None, 75, 75, 32)   2048        lambda_54[0][0]                  
__________________________________________________________________________________________________
max_pooling2d_171 (MaxPooling2D (None, 38, 38, 32)   0           conv2d_171[0][0]                 
__________________________________________________________________________________________________
max_pooling2d_174 (MaxPooling2D (None, 38, 38, 32)   0           conv2d_174[0][0]                 
__________________________________________________________________________________________________
max_pooling2d_177 (MaxPooling2D (None, 38, 38, 32)   0           conv2d_177[0][0]                 
__________________________________________________________________________________________________
max_pooling2d_180 (MaxPooling2D (None, 38, 38, 32)   0           conv2d_180[0][0]                 
__________________________________________________________________________________________________
max_pooling2d_183 (MaxPooling2D (None, 38, 38, 32)   0           conv2d_183[0][0]                 
__________________________________________________________________________________________________
conv2d_172 (Conv2D)             (None, 38, 38, 64)   18496       max_pooling2d_171[0][0]          
__________________________________________________________________________________________________
conv2d_175 (Conv2D)             (None, 38, 38, 64)   18496       max_pooling2d_174[0][0]          
__________________________________________________________________________________________________
conv2d_178 (Conv2D)             (None, 38, 38, 64)   18496       max_pooling2d_177[0][0]          
__________________________________________________________________________________________________
conv2d_181 (Conv2D)             (None, 38, 38, 64)   18496       max_pooling2d_180[0][0]          
__________________________________________________________________________________________________
conv2d_184 (Conv2D)             (None, 38, 38, 64)   18496       max_pooling2d_183[0][0]          
__________________________________________________________________________________________________
max_pooling2d_172 (MaxPooling2D (None, 19, 19, 64)   0           conv2d_172[0][0]                 
__________________________________________________________________________________________________
max_pooling2d_175 (MaxPooling2D (None, 19, 19, 64)   0           conv2d_175[0][0]                 
__________________________________________________________________________________________________
max_pooling2d_178 (MaxPooling2D (None, 19, 19, 64)   0           conv2d_178[0][0]                 
__________________________________________________________________________________________________
max_pooling2d_181 (MaxPooling2D (None, 19, 19, 64)   0           conv2d_181[0][0]                 
__________________________________________________________________________________________________
max_pooling2d_184 (MaxPooling2D (None, 19, 19, 64)   0           conv2d_184[0][0]                 
__________________________________________________________________________________________________
conv2d_173 (Conv2D)             (None, 19, 19, 128)  73856       max_pooling2d_172[0][0]          
__________________________________________________________________________________________________
conv2d_176 (Conv2D)             (None, 19, 19, 128)  73856       max_pooling2d_175[0][0]          
__________________________________________________________________________________________________
conv2d_179 (Conv2D)             (None, 19, 19, 128)  73856       max_pooling2d_178[0][0]          
__________________________________________________________________________________________________
conv2d_182 (Conv2D)             (None, 19, 19, 128)  73856       max_pooling2d_181[0][0]          
__________________________________________________________________________________________________
conv2d_185 (Conv2D)             (None, 19, 19, 128)  73856       max_pooling2d_184[0][0]          
__________________________________________________________________________________________________
max_pooling2d_173 (MaxPooling2D (None, 10, 10, 128)  0           conv2d_173[0][0]                 
__________________________________________________________________________________________________
max_pooling2d_176 (MaxPooling2D (None, 10, 10, 128)  0           conv2d_176[0][0]                 
__________________________________________________________________________________________________
max_pooling2d_179 (MaxPooling2D (None, 10, 10, 128)  0           conv2d_179[0][0]                 
__________________________________________________________________________________________________
max_pooling2d_182 (MaxPooling2D (None, 10, 10, 128)  0           conv2d_182[0][0]                 
__________________________________________________________________________________________________
max_pooling2d_185 (MaxPooling2D (None, 10, 10, 128)  0           conv2d_185[0][0]                 
__________________________________________________________________________________________________
concatenate_10 (Concatenate)    (None, 10, 10, 640)  0           max_pooling2d_173[0][0]          
                                                                 max_pooling2d_176[0][0]          
                                                                 max_pooling2d_179[0][0]          
                                                                 max_pooling2d_182[0][0]          
                                                                 max_pooling2d_185[0][0]          
__________________________________________________________________________________________________
flatten_410 (Flatten)           (None, 64000)        0           concatenate_10[0][0]             
__________________________________________________________________________________________________
dense_30 (Dense)                (None, 1024)         65537024    flatten_410[0][0]                
__________________________________________________________________________________________________
dropout_20 (Dropout)            (None, 1024)         0           dense_30[0][0]                   
__________________________________________________________________________________________________
dense_31 (Dense)                (None, 1024)         1049600     dropout_20[0][0]                 
__________________________________________________________________________________________________
dropout_21 (Dropout)            (None, 1024)         0           dense_31[0][0]                   
__________________________________________________________________________________________________
dense_32 (Dense)                (None, 5)            5125        dropout_21[0][0]                 
==================================================================================================
Total params: 67,072,997
Trainable params: 67,072,997
Non-trainable params: 0
__________________________________________________________________________________________________
start loading dataset ...
load "Big" complete
load "Long" complete
load "Mitotic" complete
…
 avg': {'precision': 0.8083744354110207, 'recall': 0.6997153531400107, 'f1-score': 0.6458553254996691, 'support': 260.0}, 'weighted avg': {'precision': 0.8163176725036481, 'recall': 0.7230769230769231, 'f1-score': 0.664504140097989, 'support': 260.0}}
Model: "model_21"
__________________________________________________________________________________________________
Layer (type)                    Output Shape         Param #     Connected to                     
==================================================================================================
input_11 (InputLayer)           [(None, 150, 150, 7) 0                                            
__________________________________________________________________________________________________
lambda_50 (Lambda)              (None, 150, 150, 7)  0           input_11[0][0]                   
__________________________________________________________________________________________________
conv2d_170 (Conv2D)             (None, 150, 150, 32) 2048        lambda_50[0][0]                  
__________________________________________________________________________________________________
max_pooling2d_170 (MaxPooling2D (None, 75, 75, 32)   0           conv2d_170[0][0]                 
__________________________________________________________________________________________________
lambda_51 (Lambda)              (None, 75, 75, 7)    0           lambda_50[0][0]                  
__________________________________________________________________________________________________
lambda_52 (Lambda)              (None, 75, 75, 7)    0           lambda_50[0][0]                  
__________________________________________________________________________________________________
lambda_53 (Lambda)              (None, 75, 75, 7)    0           lambda_50[0][0]                  
__________________________________________________________________________________________________
lambda_54 (Lambda)              (None, 75, 75, 7)    0           lambda_50[0][0]                  
__________________________________________________________________________________________________
conv2d_171 (Conv2D)             (None, 75, 75, 32)   9248        max_pooling2d_170[0][0]          
__________________________________________________________________________________________________
conv2d_174 (Conv2D)             (None, 75, 75, 32)   2048        lambda_51[0][0]                  
__________________________________________________________________________________________________
conv2d_177 (Conv2D)             (None, 75, 75, 32)   2048        lambda_52[0][0]                  
__________________________________________________________________________________________________
conv2d_180 (Conv2D)             (None, 75, 75, 32)   2048        lambda_53[0][0]                  
__________________________________________________________________________________________________
conv2d_183 (Conv2D)             (None, 75, 75, 32)   2048        lambda_54[0][0]                  
__________________________________________________________________________________________________
max_pooling2d_171 (MaxPooling2D (None, 38, 38, 32)   0           conv2d_171[0][0]                 
__________________________________________________________________________________________________
max_pooling2d_174 (MaxPooling2D (None, 38, 38, 32)   0           conv2d_174[0][0]                 
__________________________________________________________________________________________________
max_pooling2d_177 (MaxPooling2D (None, 38, 38, 32)   0           conv2d_177[0][0]                 
__________________________________________________________________________________________________
max_pooling2d_180 (MaxPooling2D (None, 38, 38, 32)   0           conv2d_180[0][0]                 
__________________________________________________________________________________________________
max_pooling2d_183 (MaxPooling2D (None, 38, 38, 32)   0           conv2d_183[0][0]                 
__________________________________________________________________________________________________
conv2d_172 (Conv2D)             (None, 38, 38, 64)   18496       max_pooling2d_171[0][0]          
__________________________________________________________________________________________________
conv2d_175 (Conv2D)             (None, 38, 38, 64)   18496       max_pooling2d_174[0][0]          
__________________________________________________________________________________________________
conv2d_178 (Conv2D)             (None, 38, 38, 64)   18496       max_pooling2d_177[0][0]          
__________________________________________________________________________________________________
conv2d_181 (Conv2D)             (None, 38, 38, 64)   18496       max_pooling2d_180[0][0]          
__________________________________________________________________________________________________
conv2d_184 (Conv2D)             (None, 38, 38, 64)   18496       max_pooling2d_183[0][0]          
__________________________________________________________________________________________________
max_pooling2d_172 (MaxPooling2D (None, 19, 19, 64)   0           conv2d_172[0][0]                 
__________________________________________________________________________________________________
max_pooling2d_175 (MaxPooling2D (None, 19, 19, 64)   0           conv2d_175[0][0]                 
__________________________________________________________________________________________________
max_pooling2d_178 (MaxPooling2D (None, 19, 19, 64)   0           conv2d_178[0][0]                 
__________________________________________________________________________________________________
max_pooling2d_181 (MaxPooling2D (None, 19, 19, 64)   0           conv2d_181[0][0]                 
__________________________________________________________________________________________________
max_pooling2d_184 (MaxPooling2D (None, 19, 19, 64)   0           conv2d_184[0][0]                 
__________________________________________________________________________________________________
conv2d_173 (Conv2D)             (None, 19, 19, 128)  73856       max_pooling2d_172[0][0]          
__________________________________________________________________________________________________
conv2d_176 (Conv2D)             (None, 19, 19, 128)  73856       max_pooling2d_175[0][0]          
__________________________________________________________________________________________________
conv2d_179 (Conv2D)             (None, 19, 19, 128)  73856       max_pooling2d_178[0][0]          
__________________________________________________________________________________________________
conv2d_182 (Conv2D)             (None, 19, 19, 128)  73856       max_pooling2d_181[0][0]          
__________________________________________________________________________________________________
conv2d_185 (Conv2D)             (None, 19, 19, 128)  73856       max_pooling2d_184[0][0]          
__________________________________________________________________________________________________
max_pooling2d_173 (MaxPooling2D (None, 10, 10, 128)  0           conv2d_173[0][0]                 
__________________________________________________________________________________________________
max_pooling2d_176 (MaxPooling2D (None, 10, 10, 128)  0           conv2d_176[0][0]                 
__________________________________________________________________________________________________
max_pooling2d_179 (MaxPooling2D (None, 10, 10, 128)  0           conv2d_179[0][0]                 
__________________________________________________________________________________________________
max_pooling2d_182 (MaxPooling2D (None, 10, 10, 128)  0           conv2d_182[0][0]                 
__________________________________________________________________________________________________
max_pooling2d_185 (MaxPooling2D (None, 10, 10, 128)  0           conv2d_185[0][0]                 
__________________________________________________________________________________________________
concatenate_10 (Concatenate)    (None, 10, 10, 640)  0           max_pooling2d_173[0][0]          
                                                                 max_pooling2d_176[0][0]          
                                                                 max_pooling2d_179[0][0]          
                                                                 max_pooling2d_182[0][0]          
                                                                 max_pooling2d_185[0][0]          
__________________________________________________________________________________________________
flatten_410 (Flatten)           (None, 64000)        0           concatenate_10[0][0]             
==================================================================================================
Total params: 481,248
Trainable params: 481,248
Non-trainable params: 0
__________________________________________________________________________________________________
get cnn model
(1052, 64000)
[  0.       152.3306    12.386745   0.        88.48283  141.76115
…
