program start
seed set
[PhysicalDevice(name='/physical_device:GPU:0', device_type='GPU')]
Model: "model_24"
__________________________________________________________________________________________________
Layer (type)                    Output Shape         Param #     Connected to                     
==================================================================================================
input_13 (InputLayer)           [(None, 150, 150, 7) 0                                            
__________________________________________________________________________________________________
lambda_60 (Lambda)              (None, 150, 150, 7)  0           input_13[0][0]                   
__________________________________________________________________________________________________
conv2d_204 (Conv2D)             (None, 150, 150, 32) 2048        lambda_60[0][0]                  
__________________________________________________________________________________________________
max_pooling2d_204 (MaxPooling2D (None, 75, 75, 32)   0           conv2d_204[0][0]                 
__________________________________________________________________________________________________
lambda_61 (Lambda)              (None, 75, 75, 7)    0           lambda_60[0][0]                  
__________________________________________________________________________________________________
lambda_62 (Lambda)              (None, 75, 75, 7)    0           lambda_60[0][0]                  
__________________________________________________________________________________________________
lambda_63 (Lambda)              (None, 75, 75, 7)    0           lambda_60[0][0]                  
__________________________________________________________________________________________________
lambda_64 (Lambda)              (None, 75, 75, 7)    0           lambda_60[0][0]                  
__________________________________________________________________________________________________
conv2d_205 (Conv2D)             (None, 75, 75, 32)   9248        max_pooling2d_204[0][0]          
__________________________________________________________________________________________________
conv2d_208 (Conv2D)             (None, 75, 75, 32)   2048        lambda_61[0][0]                  
__________________________________________________________________________________________________
conv2d_211 (Conv2D)             (None, 75, 75, 32)   2048        lambda_62[0][0]                  
__________________________________________________________________________________________________
conv2d_214 (Conv2D)             (None, 75, 75, 32)   2048        lambda_63[0][0]                  
__________________________________________________________________________________________________
conv2d_217 (Conv2D)             (None, 75, 75, 32)   2048        lambda_64[0][0]                  
__________________________________________________________________________________________________
max_pooling2d_205 (MaxPooling2D (None, 38, 38, 32)   0           conv2d_205[0][0]                 
__________________________________________________________________________________________________
max_pooling2d_208 (MaxPooling2D (None, 38, 38, 32)   0           conv2d_208[0][0]                 
__________________________________________________________________________________________________
max_pooling2d_211 (MaxPooling2D (None, 38, 38, 32)   0           conv2d_211[0][0]                 
__________________________________________________________________________________________________
max_pooling2d_214 (MaxPooling2D (None, 38, 38, 32)   0           conv2d_214[0][0]                 
__________________________________________________________________________________________________
max_pooling2d_217 (MaxPooling2D (None, 38, 38, 32)   0           conv2d_217[0][0]                 
__________________________________________________________________________________________________
conv2d_206 (Conv2D)             (None, 38, 38, 64)   18496       max_pooling2d_205[0][0]          
__________________________________________________________________________________________________
conv2d_209 (Conv2D)             (None, 38, 38, 64)   18496       max_pooling2d_208[0][0]          
__________________________________________________________________________________________________
conv2d_212 (Conv2D)             (None, 38, 38, 64)   18496       max_pooling2d_211[0][0]          
__________________________________________________________________________________________________
conv2d_215 (Conv2D)             (None, 38, 38, 64)   18496       max_pooling2d_214[0][0]          
__________________________________________________________________________________________________
conv2d_218 (Conv2D)             (None, 38, 38, 64)   18496       max_pooling2d_217[0][0]          
__________________________________________________________________________________________________
max_pooling2d_206 (MaxPooling2D (None, 19, 19, 64)   0           conv2d_206[0][0]                 
__________________________________________________________________________________________________
max_pooling2d_209 (MaxPooling2D (None, 19, 19, 64)   0           conv2d_209[0][0]                 
__________________________________________________________________________________________________
max_pooling2d_212 (MaxPooling2D (None, 19, 19, 64)   0           conv2d_212[0][0]                 
__________________________________________________________________________________________________
max_pooling2d_215 (MaxPooling2D (None, 19, 19, 64)   0           conv2d_215[0][0]                 
__________________________________________________________________________________________________
max_pooling2d_218 (MaxPooling2D (None, 19, 19, 64)   0           conv2d_218[0][0]                 
__________________________________________________________________________________________________
conv2d_207 (Conv2D)             (None, 19, 19, 128)  73856       max_pooling2d_206[0][0]          
__________________________________________________________________________________________________
conv2d_210 (Conv2D)             (None, 19, 19, 128)  73856       max_pooling2d_209[0][0]          
__________________________________________________________________________________________________
conv2d_213 (Conv2D)             (None, 19, 19, 128)  73856       max_pooling2d_212[0][0]          
__________________________________________________________________________________________________
conv2d_216 (Conv2D)             (None, 19, 19, 128)  73856       max_pooling2d_215[0][0]          
__________________________________________________________________________________________________
conv2d_219 (Conv2D)             (None, 19, 19, 128)  73856       max_pooling2d_218[0][0]          
__________________________________________________________________________________________________
max_pooling2d_207 (MaxPooling2D (None, 10, 10, 128)  0           conv2d_207[0][0]                 
__________________________________________________________________________________________________
max_pooling2d_210 (MaxPooling2D (None, 10, 10, 128)  0           conv2d_210[0][0]                 
__________________________________________________________________________________________________
max_pooling2d_213 (MaxPooling2D (None, 10, 10, 128)  0           conv2d_213[0][0]                 
__________________________________________________________________________________________________
max_pooling2d_216 (MaxPooling2D (None, 10, 10, 128)  0           conv2d_216[0][0]                 
__________________________________________________________________________________________________
max_pooling2d_219 (MaxPooling2D (None, 10, 10, 128)  0           conv2d_219[0][0]                 
__________________________________________________________________________________________________
concatenate_12 (Concatenate)    (None, 10, 10, 640)  0           max_pooling2d_207[0][0]          
                                                                 max_pooling2d_210[0][0]          
                                                                 max_pooling2d_213[0][0]          
                                                                 max_pooling2d_216[0][0]          
                                                                 max_pooling2d_219[0][0]          
__________________________________________________________________________________________________
flatten_492 (Flatten)           (None, 64000)        0           concatenate_12[0][0]             
__________________________________________________________________________________________________
dense_36 (Dense)                (None, 1024)         65537024    flatten_492[0][0]                
__________________________________________________________________________________________________
dropout_24 (Dropout)            (None, 1024)         0           dense_36[0][0]                   
__________________________________________________________________________________________________
dense_37 (Dense)                (None, 1024)         1049600     dropout_24[0][0]                 
__________________________________________________________________________________________________
dropout_25 (Dropout)            (None, 1024)         0           dense_37[0][0]                   
__________________________________________________________________________________________________
dense_38 (Dense)                (None, 5)            5125        dropout_25[0][0]                 
==================================================================================================
Total params: 67,072,997
Trainable params: 67,072,997
Non-trainable params: 0
__________________________________________________________________________________________________
start loading dataset ...
load "Big" complete
load "Long" complete
load "Mitotic" complete
…
           3       1.00      0.66      0.80        56
           4       1.00      0.05      0.10        56

    accuracy                           0.70       260
   macro avg       0.79      0.72      0.64       260
weighted avg       0.81      0.70      0.64       260

Model: "model_25"
__________________________________________________________________________________________________
Layer (type)                    Output Shape         Param #     Connected to                     
==================================================================================================
input_13 (InputLayer)           [(None, 150, 150, 7) 0                                            
__________________________________________________________________________________________________
lambda_60 (Lambda)              (None, 150, 150, 7)  0           input_13[0][0]                   
__________________________________________________________________________________________________
conv2d_204 (Conv2D)             (None, 150, 150, 32) 2048        lambda_60[0][0]                  
__________________________________________________________________________________________________
max_pooling2d_204 (MaxPooling2D (None, 75, 75, 32)   0           conv2d_204[0][0]                 
__________________________________________________________________________________________________
lambda_61 (Lambda)              (None, 75, 75, 7)    0           lambda_60[0][0]                  
__________________________________________________________________________________________________
lambda_62 (Lambda)              (None, 75, 75, 7)    0           lambda_60[0][0]                  
__________________________________________________________________________________________________
lambda_63 (Lambda)              (None, 75, 75, 7)    0           lambda_60[0][0]                  
__________________________________________________________________________________________________
lambda_64 (Lambda)              (None, 75, 75, 7)    0           lambda_60[0][0]                  
__________________________________________________________________________________________________
conv2d_205 (Conv2D)             (None, 75, 75, 32)   9248        max_pooling2d_204[0][0]          
__________________________________________________________________________________________________
conv2d_208 (Conv2D)             (None, 75, 75, 32)   2048        lambda_61[0][0]                  
__________________________________________________________________________________________________
conv2d_211 (Conv2D)             (None, 75, 75, 32)   2048        lambda_62[0][0]                  
__________________________________________________________________________________________________
conv2d_214 (Conv2D)             (None, 75, 75, 32)   2048        lambda_63[0][0]                  
__________________________________________________________________________________________________
conv2d_217 (Conv2D)             (None, 75, 75, 32)   2048        lambda_64[0][0]                  
__________________________________________________________________________________________________
max_pooling2d_205 (MaxPooling2D (None, 38, 38, 32)   0           conv2d_205[0][0]                 
__________________________________________________________________________________________________
max_pooling2d_208 (MaxPooling2D (None, 38, 38, 32)   0           conv2d_208[0][0]                 
__________________________________________________________________________________________________
max_pooling2d_211 (MaxPooling2D (None, 38, 38, 32)   0           conv2d_211[0][0]                 
__________________________________________________________________________________________________
max_pooling2d_214 (MaxPooling2D (None, 38, 38, 32)   0           conv2d_214[0][0]                 
__________________________________________________________________________________________________
max_pooling2d_217 (MaxPooling2D (None, 38, 38, 32)   0           conv2d_217[0][0]                 
__________________________________________________________________________________________________
conv2d_206 (Conv2D)             (None, 38, 38, 64)   18496       max_pooling2d_205[0][0]          
__________________________________________________________________________________________________
conv2d_209 (Conv2D)             (None, 38, 38, 64)   18496       max_pooling2d_208[0][0]          
__________________________________________________________________________________________________
conv2d_212 (Conv2D)             (None, 38, 38, 64)   18496       max_pooling2d_211[0][0]          
__________________________________________________________________________________________________
conv2d_215 (Conv2D)             (None, 38, 38, 64)   18496       max_pooling2d_214[0][0]          
__________________________________________________________________________________________________
conv2d_218 (Conv2D)             (None, 38, 38, 64)   18496       max_pooling2d_217[0][0]          
__________________________________________________________________________________________________
max_pooling2d_206 (MaxPooling2D (None, 19, 19, 64)   0           conv2d_206[0][0]                 
__________________________________________________________________________________________________
max_pooling2d_209 (MaxPooling2D (None, 19, 19, 64)   0           conv2d_209[0][0]                 
__________________________________________________________________________________________________
max_pooling2d_212 (MaxPooling2D (None, 19, 19, 64)   0           conv2d_212[0][0]                 
__________________________________________________________________________________________________
max_pooling2d_215 (MaxPooling2D (None, 19, 19, 64)   0           conv2d_215[0][0]                 
__________________________________________________________________________________________________
max_pooling2d_218 (MaxPooling2D (None, 19, 19, 64)   0           conv2d_218[0][0]                 
__________________________________________________________________________________________________
conv2d_207 (Conv2D)             (None, 19, 19, 128)  73856       max_pooling2d_206[0][0]          
__________________________________________________________________________________________________
conv2d_210 (Conv2D)             (None, 19, 19, 128)  73856       max_pooling2d_209[0][0]          
__________________________________________________________________________________________________
conv2d_213 (Conv2D)             (None, 19, 19, 128)  73856       max_pooling2d_212[0][0]          
__________________________________________________________________________________________________
conv2d_216 (Conv2D)             (None, 19, 19, 128)  73856       max_pooling2d_215[0][0]          
__________________________________________________________________________________________________
conv2d_219 (Conv2D)             (None, 19, 19, 128)  73856       max_pooling2d_218[0][0]          
__________________________________________________________________________________________________
max_pooling2d_207 (MaxPooling2D (None, 10, 10, 128)  0           conv2d_207[0][0]                 
__________________________________________________________________________________________________
max_pooling2d_210 (MaxPooling2D (None, 10, 10, 128)  0           conv2d_210[0][0]                 
__________________________________________________________________________________________________
max_pooling2d_213 (MaxPooling2D (None, 10, 10, 128)  0           conv2d_213[0][0]                 
__________________________________________________________________________________________________
max_pooling2d_216 (MaxPooling2D (None, 10, 10, 128)  0           conv2d_216[0][0]                 
__________________________________________________________________________________________________
max_pooling2d_219 (MaxPooling2D (None, 10, 10, 128)  0           conv2d_219[0][0]                 
__________________________________________________________________________________________________
concatenate_12 (Concatenate)    (None, 10, 10, 640)  0           max_pooling2d_207[0][0]          
                                                                 max_pooling2d_210[0][0]          
                                                                 max_pooling2d_213[0][0]          
                                                                 max_pooling2d_216[0][0]          
                                                                 max_pooling2d_219[0][0]          
__________________________________________________________________________________________________
flatten_492 (Flatten)           (None, 64000)        0           concatenate_12[0][0]             
==================================================================================================
Total params: 481,248
Trainable params: 481,248
Non-trainable params: 0
__________________________________________________________________________________________________
get cnn model
(1052, 64000)
[359.20715 294.28223   0.      100.84798   0.        0.      305.27194
…
