program start
seed set
[PhysicalDevice(name='/physical_device:GPU:0', device_type='GPU')]
Model: "model_28"
__________________________________________________________________________________________________
Layer (type)                    Output Shape         Param #     Connected to                     
==================================================================================================
input_15 (InputLayer)           [(None, 150, 150, 7) 0                                            
__________________________________________________________________________________________________
lambda_70 (Lambda)              (None, 150, 150, 7)  0           input_15[0][0]                   
__________________________________________________________________________________________________
conv2d_238 (Conv2D)             (None, 150, 150, 32) 2048        lambda_70[0][0]                  
__________________________________________________________________________________________________
max_pooling2d_238 (MaxPooling2D (None, 75, 75, 32)   0           conv2d_238[0][0]                 
__________________________________________________________________________________________________
lambda_71 (Lambda)              (None, 75, 75, 7)    0           lambda_70[0][0]                  
__________________________________________________________________________________________________
lambda_72 (Lambda)              (None, 75, 75, 7)    0           lambda_70[0][0]                  
__________________________________________________________________________________________________
lambda_73 (Lambda)              (None, 75, 75, 7)    0           lambda_70[0][0]                  
__________________________________________________________________________________________________
lambda_74 (Lambda)              (None, 75, 75, 7)    0           lambda_70[0][0]                  
__________________________________________________________________________________________________
conv2d_239 (Conv2D)             (None, 75, 75, 32)   9248        max_pooling2d_238[0][0]          
__________________________________________________________________________________________________
conv2d_242 (Conv2D)             (None, 75, 75, 32)   2048        lambda_71[0][0]                  
__________________________________________________________________________________________________
conv2d_245 (Conv2D)             (None, 75, 75, 32)   2048        lambda_72[0][0]                  
__________________________________________________________________________________________________
conv2d_248 (Conv2D)             (None, 75, 75, 32)   2048        lambda_73[0][0]                  
__________________________________________________________________________________________________
conv2d_251 (Conv2D)             (None, 75, 75, 32)   2048        lambda_74[0][0]                  
__________________________________________________________________________________________________
max_pooling2d_239 (MaxPooling2D (None, 38, 38, 32)   0           conv2d_239[0][0]                 
__________________________________________________________________________________________________
max_pooling2d_242 (MaxPooling2D (None, 38, 38, 32)   0           conv2d_242[0][0]                 
__________________________________________________________________________________________________
max_pooling2d_245 (MaxPooling2D (None, 38, 38, 32)   0           conv2d_245[0][0]                 
__________________________________________________________________________________________________
max_pooling2d_248 (MaxPooling2D (None, 38, 38, 32)   0           conv2d_248[0][0]                 
__________________________________________________________________________________________________
max_pooling2d_251 (MaxPooling2D (None, 38, 38, 32)   0           conv2d_251[0][0]                 
__________________________________________________________________________________________________
conv2d_240 (Conv2D)             (None, 38, 38, 64)   18496       max_pooling2d_239[0][0]          
__________________________________________________________________________________________________
conv2d_243 (Conv2D)             (None, 38, 38, 64)   18496       max_pooling2d_242[0][0]          
__________________________________________________________________________________________________
conv2d_246 (Conv2D)             (None, 38, 38, 64)   18496       max_pooling2d_245[0][0]          
__________________________________________________________________________________________________
conv2d_249 (Conv2D)             (None, 38, 38, 64)   18496       max_pooling2d_248[0][0]          
__________________________________________________________________________________________________
conv2d_252 (Conv2D)             (None, 38, 38, 64)   18496       max_pooling2d_251[0][0]          
__________________________________________________________________________________________________
max_pooling2d_240 (MaxPooling2D (None, 19, 19, 64)   0           conv2d_240[0][0]                 
__________________________________________________________________________________________________
max_pooling2d_243 (MaxPooling2D (None, 19, 19, 64)   0           conv2d_243[0][0]                 
__________________________________________________________________________________________________
max_pooling2d_246 (MaxPooling2D (None, 19, 19, 64)   0           conv2d_246[0][0]                 
__________________________________________________________________________________________________
max_pooling2d_249 (MaxPooling2D (None, 19, 19, 64)   0           conv2d_249[0][0]                 
__________________________________________________________________________________________________
max_pooling2d_252 (MaxPooling2D (None, 19, 19, 64)   0           conv2d_252[0][0]                 
__________________________________________________________________________________________________
conv2d_241 (Conv2D)             (None, 19, 19, 128)  73856       max_pooling2d_240[0][0]          
__________________________________________________________________________________________________
conv2d_244 (Conv2D)             (None, 19, 19, 128)  73856       max_pooling2d_243[0][0]          
__________________________________________________________________________________________________
conv2d_247 (Conv2D)             (None, 19, 19, 128)  73856       max_pooling2d_246[0][0]          
__________________________________________________________________________________________________
conv2d_250 (Conv2D)             (None, 19, 19, 128)  73856       max_pooling2d_249[0][0]          
__________________________________________________________________________________________________
conv2d_253 (Conv2D)             (None, 19, 19, 128)  73856       max_pooling2d_252[0][0]          
__________________________________________________________________________________________________
max_pooling2d_241 (MaxPooling2D (None, 10, 10, 128)  0           conv2d_241[0][0]                 
__________________________________________________________________________________________________
max_pooling2d_244 (MaxPooling2D (None, 10, 10, 128)  0           conv2d_244[0][0]                 
__________________________________________________________________________________________________
max_pooling2d_247 (MaxPooling2D (None, 10, 10, 128)  0           conv2d_247[0][0]                 
__________________________________________________________________________________________________
max_pooling2d_250 (MaxPooling2D (None, 10, 10, 128)  0           conv2d_250[0][0]                 
__________________________________________________________________________________________________
max_pooling2d_253 (MaxPooling2D (None, 10, 10, 128)  0           conv2d_253[0][0]                 
__________________________________________________________________________________________________
concatenate_14 (Concatenate)    (None, 10, 10, 640)  0           max_pooling2d_241[0][0]          
                                                                 max_pooling2d_244[0][0]          
                                                                 max_pooling2d_247[0][0]          
                                                                 max_pooling2d_250[0][0]          
                                                                 max_pooling2d_253[0][0]          
__________________________________________________________________________________________________
flatten_574 (Flatten)           (None, 64000)        0           concatenate_14[0][0]             
__________________________________________________________________________________________________
dense_42 (Dense)                (None, 1024)         65537024    flatten_574[0][0]                
__________________________________________________________________________________________________
dropout_28 (Dropout)            (None, 1024)         0           dense_42[0][0]                   
__________________________________________________________________________________________________
dense_43 (Dense)                (None, 1024)         1049600     dropout_28[0][0]                 
__________________________________________________________________________________________________
dropout_29 (Dropout)            (None, 1024)         0           dense_43[0][0]                   
__________________________________________________________________________________________________
dense_44 (Dense)                (None, 5)            5125        dropout_29[0][0]                 
==================================================================================================
Total params: 67,072,997
Trainable params: 67,072,997
Non-trainable params: 0
__________________________________________________________________________________________________
start loading dataset ...
load "Big" complete
load "Long" complete
load "Mitotic" complete
…
           3       1.00      0.55      0.71        56
           4       1.00      0.02      0.04        56

    accuracy                           0.67       260
   macro avg       0.76      0.68      0.59       260
weighted avg       0.79      0.67      0.59       260

Model: "model_29"
__________________________________________________________________________________________________
Layer (type)                    Output Shape         Param #     Connected to                     
==================================================================================================
input_15 (InputLayer)           [(None, 150, 150, 7) 0                                            
__________________________________________________________________________________________________
lambda_70 (Lambda)              (None, 150, 150, 7)  0           input_15[0][0]                   
__________________________________________________________________________________________________
conv2d_238 (Conv2D)             (None, 150, 150, 32) 2048        lambda_70[0][0]                  
__________________________________________________________________________________________________
max_pooling2d_238 (MaxPooling2D (None, 75, 75, 32)   0           conv2d_238[0][0]                 
__________________________________________________________________________________________________
lambda_71 (Lambda)              (None, 75, 75, 7)    0           lambda_70[0][0]                  
__________________________________________________________________________________________________
lambda_72 (Lambda)              (None, 75, 75, 7)    0           lambda_70[0][0]                  
__________________________________________________________________________________________________
lambda_73 (Lambda)              (None, 75, 75, 7)    0           lambda_70[0][0]                  
__________________________________________________________________________________________________
lambda_74 (Lambda)              (None, 75, 75, 7)    0           lambda_70[0][0]                  
__________________________________________________________________________________________________
conv2d_239 (Conv2D)             (None, 75, 75, 32)   9248        max_pooling2d_238[0][0]          
__________________________________________________________________________________________________
conv2d_242 (Conv2D)             (None, 75, 75, 32)   2048        lambda_71[0][0]                  
__________________________________________________________________________________________________
conv2d_245 (Conv2D)             (None, 75, 75, 32)   2048        lambda_72[0][0]                  
__________________________________________________________________________________________________
conv2d_248 (Conv2D)             (None, 75, 75, 32)   2048        lambda_73[0][0]                  
__________________________________________________________________________________________________
conv2d_251 (Conv2D)             (None, 75, 75, 32)   2048        lambda_74[0][0]                  
__________________________________________________________________________________________________
max_pooling2d_239 (MaxPooling2D (None, 38, 38, 32)   0           conv2d_239[0][0]                 
__________________________________________________________________________________________________
max_pooling2d_242 (MaxPooling2D (None, 38, 38, 32)   0           conv2d_242[0][0]                 
__________________________________________________________________________________________________
max_pooling2d_245 (MaxPooling2D (None, 38, 38, 32)   0           conv2d_245[0][0]                 
__________________________________________________________________________________________________
max_pooling2d_248 (MaxPooling2D (None, 38, 38, 32)   0           conv2d_248[0][0]                 
__________________________________________________________________________________________________
max_pooling2d_251 (MaxPooling2D (None, 38, 38, 32)   0           conv2d_251[0][0]                 
__________________________________________________________________________________________________
conv2d_240 (Conv2D)             (None, 38, 38, 64)   18496       max_pooling2d_239[0][0]          
__________________________________________________________________________________________________
conv2d_243 (Conv2D)             (None, 38, 38, 64)   18496       max_pooling2d_242[0][0]          
__________________________________________________________________________________________________
conv2d_246 (Conv2D)             (None, 38, 38, 64)   18496       max_pooling2d_245[0][0]          
__________________________________________________________________________________________________
conv2d_249 (Conv2D)             (None, 38, 38, 64)   18496       max_pooling2d_248[0][0]          
__________________________________________________________________________________________________
conv2d_252 (Conv2D)             (None, 38, 38, 64)   18496       max_pooling2d_251[0][0]          
__________________________________________________________________________________________________
max_pooling2d_240 (MaxPooling2D (None, 19, 19, 64)   0           conv2d_240[0][0]                 
__________________________________________________________________________________________________
max_pooling2d_243 (MaxPooling2D (None, 19, 19, 64)   0           conv2d_243[0][0]                 
__________________________________________________________________________________________________
max_pooling2d_246 (MaxPooling2D (None, 19, 19, 64)   0           conv2d_246[0][0]                 
__________________________________________________________________________________________________
max_pooling2d_249 (MaxPooling2D (None, 19, 19, 64)   0           conv2d_249[0][0]                 
__________________________________________________________________________________________________
max_pooling2d_252 (MaxPooling2D (None, 19, 19, 64)   0           conv2d_252[0][0]                 
__________________________________________________________________________________________________
conv2d_241 (Conv2D)             (None, 19, 19, 128)  73856       max_pooling2d_240[0][0]          
__________________________________________________________________________________________________
conv2d_244 (Conv2D)             (None, 19, 19, 128)  73856       max_pooling2d_243[0][0]          
__________________________________________________________________________________________________
conv2d_247 (Conv2D)             (None, 19, 19, 128)  73856       max_pooling2d_246[0][0]          
__________________________________________________________________________________________________
conv2d_250 (Conv2D)             (None, 19, 19, 128)  73856       max_pooling2d_249[0][0]          
__________________________________________________________________________________________________
conv2d_253 (Conv2D)             (None, 19, 19, 128)  73856       max_pooling2d_252[0][0]          
__________________________________________________________________________________________________
max_pooling2d_241 (MaxPooling2D (None, 10, 10, 128)  0           conv2d_241[0][0]                 
__________________________________________________________________________________________________
max_pooling2d_244 (MaxPooling2D (None, 10, 10, 128)  0           conv2d_244[0][0]                 
__________________________________________________________________________________________________
max_pooling2d_247 (MaxPooling2D (None, 10, 10, 128)  0           conv2d_247[0][0]                 
__________________________________________________________________________________________________
max_pooling2d_250 (MaxPooling2D (None, 10, 10, 128)  0           conv2d_250[0][0]                 
__________________________________________________________________________________________________
max_pooling2d_253 (MaxPooling2D (None, 10, 10, 128)  0           conv2d_253[0][0]                 
__________________________________________________________________________________________________
concatenate_14 (Concatenate)    (None, 10, 10, 640)  0           max_pooling2d_241[0][0]          
                                                                 max_pooling2d_244[0][0]          
                                                                 max_pooling2d_247[0][0]          
                                                                 max_pooling2d_250[0][0]          
                                                                 max_pooling2d_253[0][0]          
__________________________________________________________________________________________________
flatten_574 (Flatten)           (None, 64000)        0           concatenate_14[0][0]             
==================================================================================================
Total params: 481,248
Trainable params: 481,248
Non-trainable params: 0
__________________________________________________________________________________________________
get cnn model
(1052, 64000)
[151.69754    0.       132.582     41.18177    0.       278.59067
…
