program start
seed set
[PhysicalDevice(name='/physical_device:GPU:0', device_type='GPU')]
Model: "model_34"
__________________________________________________________________________________________________
Layer (type)                    Output Shape         Param #     Connected to                     
==================================================================================================
input_18 (InputLayer)           [(None, 150, 150, 7) 0                                            
__________________________________________________________________________________________________
lambda_85 (Lambda)              (None, 150, 150, 7)  0           input_18[0][0]                   
__________________________________________________________________________________________________
conv2d_289 (Conv2D)             (None, 150, 150, 32) 2048        lambda_85[0][0]                  
__________________________________________________________________________________________________
max_pooling2d_289 (MaxPooling2D (None, 75, 75, 32)   0           conv2d_289[0][0]                 
__________________________________________________________________________________________________
lambda_86 (Lambda)              (None, 75, 75, 7)    0           lambda_85[0][0]                  
__________________________________________________________________________________________________
lambda_87 (Lambda)              (None, 75, 75, 7)    0           lambda_85[0][0]                  
__________________________________________________________________________________________________
lambda_88 (Lambda)              (None, 75, 75, 7)    0           lambda_85[0][0]                  
__________________________________________________________________________________________________
lambda_89 (Lambda)              (None, 75, 75, 7)    0           lambda_85[0][0]                  
__________________________________________________________________________________________________
conv2d_290 (Conv2D)             (None, 75, 75, 32)   9248        max_pooling2d_289[0][0]          
__________________________________________________________________________________________________
conv2d_293 (Conv2D)             (None, 75, 75, 32)   2048        lambda_86[0][0]                  
__________________________________________________________________________________________________
conv2d_296 (Conv2D)             (None, 75, 75, 32)   2048        lambda_87[0][0]                  
__________________________________________________________________________________________________
conv2d_299 (Conv2D)             (None, 75, 75, 32)   2048        lambda_88[0][0]                  
__________________________________________________________________________________________________
conv2d_302 (Conv2D)             (None, 75, 75, 32)   2048        lambda_89[0][0]                  
__________________________________________________________________________________________________
max_pooling2d_290 (MaxPooling2D (None, 38, 38, 32)   0           conv2d_290[0][0]                 
__________________________________________________________________________________________________
max_pooling2d_293 (MaxPooling2D (None, 38, 38, 32)   0           conv2d_293[0][0]                 
__________________________________________________________________________________________________
max_pooling2d_296 (MaxPooling2D (None, 38, 38, 32)   0           conv2d_296[0][0]                 
__________________________________________________________________________________________________
max_pooling2d_299 (MaxPooling2D (None, 38, 38, 32)   0           conv2d_299[0][0]                 
__________________________________________________________________________________________________
max_pooling2d_302 (MaxPooling2D (None, 38, 38, 32)   0           conv2d_302[0][0]                 
__________________________________________________________________________________________________
conv2d_291 (Conv2D)             (None, 38, 38, 64)   18496       max_pooling2d_290[0][0]          
__________________________________________________________________________________________________
conv2d_294 (Conv2D)             (None, 38, 38, 64)   18496       max_pooling2d_293[0][0]          
__________________________________________________________________________________________________
conv2d_297 (Conv2D)             (None, 38, 38, 64)   18496       max_pooling2d_296[0][0]          
__________________________________________________________________________________________________
conv2d_300 (Conv2D)             (None, 38, 38, 64)   18496       max_pooling2d_299[0][0]          
__________________________________________________________________________________________________
conv2d_303 (Conv2D)             (None, 38, 38, 64)   18496       max_pooling2d_302[0][0]          
__________________________________________________________________________________________________
max_pooling2d_291 (MaxPooling2D (None, 19, 19, 64)   0           conv2d_291[0][0]                 
__________________________________________________________________________________________________
max_pooling2d_294 (MaxPooling2D (None, 19, 19, 64)   0           conv2d_294[0][0]                 
__________________________________________________________________________________________________
max_pooling2d_297 (MaxPooling2D (None, 19, 19, 64)   0           conv2d_297[0][0]                 
__________________________________________________________________________________________________
max_pooling2d_300 (MaxPooling2D (None, 19, 19, 64)   0           conv2d_300[0][0]                 
__________________________________________________________________________________________________
max_pooling2d_303 (MaxPooling2D (None, 19, 19, 64)   0           conv2d_303[0][0]                 
__________________________________________________________________________________________________
conv2d_292 (Conv2D)             (None, 19, 19, 128)  73856       max_pooling2d_291[0][0]          
__________________________________________________________________________________________________
conv2d_295 (Conv2D)             (None, 19, 19, 128)  73856       max_pooling2d_294[0][0]          
__________________________________________________________________________________________________
conv2d_298 (Conv2D)             (None, 19, 19, 128)  73856       max_pooling2d_297[0][0]          
__________________________________________________________________________________________________
conv2d_301 (Conv2D)             (None, 19, 19, 128)  73856       max_pooling2d_300[0][0]          
__________________________________________________________________________________________________
conv2d_304 (Conv2D)             (None, 19, 19, 128)  73856       max_pooling2d_303[0][0]          
__________________________________________________________________________________________________
max_pooling2d_292 (MaxPooling2D (None, 10, 10, 128)  0           conv2d_292[0][0]                 
__________________________________________________________________________________________________
max_pooling2d_295 (MaxPooling2D (None, 10, 10, 128)  0           conv2d_295[0][0]                 
__________________________________________________________________________________________________
max_pooling2d_298 (MaxPooling2D (None, 10, 10, 128)  0           conv2d_298[0][0]                 
__________________________________________________________________________________________________
max_pooling2d_301 (MaxPooling2D (None, 10, 10, 128)  0           conv2d_301[0][0]                 
__________________________________________________________________________________________________
max_pooling2d_304 (MaxPooling2D (None, 10, 10, 128)  0           conv2d_304[0][0]                 
__________________________________________________________________________________________________
concatenate_17 (Concatenate)    (None, 10, 10, 640)  0           max_pooling2d_292[0][0]          
                                                                 max_pooling2d_295[0][0]          
                                                                 max_pooling2d_298[0][0]          
                                                                 max_pooling2d_301[0][0]          
                                                                 max_pooling2d_304[0][0]          
__________________________________________________________________________________________________
flatten_697 (Flatten)           (None, 64000)        0           concatenate_17[0][0]             
__________________________________________________________________________________________________
dense_51 (Dense)                (None, 1024)         65537024    flatten_697[0][0]                
__________________________________________________________________________________________________
dropout_34 (Dropout)            (None, 1024)         0           dense_51[0][0]                   
__________________________________________________________________________________________________
dense_52 (Dense)                (None, 1024)         1049600     dropout_34[0][0]                 
__________________________________________________________________________________________________
dropout_35 (Dropout)            (None, 1024)         0           dense_52[0][0]                   
__________________________________________________________________________________________________
dense_53 (Dense)                (None, 5)            5125        dropout_35[0][0]                 
==================================================================================================
Total params: 67,072,997
Trainable params: 67,072,997
Non-trainable params: 0
__________________________________________________________________________________________________
start loading dataset ...
load "Big" complete
load "Long" complete
load "Mitotic" complete
…
avg': {'precision': 0.7948611111111112, 'recall': 0.6658067959437822, 'f1-score': 0.6260600483181128, 'support': 260.0}, 'weighted avg': {'precision': 0.8195512820512822, 'recall': 0.6615384615384615, 'f1-score': 0.6373793667342054, 'support': 260.0}}
Model: "model_35"
__________________________________________________________________________________________________
Layer (type)                    Output Shape         Param #     Connected to                     
==================================================================================================
input_18 (InputLayer)           [(None, 150, 150, 7) 0                                            
__________________________________________________________________________________________________
lambda_85 (Lambda)              (None, 150, 150, 7)  0           input_18[0][0]                   
__________________________________________________________________________________________________
conv2d_289 (Conv2D)             (None, 150, 150, 32) 2048        lambda_85[0][0]                  
__________________________________________________________________________________________________
max_pooling2d_289 (MaxPooling2D (None, 75, 75, 32)   0           conv2d_289[0][0]                 
__________________________________________________________________________________________________
lambda_86 (Lambda)              (None, 75, 75, 7)    0           lambda_85[0][0]                  
__________________________________________________________________________________________________
lambda_87 (Lambda)              (None, 75, 75, 7)    0           lambda_85[0][0]                  
__________________________________________________________________________________________________
lambda_88 (Lambda)              (None, 75, 75, 7)    0           lambda_85[0][0]                  
__________________________________________________________________________________________________
lambda_89 (Lambda)              (None, 75, 75, 7)    0           lambda_85[0][0]                  
__________________________________________________________________________________________________
conv2d_290 (Conv2D)             (None, 75, 75, 32)   9248        max_pooling2d_289[0][0]          
__________________________________________________________________________________________________
conv2d_293 (Conv2D)             (None, 75, 75, 32)   2048        lambda_86[0][0]                  
__________________________________________________________________________________________________
conv2d_296 (Conv2D)             (None, 75, 75, 32)   2048        lambda_87[0][0]                  
__________________________________________________________________________________________________
conv2d_299 (Conv2D)             (None, 75, 75, 32)   2048        lambda_88[0][0]                  
__________________________________________________________________________________________________
conv2d_302 (Conv2D)             (None, 75, 75, 32)   2048        lambda_89[0][0]                  
__________________________________________________________________________________________________
max_pooling2d_290 (MaxPooling2D (None, 38, 38, 32)   0           conv2d_290[0][0]                 
__________________________________________________________________________________________________
max_pooling2d_293 (MaxPooling2D (None, 38, 38, 32)   0           conv2d_293[0][0]                 
__________________________________________________________________________________________________
max_pooling2d_296 (MaxPooling2D (None, 38, 38, 32)   0           conv2d_296[0][0]                 
__________________________________________________________________________________________________
max_pooling2d_299 (MaxPooling2D (None, 38, 38, 32)   0           conv2d_299[0][0]                 
__________________________________________________________________________________________________
max_pooling2d_302 (MaxPooling2D (None, 38, 38, 32)   0           conv2d_302[0][0]                 
__________________________________________________________________________________________________
conv2d_291 (Conv2D)             (None, 38, 38, 64)   18496       max_pooling2d_290[0][0]          
__________________________________________________________________________________________________
conv2d_294 (Conv2D)             (None, 38, 38, 64)   18496       max_pooling2d_293[0][0]          
__________________________________________________________________________________________________
conv2d_297 (Conv2D)             (None, 38, 38, 64)   18496       max_pooling2d_296[0][0]          
__________________________________________________________________________________________________
conv2d_300 (Conv2D)             (None, 38, 38, 64)   18496       max_pooling2d_299[0][0]          
__________________________________________________________________________________________________
conv2d_303 (Conv2D)             (None, 38, 38, 64)   18496       max_pooling2d_302[0][0]          
__________________________________________________________________________________________________
max_pooling2d_291 (MaxPooling2D (None, 19, 19, 64)   0           conv2d_291[0][0]                 
__________________________________________________________________________________________________
max_pooling2d_294 (MaxPooling2D (None, 19, 19, 64)   0           conv2d_294[0][0]                 
__________________________________________________________________________________________________
max_pooling2d_297 (MaxPooling2D (None, 19, 19, 64)   0           conv2d_297[0][0]                 
__________________________________________________________________________________________________
max_pooling2d_300 (MaxPooling2D (None, 19, 19, 64)   0           conv2d_300[0][0]                 
__________________________________________________________________________________________________
max_pooling2d_303 (MaxPooling2D (None, 19, 19, 64)   0           conv2d_303[0][0]                 
__________________________________________________________________________________________________
conv2d_292 (Conv2D)             (None, 19, 19, 128)  73856       max_pooling2d_291[0][0]          
__________________________________________________________________________________________________
conv2d_295 (Conv2D)             (None, 19, 19, 128)  73856       max_pooling2d_294[0][0]          
__________________________________________________________________________________________________
conv2d_298 (Conv2D)             (None, 19, 19, 128)  73856       max_pooling2d_297[0][0]          
__________________________________________________________________________________________________
conv2d_301 (Conv2D)             (None, 19, 19, 128)  73856       max_pooling2d_300[0][0]          
__________________________________________________________________________________________________
conv2d_304 (Conv2D)             (None, 19, 19, 128)  73856       max_pooling2d_303[0][0]          
__________________________________________________________________________________________________
max_pooling2d_292 (MaxPooling2D (None, 10, 10, 128)  0           conv2d_292[0][0]                 
__________________________________________________________________________________________________
max_pooling2d_295 (MaxPooling2D (None, 10, 10, 128)  0           conv2d_295[0][0]                 
__________________________________________________________________________________________________
max_pooling2d_298 (MaxPooling2D (None, 10, 10, 128)  0           conv2d_298[0][0]                 
__________________________________________________________________________________________________
max_pooling2d_301 (MaxPooling2D (None, 10, 10, 128)  0           conv2d_301[0][0]                 
__________________________________________________________________________________________________
max_pooling2d_304 (MaxPooling2D (None, 10, 10, 128)  0           conv2d_304[0][0]                 
__________________________________________________________________________________________________
concatenate_17 (Concatenate)    (None, 10, 10, 640)  0           max_pooling2d_292[0][0]          
                                                                 max_pooling2d_295[0][0]          
                                                                 max_pooling2d_298[0][0]          
                                                                 max_pooling2d_301[0][0]          
                                                                 max_pooling2d_304[0][0]          
__________________________________________________________________________________________________
flatten_697 (Flatten)           (None, 64000)        0           concatenate_17[0][0]             
==================================================================================================
Total params: 481,248
Trainable params: 481,248
Non-trainable params: 0
__________________________________________________________________________________________________
get cnn model
(1052, 64000)
[110.306305 105.42564   96.734375  80.09321   85.012726 144.07439
…
