program start
seed set
[PhysicalDevice(name='/physical_device:GPU:0', device_type='GPU')]
Model: "model_38"
__________________________________________________________________________________________________
Layer (type)                    Output Shape         Param #     Connected to                     
==================================================================================================
input_20 (InputLayer)           [(None, 150, 150, 7) 0                                            
__________________________________________________________________________________________________
lambda_95 (Lambda)              (None, 150, 150, 7)  0           input_20[0][0]                   
__________________________________________________________________________________________________
conv2d_323 (Conv2D)             (None, 150, 150, 32) 2048        lambda_95[0][0]                  
__________________________________________________________________________________________________
max_pooling2d_323 (MaxPooling2D (None, 75, 75, 32)   0           conv2d_323[0][0]                 
__________________________________________________________________________________________________
lambda_96 (Lambda)              (None, 75, 75, 7)    0           lambda_95[0][0]                  
__________________________________________________________________________________________________
lambda_97 (Lambda)              (None, 75, 75, 7)    0           lambda_95[0][0]                  
__________________________________________________________________________________________________
lambda_98 (Lambda)              (None, 75, 75, 7)    0           lambda_95[0][0]                  
__________________________________________________________________________________________________
lambda_99 (Lambda)              (None, 75, 75, 7)    0           lambda_95[0][0]                  
__________________________________________________________________________________________________
conv2d_324 (Conv2D)             (None, 75, 75, 32)   9248        max_pooling2d_323[0][0]          
__________________________________________________________________________________________________
conv2d_327 (Conv2D)             (None, 75, 75, 32)   2048        lambda_96[0][0]                  
__________________________________________________________________________________________________
conv2d_330 (Conv2D)             (None, 75, 75, 32)   2048        lambda_97[0][0]                  
__________________________________________________________________________________________________
conv2d_333 (Conv2D)             (None, 75, 75, 32)   2048        lambda_98[0][0]                  
__________________________________________________________________________________________________
conv2d_336 (Conv2D)             (None, 75, 75, 32)   2048        lambda_99[0][0]                  
__________________________________________________________________________________________________
max_pooling2d_324 (MaxPooling2D (None, 38, 38, 32)   0           conv2d_324[0][0]                 
__________________________________________________________________________________________________
max_pooling2d_327 (MaxPooling2D (None, 38, 38, 32)   0           conv2d_327[0][0]                 
__________________________________________________________________________________________________
max_pooling2d_330 (MaxPooling2D (None, 38, 38, 32)   0           conv2d_330[0][0]                 
__________________________________________________________________________________________________
max_pooling2d_333 (MaxPooling2D (None, 38, 38, 32)   0           conv2d_333[0][0]                 
__________________________________________________________________________________________________
max_pooling2d_336 (MaxPooling2D (None, 38, 38, 32)   0           conv2d_336[0][0]                 
__________________________________________________________________________________________________
conv2d_325 (Conv2D)             (None, 38, 38, 64)   18496       max_pooling2d_324[0][0]          
__________________________________________________________________________________________________
conv2d_328 (Conv2D)             (None, 38, 38, 64)   18496       max_pooling2d_327[0][0]          
__________________________________________________________________________________________________
conv2d_331 (Conv2D)             (None, 38, 38, 64)   18496       max_pooling2d_330[0][0]          
__________________________________________________________________________________________________
conv2d_334 (Conv2D)             (None, 38, 38, 64)   18496       max_pooling2d_333[0][0]          
__________________________________________________________________________________________________
conv2d_337 (Conv2D)             (None, 38, 38, 64)   18496       max_pooling2d_336[0][0]          
__________________________________________________________________________________________________
max_pooling2d_325 (MaxPooling2D (None, 19, 19, 64)   0           conv2d_325[0][0]                 
__________________________________________________________________________________________________
max_pooling2d_328 (MaxPooling2D (None, 19, 19, 64)   0           conv2d_328[0][0]                 
__________________________________________________________________________________________________
max_pooling2d_331 (MaxPooling2D (None, 19, 19, 64)   0           conv2d_331[0][0]                 
__________________________________________________________________________________________________
max_pooling2d_334 (MaxPooling2D (None, 19, 19, 64)   0           conv2d_334[0][0]                 
__________________________________________________________________________________________________
max_pooling2d_337 (MaxPooling2D (None, 19, 19, 64)   0           conv2d_337[0][0]                 
__________________________________________________________________________________________________
conv2d_326 (Conv2D)             (None, 19, 19, 128)  73856       max_pooling2d_325[0][0]          
__________________________________________________________________________________________________
conv2d_329 (Conv2D)             (None, 19, 19, 128)  73856       max_pooling2d_328[0][0]          
__________________________________________________________________________________________________
conv2d_332 (Conv2D)             (None, 19, 19, 128)  73856       max_pooling2d_331[0][0]          
__________________________________________________________________________________________________
conv2d_335 (Conv2D)             (None, 19, 19, 128)  73856       max_pooling2d_334[0][0]          
__________________________________________________________________________________________________
conv2d_338 (Conv2D)             (None, 19, 19, 128)  73856       max_pooling2d_337[0][0]          
__________________________________________________________________________________________________
max_pooling2d_326 (MaxPooling2D (None, 10, 10, 128)  0           conv2d_326[0][0]                 
__________________________________________________________________________________________________
max_pooling2d_329 (MaxPooling2D (None, 10, 10, 128)  0           conv2d_329[0][0]                 
__________________________________________________________________________________________________
max_pooling2d_332 (MaxPooling2D (None, 10, 10, 128)  0           conv2d_332[0][0]                 
__________________________________________________________________________________________________
max_pooling2d_335 (MaxPooling2D (None, 10, 10, 128)  0           conv2d_335[0][0]                 
__________________________________________________________________________________________________
max_pooling2d_338 (MaxPooling2D (None, 10, 10, 128)  0           conv2d_338[0][0]                 
__________________________________________________________________________________________________
concatenate_19 (Concatenate)    (None, 10, 10, 640)  0           max_pooling2d_326[0][0]          
                                                                 max_pooling2d_329[0][0]          
                                                                 max_pooling2d_332[0][0]          
                                                                 max_pooling2d_335[0][0]          
                                                                 max_pooling2d_338[0][0]          
__________________________________________________________________________________________________
flatten_779 (Flatten)           (None, 64000)        0           concatenate_19[0][0]             
__________________________________________________________________________________________________
dense_57 (Dense)                (None, 1024)         65537024    flatten_779[0][0]                
__________________________________________________________________________________________________
dropout_38 (Dropout)            (None, 1024)         0           dense_57[0][0]                   
__________________________________________________________________________________________________
dense_58 (Dense)                (None, 1024)         1049600     dropout_38[0][0]                 
__________________________________________________________________________________________________
dropout_39 (Dropout)            (None, 1024)         0           dense_58[0][0]                   
__________________________________________________________________________________________________
dense_59 (Dense)                (None, 5)            5125        dropout_39[0][0]                 
==================================================================================================
Total params: 67,072,997
Trainable params: 67,072,997
Non-trainable params: 0
__________________________________________________________________________________________________
start loading dataset ...
load "Big" complete
load "Long" complete
load "Mitotic" complete
…
           3       0.85      0.89      0.87        56
           4       1.00      0.27      0.42        56

    accuracy                           0.78       260
   macro avg       0.81      0.78      0.75       260
weighted avg       0.82      0.78      0.75       260

Model: "model_39"
__________________________________________________________________________________________________
Layer (type)                    Output Shape         Param #     Connected to                     
==================================================================================================
input_20 (InputLayer)           [(None, 150, 150, 7) 0                                            
__________________________________________________________________________________________________
lambda_95 (Lambda)              (None, 150, 150, 7)  0           input_20[0][0]                   
__________________________________________________________________________________________________
conv2d_323 (Conv2D)             (None, 150, 150, 32) 2048        lambda_95[0][0]                  
__________________________________________________________________________________________________
max_pooling2d_323 (MaxPooling2D (None, 75, 75, 32)   0           conv2d_323[0][0]                 
__________________________________________________________________________________________________
lambda_96 (Lambda)              (None, 75, 75, 7)    0           lambda_95[0][0]                  
__________________________________________________________________________________________________
lambda_97 (Lambda)              (None, 75, 75, 7)    0           lambda_95[0][0]                  
__________________________________________________________________________________________________
lambda_98 (Lambda)              (None, 75, 75, 7)    0           lambda_95[0][0]                  
__________________________________________________________________________________________________
lambda_99 (Lambda)              (None, 75, 75, 7)    0           lambda_95[0][0]                  
__________________________________________________________________________________________________
conv2d_324 (Conv2D)             (None, 75, 75, 32)   9248        max_pooling2d_323[0][0]          
__________________________________________________________________________________________________
conv2d_327 (Conv2D)             (None, 75, 75, 32)   2048        lambda_96[0][0]                  
__________________________________________________________________________________________________
conv2d_330 (Conv2D)             (None, 75, 75, 32)   2048        lambda_97[0][0]                  
__________________________________________________________________________________________________
conv2d_333 (Conv2D)             (None, 75, 75, 32)   2048        lambda_98[0][0]                  
__________________________________________________________________________________________________
conv2d_336 (Conv2D)             (None, 75, 75, 32)   2048        lambda_99[0][0]                  
__________________________________________________________________________________________________
max_pooling2d_324 (MaxPooling2D (None, 38, 38, 32)   0           conv2d_324[0][0]                 
__________________________________________________________________________________________________
max_pooling2d_327 (MaxPooling2D (None, 38, 38, 32)   0           conv2d_327[0][0]                 
__________________________________________________________________________________________________
max_pooling2d_330 (MaxPooling2D (None, 38, 38, 32)   0           conv2d_330[0][0]                 
__________________________________________________________________________________________________
max_pooling2d_333 (MaxPooling2D (None, 38, 38, 32)   0           conv2d_333[0][0]                 
__________________________________________________________________________________________________
max_pooling2d_336 (MaxPooling2D (None, 38, 38, 32)   0           conv2d_336[0][0]                 
__________________________________________________________________________________________________
conv2d_325 (Conv2D)             (None, 38, 38, 64)   18496       max_pooling2d_324[0][0]          
__________________________________________________________________________________________________
conv2d_328 (Conv2D)             (None, 38, 38, 64)   18496       max_pooling2d_327[0][0]          
__________________________________________________________________________________________________
conv2d_331 (Conv2D)             (None, 38, 38, 64)   18496       max_pooling2d_330[0][0]          
__________________________________________________________________________________________________
conv2d_334 (Conv2D)             (None, 38, 38, 64)   18496       max_pooling2d_333[0][0]          
__________________________________________________________________________________________________
conv2d_337 (Conv2D)             (None, 38, 38, 64)   18496       max_pooling2d_336[0][0]          
__________________________________________________________________________________________________
max_pooling2d_325 (MaxPooling2D (None, 19, 19, 64)   0           conv2d_325[0][0]                 
__________________________________________________________________________________________________
max_pooling2d_328 (MaxPooling2D (None, 19, 19, 64)   0           conv2d_328[0][0]                 
__________________________________________________________________________________________________
max_pooling2d_331 (MaxPooling2D (None, 19, 19, 64)   0           conv2d_331[0][0]                 
__________________________________________________________________________________________________
max_pooling2d_334 (MaxPooling2D (None, 19, 19, 64)   0           conv2d_334[0][0]                 
__________________________________________________________________________________________________
max_pooling2d_337 (MaxPooling2D (None, 19, 19, 64)   0           conv2d_337[0][0]                 
__________________________________________________________________________________________________
conv2d_326 (Conv2D)             (None, 19, 19, 128)  73856       max_pooling2d_325[0][0]          
__________________________________________________________________________________________________
conv2d_329 (Conv2D)             (None, 19, 19, 128)  73856       max_pooling2d_328[0][0]          
__________________________________________________________________________________________________
conv2d_332 (Conv2D)             (None, 19, 19, 128)  73856       max_pooling2d_331[0][0]          
__________________________________________________________________________________________________
conv2d_335 (Conv2D)             (None, 19, 19, 128)  73856       max_pooling2d_334[0][0]          
__________________________________________________________________________________________________
conv2d_338 (Conv2D)             (None, 19, 19, 128)  73856       max_pooling2d_337[0][0]          
__________________________________________________________________________________________________
max_pooling2d_326 (MaxPooling2D (None, 10, 10, 128)  0           conv2d_326[0][0]                 
__________________________________________________________________________________________________
max_pooling2d_329 (MaxPooling2D (None, 10, 10, 128)  0           conv2d_329[0][0]                 
__________________________________________________________________________________________________
max_pooling2d_332 (MaxPooling2D (None, 10, 10, 128)  0           conv2d_332[0][0]                 
__________________________________________________________________________________________________
max_pooling2d_335 (MaxPooling2D (None, 10, 10, 128)  0           conv2d_335[0][0]                 
__________________________________________________________________________________________________
max_pooling2d_338 (MaxPooling2D (None, 10, 10, 128)  0           conv2d_338[0][0]                 
__________________________________________________________________________________________________
concatenate_19 (Concatenate)    (None, 10, 10, 640)  0           max_pooling2d_326[0][0]          
                                                                 max_pooling2d_329[0][0]          
                                                                 max_pooling2d_332[0][0]          
                                                                 max_pooling2d_335[0][0]          
                                                                 max_pooling2d_338[0][0]          
__________________________________________________________________________________________________
flatten_779 (Flatten)           (None, 64000)        0           concatenate_19[0][0]             
==================================================================================================
Total params: 481,248
Trainable params: 481,248
Non-trainable params: 0
__________________________________________________________________________________________________
get cnn model
(1052, 64000)
[  0.        174.59846     0.        150.22966   148.04822   118.27004
…
