program start
seed set
[PhysicalDevice(name='/physical_device:GPU:0', device_type='GPU')]
Model: "model_40"
__________________________________________________________________________________________________
Layer (type)                    Output Shape         Param #     Connected to                     
==================================================================================================
input_21 (InputLayer)           [(None, 150, 150, 7) 0                                            
__________________________________________________________________________________________________
lambda_100 (Lambda)             (None, 150, 150, 7)  0           input_21[0][0]                   
__________________________________________________________________________________________________
conv2d_340 (Conv2D)             (None, 150, 150, 32) 2048        lambda_100[0][0]                 
__________________________________________________________________________________________________
max_pooling2d_340 (MaxPooling2D (None, 75, 75, 32)   0           conv2d_340[0][0]                 
__________________________________________________________________________________________________
lambda_101 (Lambda)             (None, 75, 75, 7)    0           lambda_100[0][0]                 
__________________________________________________________________________________________________
lambda_102 (Lambda)             (None, 75, 75, 7)    0           lambda_100[0][0]                 
__________________________________________________________________________________________________
lambda_103 (Lambda)             (None, 75, 75, 7)    0           lambda_100[0][0]                 
__________________________________________________________________________________________________
lambda_104 (Lambda)             (None, 75, 75, 7)    0           lambda_100[0][0]                 
__________________________________________________________________________________________________
conv2d_341 (Conv2D)             (None, 75, 75, 32)   9248        max_pooling2d_340[0][0]          
__________________________________________________________________________________________________
conv2d_344 (Conv2D)             (None, 75, 75, 32)   2048        lambda_101[0][0]                 
__________________________________________________________________________________________________
conv2d_347 (Conv2D)             (None, 75, 75, 32)   2048        lambda_102[0][0]                 
__________________________________________________________________________________________________
conv2d_350 (Conv2D)             (None, 75, 75, 32)   2048        lambda_103[0][0]                 
__________________________________________________________________________________________________
conv2d_353 (Conv2D)             (None, 75, 75, 32)   2048        lambda_104[0][0]                 
__________________________________________________________________________________________________
max_pooling2d_341 (MaxPooling2D (None, 38, 38, 32)   0           conv2d_341[0][0]                 
__________________________________________________________________________________________________
max_pooling2d_344 (MaxPooling2D (None, 38, 38, 32)   0           conv2d_344[0][0]                 
__________________________________________________________________________________________________
max_pooling2d_347 (MaxPooling2D (None, 38, 38, 32)   0           conv2d_347[0][0]                 
__________________________________________________________________________________________________
max_pooling2d_350 (MaxPooling2D (None, 38, 38, 32)   0           conv2d_350[0][0]                 
__________________________________________________________________________________________________
max_pooling2d_353 (MaxPooling2D (None, 38, 38, 32)   0           conv2d_353[0][0]                 
__________________________________________________________________________________________________
conv2d_342 (Conv2D)             (None, 38, 38, 64)   18496       max_pooling2d_341[0][0]          
__________________________________________________________________________________________________
conv2d_345 (Conv2D)             (None, 38, 38, 64)   18496       max_pooling2d_344[0][0]          
__________________________________________________________________________________________________
conv2d_348 (Conv2D)             (None, 38, 38, 64)   18496       max_pooling2d_347[0][0]          
__________________________________________________________________________________________________
conv2d_351 (Conv2D)             (None, 38, 38, 64)   18496       max_pooling2d_350[0][0]          
__________________________________________________________________________________________________
conv2d_354 (Conv2D)             (None, 38, 38, 64)   18496       max_pooling2d_353[0][0]          
__________________________________________________________________________________________________
max_pooling2d_342 (MaxPooling2D (None, 19, 19, 64)   0           conv2d_342[0][0]                 
__________________________________________________________________________________________________
max_pooling2d_345 (MaxPooling2D (None, 19, 19, 64)   0           conv2d_345[0][0]                 
__________________________________________________________________________________________________
max_pooling2d_348 (MaxPooling2D (None, 19, 19, 64)   0           conv2d_348[0][0]                 
__________________________________________________________________________________________________
max_pooling2d_351 (MaxPooling2D (None, 19, 19, 64)   0           conv2d_351[0][0]                 
__________________________________________________________________________________________________
max_pooling2d_354 (MaxPooling2D (None, 19, 19, 64)   0           conv2d_354[0][0]                 
__________________________________________________________________________________________________
conv2d_343 (Conv2D)             (None, 19, 19, 128)  73856       max_pooling2d_342[0][0]          
__________________________________________________________________________________________________
conv2d_346 (Conv2D)             (None, 19, 19, 128)  73856       max_pooling2d_345[0][0]          
__________________________________________________________________________________________________
conv2d_349 (Conv2D)             (None, 19, 19, 128)  73856       max_pooling2d_348[0][0]          
__________________________________________________________________________________________________
conv2d_352 (Conv2D)             (None, 19, 19, 128)  73856       max_pooling2d_351[0][0]          
__________________________________________________________________________________________________
conv2d_355 (Conv2D)             (None, 19, 19, 128)  73856       max_pooling2d_354[0][0]          
__________________________________________________________________________________________________
max_pooling2d_343 (MaxPooling2D (None, 10, 10, 128)  0           conv2d_343[0][0]                 
__________________________________________________________________________________________________
max_pooling2d_346 (MaxPooling2D (None, 10, 10, 128)  0           conv2d_346[0][0]                 
__________________________________________________________________________________________________
max_pooling2d_349 (MaxPooling2D (None, 10, 10, 128)  0           conv2d_349[0][0]                 
__________________________________________________________________________________________________
max_pooling2d_352 (MaxPooling2D (None, 10, 10, 128)  0           conv2d_352[0][0]                 
__________________________________________________________________________________________________
max_pooling2d_355 (MaxPooling2D (None, 10, 10, 128)  0           conv2d_355[0][0]                 
__________________________________________________________________________________________________
concatenate_20 (Concatenate)    (None, 10, 10, 640)  0           max_pooling2d_343[0][0]          
                                                                 max_pooling2d_346[0][0]          
                                                                 max_pooling2d_349[0][0]          
                                                                 max_pooling2d_352[0][0]          
                                                                 max_pooling2d_355[0][0]          
__________________________________________________________________________________________________
flatten_820 (Flatten)           (None, 64000)        0           concatenate_20[0][0]             
__________________________________________________________________________________________________
dense_60 (Dense)                (None, 1024)         65537024    flatten_820[0][0]                
__________________________________________________________________________________________________
dropout_40 (Dropout)            (None, 1024)         0           dense_60[0][0]                   
__________________________________________________________________________________________________
dense_61 (Dense)                (None, 1024)         1049600     dropout_40[0][0]                 
__________________________________________________________________________________________________
dropout_41 (Dropout)            (None, 1024)         0           dense_61[0][0]                   
__________________________________________________________________________________________________
dense_62 (Dense)                (None, 5)            5125        dropout_41[0][0]                 
==================================================================================================
Total params: 67,072,997
Trainable params: 67,072,997
Non-trainable params: 0
__________________________________________________________________________________________________
start loading dataset ...
load "Big" complete
load "Long" complete
load "Mitotic" complete
…
           3       0.88      0.93      0.90        56
           4       1.00      0.18      0.30        56

    accuracy                           0.79       260
   macro avg       0.84      0.81      0.75       260
weighted avg       0.86      0.79      0.75       260

Model: "model_41"
__________________________________________________________________________________________________
Layer (type)                    Output Shape         Param #     Connected to                     
==================================================================================================
input_21 (InputLayer)           [(None, 150, 150, 7) 0                                            
__________________________________________________________________________________________________
lambda_100 (Lambda)             (None, 150, 150, 7)  0           input_21[0][0]                   
__________________________________________________________________________________________________
conv2d_340 (Conv2D)             (None, 150, 150, 32) 2048        lambda_100[0][0]                 
__________________________________________________________________________________________________
max_pooling2d_340 (MaxPooling2D (None, 75, 75, 32)   0           conv2d_340[0][0]                 
__________________________________________________________________________________________________
lambda_101 (Lambda)             (None, 75, 75, 7)    0           lambda_100[0][0]                 
__________________________________________________________________________________________________
lambda_102 (Lambda)             (None, 75, 75, 7)    0           lambda_100[0][0]                 
__________________________________________________________________________________________________
lambda_103 (Lambda)             (None, 75, 75, 7)    0           lambda_100[0][0]                 
__________________________________________________________________________________________________
lambda_104 (Lambda)             (None, 75, 75, 7)    0           lambda_100[0][0]                 
__________________________________________________________________________________________________
conv2d_341 (Conv2D)             (None, 75, 75, 32)   9248        max_pooling2d_340[0][0]          
__________________________________________________________________________________________________
conv2d_344 (Conv2D)             (None, 75, 75, 32)   2048        lambda_101[0][0]                 
__________________________________________________________________________________________________
conv2d_347 (Conv2D)             (None, 75, 75, 32)   2048        lambda_102[0][0]                 
__________________________________________________________________________________________________
conv2d_350 (Conv2D)             (None, 75, 75, 32)   2048        lambda_103[0][0]                 
__________________________________________________________________________________________________
conv2d_353 (Conv2D)             (None, 75, 75, 32)   2048        lambda_104[0][0]                 
__________________________________________________________________________________________________
max_pooling2d_341 (MaxPooling2D (None, 38, 38, 32)   0           conv2d_341[0][0]                 
__________________________________________________________________________________________________
max_pooling2d_344 (MaxPooling2D (None, 38, 38, 32)   0           conv2d_344[0][0]                 
__________________________________________________________________________________________________
max_pooling2d_347 (MaxPooling2D (None, 38, 38, 32)   0           conv2d_347[0][0]                 
__________________________________________________________________________________________________
max_pooling2d_350 (MaxPooling2D (None, 38, 38, 32)   0           conv2d_350[0][0]                 
__________________________________________________________________________________________________
max_pooling2d_353 (MaxPooling2D (None, 38, 38, 32)   0           conv2d_353[0][0]                 
__________________________________________________________________________________________________
conv2d_342 (Conv2D)             (None, 38, 38, 64)   18496       max_pooling2d_341[0][0]          
__________________________________________________________________________________________________
conv2d_345 (Conv2D)             (None, 38, 38, 64)   18496       max_pooling2d_344[0][0]          
__________________________________________________________________________________________________
conv2d_348 (Conv2D)             (None, 38, 38, 64)   18496       max_pooling2d_347[0][0]          
__________________________________________________________________________________________________
conv2d_351 (Conv2D)             (None, 38, 38, 64)   18496       max_pooling2d_350[0][0]          
__________________________________________________________________________________________________
conv2d_354 (Conv2D)             (None, 38, 38, 64)   18496       max_pooling2d_353[0][0]          
__________________________________________________________________________________________________
max_pooling2d_342 (MaxPooling2D (None, 19, 19, 64)   0           conv2d_342[0][0]                 
__________________________________________________________________________________________________
max_pooling2d_345 (MaxPooling2D (None, 19, 19, 64)   0           conv2d_345[0][0]                 
__________________________________________________________________________________________________
max_pooling2d_348 (MaxPooling2D (None, 19, 19, 64)   0           conv2d_348[0][0]                 
__________________________________________________________________________________________________
max_pooling2d_351 (MaxPooling2D (None, 19, 19, 64)   0           conv2d_351[0][0]                 
__________________________________________________________________________________________________
max_pooling2d_354 (MaxPooling2D (None, 19, 19, 64)   0           conv2d_354[0][0]                 
__________________________________________________________________________________________________
conv2d_343 (Conv2D)             (None, 19, 19, 128)  73856       max_pooling2d_342[0][0]          
__________________________________________________________________________________________________
conv2d_346 (Conv2D)             (None, 19, 19, 128)  73856       max_pooling2d_345[0][0]          
__________________________________________________________________________________________________
conv2d_349 (Conv2D)             (None, 19, 19, 128)  73856       max_pooling2d_348[0][0]          
__________________________________________________________________________________________________
conv2d_352 (Conv2D)             (None, 19, 19, 128)  73856       max_pooling2d_351[0][0]          
__________________________________________________________________________________________________
conv2d_355 (Conv2D)             (None, 19, 19, 128)  73856       max_pooling2d_354[0][0]          
__________________________________________________________________________________________________
max_pooling2d_343 (MaxPooling2D (None, 10, 10, 128)  0           conv2d_343[0][0]                 
__________________________________________________________________________________________________
max_pooling2d_346 (MaxPooling2D (None, 10, 10, 128)  0           conv2d_346[0][0]                 
__________________________________________________________________________________________________
max_pooling2d_349 (MaxPooling2D (None, 10, 10, 128)  0           conv2d_349[0][0]                 
__________________________________________________________________________________________________
max_pooling2d_352 (MaxPooling2D (None, 10, 10, 128)  0           conv2d_352[0][0]                 
__________________________________________________________________________________________________
max_pooling2d_355 (MaxPooling2D (None, 10, 10, 128)  0           conv2d_355[0][0]                 
__________________________________________________________________________________________________
concatenate_20 (Concatenate)    (None, 10, 10, 640)  0           max_pooling2d_343[0][0]          
                                                                 max_pooling2d_346[0][0]          
                                                                 max_pooling2d_349[0][0]          
                                                                 max_pooling2d_352[0][0]          
                                                                 max_pooling2d_355[0][0]          
__________________________________________________________________________________________________
flatten_820 (Flatten)           (None, 64000)        0           concatenate_20[0][0]             
==================================================================================================
Total params: 481,248
Trainable params: 481,248
Non-trainable params: 0
__________________________________________________________________________________________________
get cnn model
(1052, 64000)
[227.32272    0.        24.416899 352.86945  105.96428    0.
…
