program start
seed set
[PhysicalDevice(name='/physical_device:GPU:0', device_type='GPU')]
Model: "model_42"
__________________________________________________________________________________________________
Layer (type)                    Output Shape         Param #     Connected to                     
==================================================================================================
input_22 (InputLayer)           [(None, 150, 150, 7) 0                                            
__________________________________________________________________________________________________
lambda_105 (Lambda)             (None, 150, 150, 7)  0           input_22[0][0]                   
__________________________________________________________________________________________________
conv2d_357 (Conv2D)             (None, 150, 150, 32) 2048        lambda_105[0][0]                 
__________________________________________________________________________________________________
max_pooling2d_357 (MaxPooling2D (None, 75, 75, 32)   0           conv2d_357[0][0]                 
__________________________________________________________________________________________________
lambda_106 (Lambda)             (None, 75, 75, 7)    0           lambda_105[0][0]                 
__________________________________________________________________________________________________
lambda_107 (Lambda)             (None, 75, 75, 7)    0           lambda_105[0][0]                 
__________________________________________________________________________________________________
lambda_108 (Lambda)             (None, 75, 75, 7)    0           lambda_105[0][0]                 
__________________________________________________________________________________________________
lambda_109 (Lambda)             (None, 75, 75, 7)    0           lambda_105[0][0]                 
__________________________________________________________________________________________________
conv2d_358 (Conv2D)             (None, 75, 75, 32)   9248        max_pooling2d_357[0][0]          
__________________________________________________________________________________________________
conv2d_361 (Conv2D)             (None, 75, 75, 32)   2048        lambda_106[0][0]                 
__________________________________________________________________________________________________
conv2d_364 (Conv2D)             (None, 75, 75, 32)   2048        lambda_107[0][0]                 
__________________________________________________________________________________________________
conv2d_367 (Conv2D)             (None, 75, 75, 32)   2048        lambda_108[0][0]                 
__________________________________________________________________________________________________
conv2d_370 (Conv2D)             (None, 75, 75, 32)   2048        lambda_109[0][0]                 
__________________________________________________________________________________________________
max_pooling2d_358 (MaxPooling2D (None, 38, 38, 32)   0           conv2d_358[0][0]                 
__________________________________________________________________________________________________
max_pooling2d_361 (MaxPooling2D (None, 38, 38, 32)   0           conv2d_361[0][0]                 
__________________________________________________________________________________________________
max_pooling2d_364 (MaxPooling2D (None, 38, 38, 32)   0           conv2d_364[0][0]                 
__________________________________________________________________________________________________
max_pooling2d_367 (MaxPooling2D (None, 38, 38, 32)   0           conv2d_367[0][0]                 
__________________________________________________________________________________________________
max_pooling2d_370 (MaxPooling2D (None, 38, 38, 32)   0           conv2d_370[0][0]                 
__________________________________________________________________________________________________
conv2d_359 (Conv2D)             (None, 38, 38, 64)   18496       max_pooling2d_358[0][0]          
__________________________________________________________________________________________________
conv2d_362 (Conv2D)             (None, 38, 38, 64)   18496       max_pooling2d_361[0][0]          
__________________________________________________________________________________________________
conv2d_365 (Conv2D)             (None, 38, 38, 64)   18496       max_pooling2d_364[0][0]          
__________________________________________________________________________________________________
conv2d_368 (Conv2D)             (None, 38, 38, 64)   18496       max_pooling2d_367[0][0]          
__________________________________________________________________________________________________
conv2d_371 (Conv2D)             (None, 38, 38, 64)   18496       max_pooling2d_370[0][0]          
__________________________________________________________________________________________________
max_pooling2d_359 (MaxPooling2D (None, 19, 19, 64)   0           conv2d_359[0][0]                 
__________________________________________________________________________________________________
max_pooling2d_362 (MaxPooling2D (None, 19, 19, 64)   0           conv2d_362[0][0]                 
__________________________________________________________________________________________________
max_pooling2d_365 (MaxPooling2D (None, 19, 19, 64)   0           conv2d_365[0][0]                 
__________________________________________________________________________________________________
max_pooling2d_368 (MaxPooling2D (None, 19, 19, 64)   0           conv2d_368[0][0]                 
__________________________________________________________________________________________________
max_pooling2d_371 (MaxPooling2D (None, 19, 19, 64)   0           conv2d_371[0][0]                 
__________________________________________________________________________________________________
conv2d_360 (Conv2D)             (None, 19, 19, 128)  73856       max_pooling2d_359[0][0]          
__________________________________________________________________________________________________
conv2d_363 (Conv2D)             (None, 19, 19, 128)  73856       max_pooling2d_362[0][0]          
__________________________________________________________________________________________________
conv2d_366 (Conv2D)             (None, 19, 19, 128)  73856       max_pooling2d_365[0][0]          
__________________________________________________________________________________________________
conv2d_369 (Conv2D)             (None, 19, 19, 128)  73856       max_pooling2d_368[0][0]          
__________________________________________________________________________________________________
conv2d_372 (Conv2D)             (None, 19, 19, 128)  73856       max_pooling2d_371[0][0]          
__________________________________________________________________________________________________
max_pooling2d_360 (MaxPooling2D (None, 10, 10, 128)  0           conv2d_360[0][0]                 
__________________________________________________________________________________________________
max_pooling2d_363 (MaxPooling2D (None, 10, 10, 128)  0           conv2d_363[0][0]                 
__________________________________________________________________________________________________
max_pooling2d_366 (MaxPooling2D (None, 10, 10, 128)  0           conv2d_366[0][0]                 
__________________________________________________________________________________________________
max_pooling2d_369 (MaxPooling2D (None, 10, 10, 128)  0           conv2d_369[0][0]                 
__________________________________________________________________________________________________
max_pooling2d_372 (MaxPooling2D (None, 10, 10, 128)  0           conv2d_372[0][0]                 
__________________________________________________________________________________________________
concatenate_21 (Concatenate)    (None, 10, 10, 640)  0           max_pooling2d_360[0][0]          
                                                                 max_pooling2d_363[0][0]          
                                                                 max_pooling2d_366[0][0]          
                                                                 max_pooling2d_369[0][0]          
                                                                 max_pooling2d_372[0][0]          
__________________________________________________________________________________________________
flatten_861 (Flatten)           (None, 64000)        0           concatenate_21[0][0]             
__________________________________________________________________________________________________
dense_63 (Dense)                (None, 1024)         65537024    flatten_861[0][0]                
__________________________________________________________________________________________________
dropout_42 (Dropout)            (None, 1024)         0           dense_63[0][0]                   
__________________________________________________________________________________________________
dense_64 (Dense)                (None, 1024)         1049600     dropout_42[0][0]                 
__________________________________________________________________________________________________
dropout_43 (Dropout)            (None, 1024)         0           dense_64[0][0]                   
__________________________________________________________________________________________________
dense_65 (Dense)                (None, 5)            5125        dropout_43[0][0]                 
==================================================================================================
Total params: 67,072,997
Trainable params: 67,072,997
Non-trainable params: 0
__________________________________________________________________________________________________
start loading dataset ...
load "Big" complete
load "Long" complete
load "Mitotic" complete
…
avg': {'precision': 0.7905170448866974, 'recall': 0.7349967384213959, 'f1-score': 0.6522725248441537, 'support': 260.0}, 'weighted avg': {'precision': 0.8179759926679857, 'recall': 0.7192307692307692, 'f1-score': 0.6549296670092137, 'support': 260.0}}
Model: "model_43"
__________________________________________________________________________________________________
Layer (type)                    Output Shape         Param #     Connected to                     
==================================================================================================
input_22 (InputLayer)           [(None, 150, 150, 7) 0                                            
__________________________________________________________________________________________________
lambda_105 (Lambda)             (None, 150, 150, 7)  0           input_22[0][0]                   
__________________________________________________________________________________________________
conv2d_357 (Conv2D)             (None, 150, 150, 32) 2048        lambda_105[0][0]                 
__________________________________________________________________________________________________
max_pooling2d_357 (MaxPooling2D (None, 75, 75, 32)   0           conv2d_357[0][0]                 
__________________________________________________________________________________________________
lambda_106 (Lambda)             (None, 75, 75, 7)    0           lambda_105[0][0]                 
__________________________________________________________________________________________________
lambda_107 (Lambda)             (None, 75, 75, 7)    0           lambda_105[0][0]                 
__________________________________________________________________________________________________
lambda_108 (Lambda)             (None, 75, 75, 7)    0           lambda_105[0][0]                 
__________________________________________________________________________________________________
lambda_109 (Lambda)             (None, 75, 75, 7)    0           lambda_105[0][0]                 
__________________________________________________________________________________________________
conv2d_358 (Conv2D)             (None, 75, 75, 32)   9248        max_pooling2d_357[0][0]          
__________________________________________________________________________________________________
conv2d_361 (Conv2D)             (None, 75, 75, 32)   2048        lambda_106[0][0]                 
__________________________________________________________________________________________________
conv2d_364 (Conv2D)             (None, 75, 75, 32)   2048        lambda_107[0][0]                 
__________________________________________________________________________________________________
conv2d_367 (Conv2D)             (None, 75, 75, 32)   2048        lambda_108[0][0]                 
__________________________________________________________________________________________________
conv2d_370 (Conv2D)             (None, 75, 75, 32)   2048        lambda_109[0][0]                 
__________________________________________________________________________________________________
max_pooling2d_358 (MaxPooling2D (None, 38, 38, 32)   0           conv2d_358[0][0]                 
__________________________________________________________________________________________________
max_pooling2d_361 (MaxPooling2D (None, 38, 38, 32)   0           conv2d_361[0][0]                 
__________________________________________________________________________________________________
max_pooling2d_364 (MaxPooling2D (None, 38, 38, 32)   0           conv2d_364[0][0]                 
__________________________________________________________________________________________________
max_pooling2d_367 (MaxPooling2D (None, 38, 38, 32)   0           conv2d_367[0][0]                 
__________________________________________________________________________________________________
max_pooling2d_370 (MaxPooling2D (None, 38, 38, 32)   0           conv2d_370[0][0]                 
__________________________________________________________________________________________________
conv2d_359 (Conv2D)             (None, 38, 38, 64)   18496       max_pooling2d_358[0][0]          
__________________________________________________________________________________________________
conv2d_362 (Conv2D)             (None, 38, 38, 64)   18496       max_pooling2d_361[0][0]          
__________________________________________________________________________________________________
conv2d_365 (Conv2D)             (None, 38, 38, 64)   18496       max_pooling2d_364[0][0]          
__________________________________________________________________________________________________
conv2d_368 (Conv2D)             (None, 38, 38, 64)   18496       max_pooling2d_367[0][0]          
__________________________________________________________________________________________________
conv2d_371 (Conv2D)             (None, 38, 38, 64)   18496       max_pooling2d_370[0][0]          
__________________________________________________________________________________________________
max_pooling2d_359 (MaxPooling2D (None, 19, 19, 64)   0           conv2d_359[0][0]                 
__________________________________________________________________________________________________
max_pooling2d_362 (MaxPooling2D (None, 19, 19, 64)   0           conv2d_362[0][0]                 
__________________________________________________________________________________________________
max_pooling2d_365 (MaxPooling2D (None, 19, 19, 64)   0           conv2d_365[0][0]                 
__________________________________________________________________________________________________
max_pooling2d_368 (MaxPooling2D (None, 19, 19, 64)   0           conv2d_368[0][0]                 
__________________________________________________________________________________________________
max_pooling2d_371 (MaxPooling2D (None, 19, 19, 64)   0           conv2d_371[0][0]                 
__________________________________________________________________________________________________
conv2d_360 (Conv2D)             (None, 19, 19, 128)  73856       max_pooling2d_359[0][0]          
__________________________________________________________________________________________________
conv2d_363 (Conv2D)             (None, 19, 19, 128)  73856       max_pooling2d_362[0][0]          
__________________________________________________________________________________________________
conv2d_366 (Conv2D)             (None, 19, 19, 128)  73856       max_pooling2d_365[0][0]          
__________________________________________________________________________________________________
conv2d_369 (Conv2D)             (None, 19, 19, 128)  73856       max_pooling2d_368[0][0]          
__________________________________________________________________________________________________
conv2d_372 (Conv2D)             (None, 19, 19, 128)  73856       max_pooling2d_371[0][0]          
__________________________________________________________________________________________________
max_pooling2d_360 (MaxPooling2D (None, 10, 10, 128)  0           conv2d_360[0][0]                 
__________________________________________________________________________________________________
max_pooling2d_363 (MaxPooling2D (None, 10, 10, 128)  0           conv2d_363[0][0]                 
__________________________________________________________________________________________________
max_pooling2d_366 (MaxPooling2D (None, 10, 10, 128)  0           conv2d_366[0][0]                 
__________________________________________________________________________________________________
max_pooling2d_369 (MaxPooling2D (None, 10, 10, 128)  0           conv2d_369[0][0]                 
__________________________________________________________________________________________________
max_pooling2d_372 (MaxPooling2D (None, 10, 10, 128)  0           conv2d_372[0][0]                 
__________________________________________________________________________________________________
concatenate_21 (Concatenate)    (None, 10, 10, 640)  0           max_pooling2d_360[0][0]          
                                                                 max_pooling2d_363[0][0]          
                                                                 max_pooling2d_366[0][0]          
                                                                 max_pooling2d_369[0][0]          
                                                                 max_pooling2d_372[0][0]          
__________________________________________________________________________________________________
flatten_861 (Flatten)           (None, 64000)        0           concatenate_21[0][0]             
==================================================================================================
Total params: 481,248
Trainable params: 481,248
Non-trainable params: 0
__________________________________________________________________________________________________
get cnn model
(1052, 64000)
[381.3529   147.8415     0.         5.179478 534.93066   55.80616
…
