program start
seed set
[PhysicalDevice(name='/physical_device:GPU:0', device_type='GPU')]
Model: "model_44"
__________________________________________________________________________________________________
Layer (type)                    Output Shape         Param #     Connected to                     
==================================================================================================
input_23 (InputLayer)           [(None, 150, 150, 7) 0                                            
__________________________________________________________________________________________________
lambda_110 (Lambda)             (None, 150, 150, 7)  0           input_23[0][0]                   
__________________________________________________________________________________________________
conv2d_374 (Conv2D)             (None, 150, 150, 32) 2048        lambda_110[0][0]                 
__________________________________________________________________________________________________
max_pooling2d_374 (MaxPooling2D (None, 75, 75, 32)   0           conv2d_374[0][0]                 
__________________________________________________________________________________________________
lambda_111 (Lambda)             (None, 75, 75, 7)    0           lambda_110[0][0]                 
__________________________________________________________________________________________________
lambda_112 (Lambda)             (None, 75, 75, 7)    0           lambda_110[0][0]                 
__________________________________________________________________________________________________
lambda_113 (Lambda)             (None, 75, 75, 7)    0           lambda_110[0][0]                 
__________________________________________________________________________________________________
lambda_114 (Lambda)             (None, 75, 75, 7)    0           lambda_110[0][0]                 
__________________________________________________________________________________________________
conv2d_375 (Conv2D)             (None, 75, 75, 32)   9248        max_pooling2d_374[0][0]          
__________________________________________________________________________________________________
conv2d_378 (Conv2D)             (None, 75, 75, 32)   2048        lambda_111[0][0]                 
__________________________________________________________________________________________________
conv2d_381 (Conv2D)             (None, 75, 75, 32)   2048        lambda_112[0][0]                 
__________________________________________________________________________________________________
conv2d_384 (Conv2D)             (None, 75, 75, 32)   2048        lambda_113[0][0]                 
__________________________________________________________________________________________________
conv2d_387 (Conv2D)             (None, 75, 75, 32)   2048        lambda_114[0][0]                 
__________________________________________________________________________________________________
max_pooling2d_375 (MaxPooling2D (None, 38, 38, 32)   0           conv2d_375[0][0]                 
__________________________________________________________________________________________________
max_pooling2d_378 (MaxPooling2D (None, 38, 38, 32)   0           conv2d_378[0][0]                 
__________________________________________________________________________________________________
max_pooling2d_381 (MaxPooling2D (None, 38, 38, 32)   0           conv2d_381[0][0]                 
__________________________________________________________________________________________________
max_pooling2d_384 (MaxPooling2D (None, 38, 38, 32)   0           conv2d_384[0][0]                 
__________________________________________________________________________________________________
max_pooling2d_387 (MaxPooling2D (None, 38, 38, 32)   0           conv2d_387[0][0]                 
__________________________________________________________________________________________________
conv2d_376 (Conv2D)             (None, 38, 38, 64)   18496       max_pooling2d_375[0][0]          
__________________________________________________________________________________________________
conv2d_379 (Conv2D)             (None, 38, 38, 64)   18496       max_pooling2d_378[0][0]          
__________________________________________________________________________________________________
conv2d_382 (Conv2D)             (None, 38, 38, 64)   18496       max_pooling2d_381[0][0]          
__________________________________________________________________________________________________
conv2d_385 (Conv2D)             (None, 38, 38, 64)   18496       max_pooling2d_384[0][0]          
__________________________________________________________________________________________________
conv2d_388 (Conv2D)             (None, 38, 38, 64)   18496       max_pooling2d_387[0][0]          
__________________________________________________________________________________________________
max_pooling2d_376 (MaxPooling2D (None, 19, 19, 64)   0           conv2d_376[0][0]                 
__________________________________________________________________________________________________
max_pooling2d_379 (MaxPooling2D (None, 19, 19, 64)   0           conv2d_379[0][0]                 
__________________________________________________________________________________________________
max_pooling2d_382 (MaxPooling2D (None, 19, 19, 64)   0           conv2d_382[0][0]                 
__________________________________________________________________________________________________
max_pooling2d_385 (MaxPooling2D (None, 19, 19, 64)   0           conv2d_385[0][0]                 
__________________________________________________________________________________________________
max_pooling2d_388 (MaxPooling2D (None, 19, 19, 64)   0           conv2d_388[0][0]                 
__________________________________________________________________________________________________
conv2d_377 (Conv2D)             (None, 19, 19, 128)  73856       max_pooling2d_376[0][0]          
__________________________________________________________________________________________________
conv2d_380 (Conv2D)             (None, 19, 19, 128)  73856       max_pooling2d_379[0][0]          
__________________________________________________________________________________________________
conv2d_383 (Conv2D)             (None, 19, 19, 128)  73856       max_pooling2d_382[0][0]          
__________________________________________________________________________________________________
conv2d_386 (Conv2D)             (None, 19, 19, 128)  73856       max_pooling2d_385[0][0]          
__________________________________________________________________________________________________
conv2d_389 (Conv2D)             (None, 19, 19, 128)  73856       max_pooling2d_388[0][0]          
__________________________________________________________________________________________________
max_pooling2d_377 (MaxPooling2D (None, 10, 10, 128)  0           conv2d_377[0][0]                 
__________________________________________________________________________________________________
max_pooling2d_380 (MaxPooling2D (None, 10, 10, 128)  0           conv2d_380[0][0]                 
__________________________________________________________________________________________________
max_pooling2d_383 (MaxPooling2D (None, 10, 10, 128)  0           conv2d_383[0][0]                 
__________________________________________________________________________________________________
max_pooling2d_386 (MaxPooling2D (None, 10, 10, 128)  0           conv2d_386[0][0]                 
__________________________________________________________________________________________________
max_pooling2d_389 (MaxPooling2D (None, 10, 10, 128)  0           conv2d_389[0][0]                 
__________________________________________________________________________________________________
concatenate_22 (Concatenate)    (None, 10, 10, 640)  0           max_pooling2d_377[0][0]          
                                                                 max_pooling2d_380[0][0]          
                                                                 max_pooling2d_383[0][0]          
                                                                 max_pooling2d_386[0][0]          
                                                                 max_pooling2d_389[0][0]          
__________________________________________________________________________________________________
flatten_902 (Flatten)           (None, 64000)        0           concatenate_22[0][0]             
__________________________________________________________________________________________________
dense_66 (Dense)                (None, 1024)         65537024    flatten_902[0][0]                
__________________________________________________________________________________________________
dropout_44 (Dropout)            (None, 1024)         0           dense_66[0][0]                   
__________________________________________________________________________________________________
dense_67 (Dense)                (None, 1024)         1049600     dropout_44[0][0]                 
__________________________________________________________________________________________________
dropout_45 (Dropout)            (None, 1024)         0           dense_67[0][0]                   
__________________________________________________________________________________________________
dense_68 (Dense)                (None, 5)            5125        dropout_45[0][0]                 
==================================================================================================
Total params: 67,072,997
Trainable params: 67,072,997
Non-trainable params: 0
__________________________________________________________________________________________________
start loading dataset ...
load "Big" complete
load "Long" complete
load "Mitotic" complete
…
avg': {'precision': 0.8030872935625212, 'recall': 0.7528538812785388, 'f1-score': 0.6718826650743243, 'support': 260.0}, 'weighted avg': {'precision': 0.8270486894298826, 'recall': 0.7346153846153847, 'f1-score': 0.6717987301058722, 'support': 260.0}}
Model: "model_45"
__________________________________________________________________________________________________
Layer (type)                    Output Shape         Param #     Connected to                     
==================================================================================================
input_23 (InputLayer)           [(None, 150, 150, 7) 0                                            
__________________________________________________________________________________________________
lambda_110 (Lambda)             (None, 150, 150, 7)  0           input_23[0][0]                   
__________________________________________________________________________________________________
conv2d_374 (Conv2D)             (None, 150, 150, 32) 2048        lambda_110[0][0]                 
__________________________________________________________________________________________________
max_pooling2d_374 (MaxPooling2D (None, 75, 75, 32)   0           conv2d_374[0][0]                 
__________________________________________________________________________________________________
lambda_111 (Lambda)             (None, 75, 75, 7)    0           lambda_110[0][0]                 
__________________________________________________________________________________________________
lambda_112 (Lambda)             (None, 75, 75, 7)    0           lambda_110[0][0]                 
__________________________________________________________________________________________________
lambda_113 (Lambda)             (None, 75, 75, 7)    0           lambda_110[0][0]                 
__________________________________________________________________________________________________
lambda_114 (Lambda)             (None, 75, 75, 7)    0           lambda_110[0][0]                 
__________________________________________________________________________________________________
conv2d_375 (Conv2D)             (None, 75, 75, 32)   9248        max_pooling2d_374[0][0]          
__________________________________________________________________________________________________
conv2d_378 (Conv2D)             (None, 75, 75, 32)   2048        lambda_111[0][0]                 
__________________________________________________________________________________________________
conv2d_381 (Conv2D)             (None, 75, 75, 32)   2048        lambda_112[0][0]                 
__________________________________________________________________________________________________
conv2d_384 (Conv2D)             (None, 75, 75, 32)   2048        lambda_113[0][0]                 
__________________________________________________________________________________________________
conv2d_387 (Conv2D)             (None, 75, 75, 32)   2048        lambda_114[0][0]                 
__________________________________________________________________________________________________
max_pooling2d_375 (MaxPooling2D (None, 38, 38, 32)   0           conv2d_375[0][0]                 
__________________________________________________________________________________________________
max_pooling2d_378 (MaxPooling2D (None, 38, 38, 32)   0           conv2d_378[0][0]                 
__________________________________________________________________________________________________
max_pooling2d_381 (MaxPooling2D (None, 38, 38, 32)   0           conv2d_381[0][0]                 
__________________________________________________________________________________________________
max_pooling2d_384 (MaxPooling2D (None, 38, 38, 32)   0           conv2d_384[0][0]                 
__________________________________________________________________________________________________
max_pooling2d_387 (MaxPooling2D (None, 38, 38, 32)   0           conv2d_387[0][0]                 
__________________________________________________________________________________________________
conv2d_376 (Conv2D)             (None, 38, 38, 64)   18496       max_pooling2d_375[0][0]          
__________________________________________________________________________________________________
conv2d_379 (Conv2D)             (None, 38, 38, 64)   18496       max_pooling2d_378[0][0]          
__________________________________________________________________________________________________
conv2d_382 (Conv2D)             (None, 38, 38, 64)   18496       max_pooling2d_381[0][0]          
__________________________________________________________________________________________________
conv2d_385 (Conv2D)             (None, 38, 38, 64)   18496       max_pooling2d_384[0][0]          
__________________________________________________________________________________________________
conv2d_388 (Conv2D)             (None, 38, 38, 64)   18496       max_pooling2d_387[0][0]          
__________________________________________________________________________________________________
max_pooling2d_376 (MaxPooling2D (None, 19, 19, 64)   0           conv2d_376[0][0]                 
__________________________________________________________________________________________________
max_pooling2d_379 (MaxPooling2D (None, 19, 19, 64)   0           conv2d_379[0][0]                 
__________________________________________________________________________________________________
max_pooling2d_382 (MaxPooling2D (None, 19, 19, 64)   0           conv2d_382[0][0]                 
__________________________________________________________________________________________________
max_pooling2d_385 (MaxPooling2D (None, 19, 19, 64)   0           conv2d_385[0][0]                 
__________________________________________________________________________________________________
max_pooling2d_388 (MaxPooling2D (None, 19, 19, 64)   0           conv2d_388[0][0]                 
__________________________________________________________________________________________________
conv2d_377 (Conv2D)             (None, 19, 19, 128)  73856       max_pooling2d_376[0][0]          
__________________________________________________________________________________________________
conv2d_380 (Conv2D)             (None, 19, 19, 128)  73856       max_pooling2d_379[0][0]          
__________________________________________________________________________________________________
conv2d_383 (Conv2D)             (None, 19, 19, 128)  73856       max_pooling2d_382[0][0]          
__________________________________________________________________________________________________
conv2d_386 (Conv2D)             (None, 19, 19, 128)  73856       max_pooling2d_385[0][0]          
__________________________________________________________________________________________________
conv2d_389 (Conv2D)             (None, 19, 19, 128)  73856       max_pooling2d_388[0][0]          
__________________________________________________________________________________________________
max_pooling2d_377 (MaxPooling2D (None, 10, 10, 128)  0           conv2d_377[0][0]                 
__________________________________________________________________________________________________
max_pooling2d_380 (MaxPooling2D (None, 10, 10, 128)  0           conv2d_380[0][0]                 
__________________________________________________________________________________________________
max_pooling2d_383 (MaxPooling2D (None, 10, 10, 128)  0           conv2d_383[0][0]                 
__________________________________________________________________________________________________
max_pooling2d_386 (MaxPooling2D (None, 10, 10, 128)  0           conv2d_386[0][0]                 
__________________________________________________________________________________________________
max_pooling2d_389 (MaxPooling2D (None, 10, 10, 128)  0           conv2d_389[0][0]                 
__________________________________________________________________________________________________
concatenate_22 (Concatenate)    (None, 10, 10, 640)  0           max_pooling2d_377[0][0]          
                                                                 max_pooling2d_380[0][0]          
                                                                 max_pooling2d_383[0][0]          
                                                                 max_pooling2d_386[0][0]          
                                                                 max_pooling2d_389[0][0]          
__________________________________________________________________________________________________
flatten_902 (Flatten)           (None, 64000)        0           concatenate_22[0][0]             
==================================================================================================
Total params: 481,248
Trainable params: 481,248
Non-trainable params: 0
__________________________________________________________________________________________________
get cnn model
(1052, 64000)
[299.37436    0.        24.292688   0.       520.77594  291.17563
…
