program start
seed set
[PhysicalDevice(name='/physical_device:GPU:0', device_type='GPU')]
Model: "model_52"
__________________________________________________________________________________________________
Layer (type)                    Output Shape         Param #     Connected to                     
==================================================================================================
input_27 (InputLayer)           [(None, 150, 150, 7) 0                                            
__________________________________________________________________________________________________
lambda_130 (Lambda)             (None, 150, 150, 7)  0           input_27[0][0]                   
__________________________________________________________________________________________________
conv2d_442 (Conv2D)             (None, 150, 150, 32) 2048        lambda_130[0][0]                 
__________________________________________________________________________________________________
max_pooling2d_442 (MaxPooling2D (None, 75, 75, 32)   0           conv2d_442[0][0]                 
__________________________________________________________________________________________________
lambda_131 (Lambda)             (None, 75, 75, 7)    0           lambda_130[0][0]                 
__________________________________________________________________________________________________
lambda_132 (Lambda)             (None, 75, 75, 7)    0           lambda_130[0][0]                 
__________________________________________________________________________________________________
lambda_133 (Lambda)             (None, 75, 75, 7)    0           lambda_130[0][0]                 
__________________________________________________________________________________________________
lambda_134 (Lambda)             (None, 75, 75, 7)    0           lambda_130[0][0]                 
__________________________________________________________________________________________________
conv2d_443 (Conv2D)             (None, 75, 75, 32)   9248        max_pooling2d_442[0][0]          
__________________________________________________________________________________________________
conv2d_446 (Conv2D)             (None, 75, 75, 32)   2048        lambda_131[0][0]                 
__________________________________________________________________________________________________
conv2d_449 (Conv2D)             (None, 75, 75, 32)   2048        lambda_132[0][0]                 
__________________________________________________________________________________________________
conv2d_452 (Conv2D)             (None, 75, 75, 32)   2048        lambda_133[0][0]                 
__________________________________________________________________________________________________
conv2d_455 (Conv2D)             (None, 75, 75, 32)   2048        lambda_134[0][0]                 
__________________________________________________________________________________________________
max_pooling2d_443 (MaxPooling2D (None, 38, 38, 32)   0           conv2d_443[0][0]                 
__________________________________________________________________________________________________
max_pooling2d_446 (MaxPooling2D (None, 38, 38, 32)   0           conv2d_446[0][0]                 
__________________________________________________________________________________________________
max_pooling2d_449 (MaxPooling2D (None, 38, 38, 32)   0           conv2d_449[0][0]                 
__________________________________________________________________________________________________
max_pooling2d_452 (MaxPooling2D (None, 38, 38, 32)   0           conv2d_452[0][0]                 
__________________________________________________________________________________________________
max_pooling2d_455 (MaxPooling2D (None, 38, 38, 32)   0           conv2d_455[0][0]                 
__________________________________________________________________________________________________
conv2d_444 (Conv2D)             (None, 38, 38, 64)   18496       max_pooling2d_443[0][0]          
__________________________________________________________________________________________________
conv2d_447 (Conv2D)             (None, 38, 38, 64)   18496       max_pooling2d_446[0][0]          
__________________________________________________________________________________________________
conv2d_450 (Conv2D)             (None, 38, 38, 64)   18496       max_pooling2d_449[0][0]          
__________________________________________________________________________________________________
conv2d_453 (Conv2D)             (None, 38, 38, 64)   18496       max_pooling2d_452[0][0]          
__________________________________________________________________________________________________
conv2d_456 (Conv2D)             (None, 38, 38, 64)   18496       max_pooling2d_455[0][0]          
__________________________________________________________________________________________________
max_pooling2d_444 (MaxPooling2D (None, 19, 19, 64)   0           conv2d_444[0][0]                 
__________________________________________________________________________________________________
max_pooling2d_447 (MaxPooling2D (None, 19, 19, 64)   0           conv2d_447[0][0]                 
__________________________________________________________________________________________________
max_pooling2d_450 (MaxPooling2D (None, 19, 19, 64)   0           conv2d_450[0][0]                 
__________________________________________________________________________________________________
max_pooling2d_453 (MaxPooling2D (None, 19, 19, 64)   0           conv2d_453[0][0]                 
__________________________________________________________________________________________________
max_pooling2d_456 (MaxPooling2D (None, 19, 19, 64)   0           conv2d_456[0][0]                 
__________________________________________________________________________________________________
conv2d_445 (Conv2D)             (None, 19, 19, 128)  73856       max_pooling2d_444[0][0]          
__________________________________________________________________________________________________
conv2d_448 (Conv2D)             (None, 19, 19, 128)  73856       max_pooling2d_447[0][0]          
__________________________________________________________________________________________________
conv2d_451 (Conv2D)             (None, 19, 19, 128)  73856       max_pooling2d_450[0][0]          
__________________________________________________________________________________________________
conv2d_454 (Conv2D)             (None, 19, 19, 128)  73856       max_pooling2d_453[0][0]          
__________________________________________________________________________________________________
conv2d_457 (Conv2D)             (None, 19, 19, 128)  73856       max_pooling2d_456[0][0]          
__________________________________________________________________________________________________
max_pooling2d_445 (MaxPooling2D (None, 10, 10, 128)  0           conv2d_445[0][0]                 
__________________________________________________________________________________________________
max_pooling2d_448 (MaxPooling2D (None, 10, 10, 128)  0           conv2d_448[0][0]                 
__________________________________________________________________________________________________
max_pooling2d_451 (MaxPooling2D (None, 10, 10, 128)  0           conv2d_451[0][0]                 
__________________________________________________________________________________________________
max_pooling2d_454 (MaxPooling2D (None, 10, 10, 128)  0           conv2d_454[0][0]                 
__________________________________________________________________________________________________
max_pooling2d_457 (MaxPooling2D (None, 10, 10, 128)  0           conv2d_457[0][0]                 
__________________________________________________________________________________________________
concatenate_26 (Concatenate)    (None, 10, 10, 640)  0           max_pooling2d_445[0][0]          
                                                                 max_pooling2d_448[0][0]          
                                                                 max_pooling2d_451[0][0]          
                                                                 max_pooling2d_454[0][0]          
                                                                 max_pooling2d_457[0][0]          
__________________________________________________________________________________________________
flatten_1066 (Flatten)          (None, 64000)        0           concatenate_26[0][0]             
__________________________________________________________________________________________________
dense_78 (Dense)                (None, 1024)         65537024    flatten_1066[0][0]               
__________________________________________________________________________________________________
dropout_52 (Dropout)            (None, 1024)         0           dense_78[0][0]                   
__________________________________________________________________________________________________
dense_79 (Dense)                (None, 1024)         1049600     dropout_52[0][0]                 
__________________________________________________________________________________________________
dropout_53 (Dropout)            (None, 1024)         0           dense_79[0][0]                   
__________________________________________________________________________________________________
dense_80 (Dense)                (None, 5)            5125        dropout_53[0][0]                 
==================================================================================================
Total params: 67,072,997
Trainable params: 67,072,997
Non-trainable params: 0
__________________________________________________________________________________________________
start loading dataset ...
load "Big" complete
load "Long" complete
load "Mitotic" complete
…
avg': {'precision': 0.8204967511879369, 'recall': 0.7036114570361146, 'f1-score': 0.6576558449772871, 'support': 260.0}, 'weighted avg': {'precision': 0.8301388529035961, 'recall': 0.7230769230769231, 'f1-score': 0.6740987531127949, 'support': 260.0}}
Model: "model_53"
__________________________________________________________________________________________________
Layer (type)                    Output Shape         Param #     Connected to                     
==================================================================================================
input_27 (InputLayer)           [(None, 150, 150, 7) 0                                            
__________________________________________________________________________________________________
lambda_130 (Lambda)             (None, 150, 150, 7)  0           input_27[0][0]                   
__________________________________________________________________________________________________
conv2d_442 (Conv2D)             (None, 150, 150, 32) 2048        lambda_130[0][0]                 
__________________________________________________________________________________________________
max_pooling2d_442 (MaxPooling2D (None, 75, 75, 32)   0           conv2d_442[0][0]                 
__________________________________________________________________________________________________
lambda_131 (Lambda)             (None, 75, 75, 7)    0           lambda_130[0][0]                 
__________________________________________________________________________________________________
lambda_132 (Lambda)             (None, 75, 75, 7)    0           lambda_130[0][0]                 
__________________________________________________________________________________________________
lambda_133 (Lambda)             (None, 75, 75, 7)    0           lambda_130[0][0]                 
__________________________________________________________________________________________________
lambda_134 (Lambda)             (None, 75, 75, 7)    0           lambda_130[0][0]                 
__________________________________________________________________________________________________
conv2d_443 (Conv2D)             (None, 75, 75, 32)   9248        max_pooling2d_442[0][0]          
__________________________________________________________________________________________________
conv2d_446 (Conv2D)             (None, 75, 75, 32)   2048        lambda_131[0][0]                 
__________________________________________________________________________________________________
conv2d_449 (Conv2D)             (None, 75, 75, 32)   2048        lambda_132[0][0]                 
__________________________________________________________________________________________________
conv2d_452 (Conv2D)             (None, 75, 75, 32)   2048        lambda_133[0][0]                 
__________________________________________________________________________________________________
conv2d_455 (Conv2D)             (None, 75, 75, 32)   2048        lambda_134[0][0]                 
__________________________________________________________________________________________________
max_pooling2d_443 (MaxPooling2D (None, 38, 38, 32)   0           conv2d_443[0][0]                 
__________________________________________________________________________________________________
max_pooling2d_446 (MaxPooling2D (None, 38, 38, 32)   0           conv2d_446[0][0]                 
__________________________________________________________________________________________________
max_pooling2d_449 (MaxPooling2D (None, 38, 38, 32)   0           conv2d_449[0][0]                 
__________________________________________________________________________________________________
max_pooling2d_452 (MaxPooling2D (None, 38, 38, 32)   0           conv2d_452[0][0]                 
__________________________________________________________________________________________________
max_pooling2d_455 (MaxPooling2D (None, 38, 38, 32)   0           conv2d_455[0][0]                 
__________________________________________________________________________________________________
conv2d_444 (Conv2D)             (None, 38, 38, 64)   18496       max_pooling2d_443[0][0]          
__________________________________________________________________________________________________
conv2d_447 (Conv2D)             (None, 38, 38, 64)   18496       max_pooling2d_446[0][0]          
__________________________________________________________________________________________________
conv2d_450 (Conv2D)             (None, 38, 38, 64)   18496       max_pooling2d_449[0][0]          
__________________________________________________________________________________________________
conv2d_453 (Conv2D)             (None, 38, 38, 64)   18496       max_pooling2d_452[0][0]          
__________________________________________________________________________________________________
conv2d_456 (Conv2D)             (None, 38, 38, 64)   18496       max_pooling2d_455[0][0]          
__________________________________________________________________________________________________
max_pooling2d_444 (MaxPooling2D (None, 19, 19, 64)   0           conv2d_444[0][0]                 
__________________________________________________________________________________________________
max_pooling2d_447 (MaxPooling2D (None, 19, 19, 64)   0           conv2d_447[0][0]                 
__________________________________________________________________________________________________
max_pooling2d_450 (MaxPooling2D (None, 19, 19, 64)   0           conv2d_450[0][0]                 
__________________________________________________________________________________________________
max_pooling2d_453 (MaxPooling2D (None, 19, 19, 64)   0           conv2d_453[0][0]                 
__________________________________________________________________________________________________
max_pooling2d_456 (MaxPooling2D (None, 19, 19, 64)   0           conv2d_456[0][0]                 
__________________________________________________________________________________________________
conv2d_445 (Conv2D)             (None, 19, 19, 128)  73856       max_pooling2d_444[0][0]          
__________________________________________________________________________________________________
conv2d_448 (Conv2D)             (None, 19, 19, 128)  73856       max_pooling2d_447[0][0]          
__________________________________________________________________________________________________
conv2d_451 (Conv2D)             (None, 19, 19, 128)  73856       max_pooling2d_450[0][0]          
__________________________________________________________________________________________________
conv2d_454 (Conv2D)             (None, 19, 19, 128)  73856       max_pooling2d_453[0][0]          
__________________________________________________________________________________________________
conv2d_457 (Conv2D)             (None, 19, 19, 128)  73856       max_pooling2d_456[0][0]          
__________________________________________________________________________________________________
max_pooling2d_445 (MaxPooling2D (None, 10, 10, 128)  0           conv2d_445[0][0]                 
__________________________________________________________________________________________________
max_pooling2d_448 (MaxPooling2D (None, 10, 10, 128)  0           conv2d_448[0][0]                 
__________________________________________________________________________________________________
max_pooling2d_451 (MaxPooling2D (None, 10, 10, 128)  0           conv2d_451[0][0]                 
__________________________________________________________________________________________________
max_pooling2d_454 (MaxPooling2D (None, 10, 10, 128)  0           conv2d_454[0][0]                 
__________________________________________________________________________________________________
max_pooling2d_457 (MaxPooling2D (None, 10, 10, 128)  0           conv2d_457[0][0]                 
__________________________________________________________________________________________________
concatenate_26 (Concatenate)    (None, 10, 10, 640)  0           max_pooling2d_445[0][0]          
                                                                 max_pooling2d_448[0][0]          
                                                                 max_pooling2d_451[0][0]          
                                                                 max_pooling2d_454[0][0]          
                                                                 max_pooling2d_457[0][0]          
__________________________________________________________________________________________________
flatten_1066 (Flatten)          (None, 64000)        0           concatenate_26[0][0]             
==================================================================================================
Total params: 481,248
Trainable params: 481,248
Non-trainable params: 0
__________________________________________________________________________________________________
get cnn model
(1052, 64000)
[149.60623 198.18471 359.90503 619.11255 162.68385   0.        0.
…
