program start
seed set
[PhysicalDevice(name='/physical_device:GPU:0', device_type='GPU')]
Model: "model_54"
__________________________________________________________________________________________________
Layer (type)                    Output Shape         Param #     Connected to                     
==================================================================================================
input_28 (InputLayer)           [(None, 150, 150, 7) 0                                            
__________________________________________________________________________________________________
lambda_135 (Lambda)             (None, 150, 150, 7)  0           input_28[0][0]                   
__________________________________________________________________________________________________
conv2d_459 (Conv2D)             (None, 150, 150, 32) 2048        lambda_135[0][0]                 
__________________________________________________________________________________________________
max_pooling2d_459 (MaxPooling2D (None, 75, 75, 32)   0           conv2d_459[0][0]                 
__________________________________________________________________________________________________
lambda_136 (Lambda)             (None, 75, 75, 7)    0           lambda_135[0][0]                 
__________________________________________________________________________________________________
lambda_137 (Lambda)             (None, 75, 75, 7)    0           lambda_135[0][0]                 
__________________________________________________________________________________________________
lambda_138 (Lambda)             (None, 75, 75, 7)    0           lambda_135[0][0]                 
__________________________________________________________________________________________________
lambda_139 (Lambda)             (None, 75, 75, 7)    0           lambda_135[0][0]                 
__________________________________________________________________________________________________
conv2d_460 (Conv2D)             (None, 75, 75, 32)   9248        max_pooling2d_459[0][0]          
__________________________________________________________________________________________________
conv2d_463 (Conv2D)             (None, 75, 75, 32)   2048        lambda_136[0][0]                 
__________________________________________________________________________________________________
conv2d_466 (Conv2D)             (None, 75, 75, 32)   2048        lambda_137[0][0]                 
__________________________________________________________________________________________________
conv2d_469 (Conv2D)             (None, 75, 75, 32)   2048        lambda_138[0][0]                 
__________________________________________________________________________________________________
conv2d_472 (Conv2D)             (None, 75, 75, 32)   2048        lambda_139[0][0]                 
__________________________________________________________________________________________________
max_pooling2d_460 (MaxPooling2D (None, 38, 38, 32)   0           conv2d_460[0][0]                 
__________________________________________________________________________________________________
max_pooling2d_463 (MaxPooling2D (None, 38, 38, 32)   0           conv2d_463[0][0]                 
__________________________________________________________________________________________________
max_pooling2d_466 (MaxPooling2D (None, 38, 38, 32)   0           conv2d_466[0][0]                 
__________________________________________________________________________________________________
max_pooling2d_469 (MaxPooling2D (None, 38, 38, 32)   0           conv2d_469[0][0]                 
__________________________________________________________________________________________________
max_pooling2d_472 (MaxPooling2D (None, 38, 38, 32)   0           conv2d_472[0][0]                 
__________________________________________________________________________________________________
conv2d_461 (Conv2D)             (None, 38, 38, 64)   18496       max_pooling2d_460[0][0]          
__________________________________________________________________________________________________
conv2d_464 (Conv2D)             (None, 38, 38, 64)   18496       max_pooling2d_463[0][0]          
__________________________________________________________________________________________________
conv2d_467 (Conv2D)             (None, 38, 38, 64)   18496       max_pooling2d_466[0][0]          
__________________________________________________________________________________________________
conv2d_470 (Conv2D)             (None, 38, 38, 64)   18496       max_pooling2d_469[0][0]          
__________________________________________________________________________________________________
conv2d_473 (Conv2D)             (None, 38, 38, 64)   18496       max_pooling2d_472[0][0]          
__________________________________________________________________________________________________
max_pooling2d_461 (MaxPooling2D (None, 19, 19, 64)   0           conv2d_461[0][0]                 
__________________________________________________________________________________________________
max_pooling2d_464 (MaxPooling2D (None, 19, 19, 64)   0           conv2d_464[0][0]                 
__________________________________________________________________________________________________
max_pooling2d_467 (MaxPooling2D (None, 19, 19, 64)   0           conv2d_467[0][0]                 
__________________________________________________________________________________________________
max_pooling2d_470 (MaxPooling2D (None, 19, 19, 64)   0           conv2d_470[0][0]                 
__________________________________________________________________________________________________
max_pooling2d_473 (MaxPooling2D (None, 19, 19, 64)   0           conv2d_473[0][0]                 
__________________________________________________________________________________________________
conv2d_462 (Conv2D)             (None, 19, 19, 128)  73856       max_pooling2d_461[0][0]          
__________________________________________________________________________________________________
conv2d_465 (Conv2D)             (None, 19, 19, 128)  73856       max_pooling2d_464[0][0]          
__________________________________________________________________________________________________
conv2d_468 (Conv2D)             (None, 19, 19, 128)  73856       max_pooling2d_467[0][0]          
__________________________________________________________________________________________________
conv2d_471 (Conv2D)             (None, 19, 19, 128)  73856       max_pooling2d_470[0][0]          
__________________________________________________________________________________________________
conv2d_474 (Conv2D)             (None, 19, 19, 128)  73856       max_pooling2d_473[0][0]          
__________________________________________________________________________________________________
max_pooling2d_462 (MaxPooling2D (None, 10, 10, 128)  0           conv2d_462[0][0]                 
__________________________________________________________________________________________________
max_pooling2d_465 (MaxPooling2D (None, 10, 10, 128)  0           conv2d_465[0][0]                 
__________________________________________________________________________________________________
max_pooling2d_468 (MaxPooling2D (None, 10, 10, 128)  0           conv2d_468[0][0]                 
__________________________________________________________________________________________________
max_pooling2d_471 (MaxPooling2D (None, 10, 10, 128)  0           conv2d_471[0][0]                 
__________________________________________________________________________________________________
max_pooling2d_474 (MaxPooling2D (None, 10, 10, 128)  0           conv2d_474[0][0]                 
__________________________________________________________________________________________________
concatenate_27 (Concatenate)    (None, 10, 10, 640)  0           max_pooling2d_462[0][0]          
                                                                 max_pooling2d_465[0][0]          
                                                                 max_pooling2d_468[0][0]          
                                                                 max_pooling2d_471[0][0]          
                                                                 max_pooling2d_474[0][0]          
__________________________________________________________________________________________________
flatten_1107 (Flatten)          (None, 64000)        0           concatenate_27[0][0]             
__________________________________________________________________________________________________
dense_81 (Dense)                (None, 1024)         65537024    flatten_1107[0][0]               
__________________________________________________________________________________________________
dropout_54 (Dropout)            (None, 1024)         0           dense_81[0][0]                   
__________________________________________________________________________________________________
dense_82 (Dense)                (None, 1024)         1049600     dropout_54[0][0]                 
__________________________________________________________________________________________________
dropout_55 (Dropout)            (None, 1024)         0           dense_82[0][0]                   
__________________________________________________________________________________________________
dense_83 (Dense)                (None, 5)            5125        dropout_55[0][0]                 
==================================================================================================
Total params: 67,072,997
Trainable params: 67,072,997
Non-trainable params: 0
__________________________________________________________________________________________________
start loading dataset ...
load "Big" complete
load "Long" complete
load "Mitotic" complete
…
           3       0.98      0.82      0.89        56
           4       1.00      0.16      0.28        56

    accuracy                           0.77       260
   macro avg       0.83      0.78      0.73       260
weighted avg       0.84      0.77      0.72       260

Model: "model_55"
__________________________________________________________________________________________________
Layer (type)                    Output Shape         Param #     Connected to                     
==================================================================================================
input_28 (InputLayer)           [(None, 150, 150, 7) 0                                            
__________________________________________________________________________________________________
lambda_135 (Lambda)             (None, 150, 150, 7)  0           input_28[0][0]                   
__________________________________________________________________________________________________
conv2d_459 (Conv2D)             (None, 150, 150, 32) 2048        lambda_135[0][0]                 
__________________________________________________________________________________________________
max_pooling2d_459 (MaxPooling2D (None, 75, 75, 32)   0           conv2d_459[0][0]                 
__________________________________________________________________________________________________
lambda_136 (Lambda)             (None, 75, 75, 7)    0           lambda_135[0][0]                 
__________________________________________________________________________________________________
lambda_137 (Lambda)             (None, 75, 75, 7)    0           lambda_135[0][0]                 
__________________________________________________________________________________________________
lambda_138 (Lambda)             (None, 75, 75, 7)    0           lambda_135[0][0]                 
__________________________________________________________________________________________________
lambda_139 (Lambda)             (None, 75, 75, 7)    0           lambda_135[0][0]                 
__________________________________________________________________________________________________
conv2d_460 (Conv2D)             (None, 75, 75, 32)   9248        max_pooling2d_459[0][0]          
__________________________________________________________________________________________________
conv2d_463 (Conv2D)             (None, 75, 75, 32)   2048        lambda_136[0][0]                 
__________________________________________________________________________________________________
conv2d_466 (Conv2D)             (None, 75, 75, 32)   2048        lambda_137[0][0]                 
__________________________________________________________________________________________________
conv2d_469 (Conv2D)             (None, 75, 75, 32)   2048        lambda_138[0][0]                 
__________________________________________________________________________________________________
conv2d_472 (Conv2D)             (None, 75, 75, 32)   2048        lambda_139[0][0]                 
__________________________________________________________________________________________________
max_pooling2d_460 (MaxPooling2D (None, 38, 38, 32)   0           conv2d_460[0][0]                 
__________________________________________________________________________________________________
max_pooling2d_463 (MaxPooling2D (None, 38, 38, 32)   0           conv2d_463[0][0]                 
__________________________________________________________________________________________________
max_pooling2d_466 (MaxPooling2D (None, 38, 38, 32)   0           conv2d_466[0][0]                 
__________________________________________________________________________________________________
max_pooling2d_469 (MaxPooling2D (None, 38, 38, 32)   0           conv2d_469[0][0]                 
__________________________________________________________________________________________________
max_pooling2d_472 (MaxPooling2D (None, 38, 38, 32)   0           conv2d_472[0][0]                 
__________________________________________________________________________________________________
conv2d_461 (Conv2D)             (None, 38, 38, 64)   18496       max_pooling2d_460[0][0]          
__________________________________________________________________________________________________
conv2d_464 (Conv2D)             (None, 38, 38, 64)   18496       max_pooling2d_463[0][0]          
__________________________________________________________________________________________________
conv2d_467 (Conv2D)             (None, 38, 38, 64)   18496       max_pooling2d_466[0][0]          
__________________________________________________________________________________________________
conv2d_470 (Conv2D)             (None, 38, 38, 64)   18496       max_pooling2d_469[0][0]          
__________________________________________________________________________________________________
conv2d_473 (Conv2D)             (None, 38, 38, 64)   18496       max_pooling2d_472[0][0]          
__________________________________________________________________________________________________
max_pooling2d_461 (MaxPooling2D (None, 19, 19, 64)   0           conv2d_461[0][0]                 
__________________________________________________________________________________________________
max_pooling2d_464 (MaxPooling2D (None, 19, 19, 64)   0           conv2d_464[0][0]                 
__________________________________________________________________________________________________
max_pooling2d_467 (MaxPooling2D (None, 19, 19, 64)   0           conv2d_467[0][0]                 
__________________________________________________________________________________________________
max_pooling2d_470 (MaxPooling2D (None, 19, 19, 64)   0           conv2d_470[0][0]                 
__________________________________________________________________________________________________
max_pooling2d_473 (MaxPooling2D (None, 19, 19, 64)   0           conv2d_473[0][0]                 
__________________________________________________________________________________________________
conv2d_462 (Conv2D)             (None, 19, 19, 128)  73856       max_pooling2d_461[0][0]          
__________________________________________________________________________________________________
conv2d_465 (Conv2D)             (None, 19, 19, 128)  73856       max_pooling2d_464[0][0]          
__________________________________________________________________________________________________
conv2d_468 (Conv2D)             (None, 19, 19, 128)  73856       max_pooling2d_467[0][0]          
__________________________________________________________________________________________________
conv2d_471 (Conv2D)             (None, 19, 19, 128)  73856       max_pooling2d_470[0][0]          
__________________________________________________________________________________________________
conv2d_474 (Conv2D)             (None, 19, 19, 128)  73856       max_pooling2d_473[0][0]          
__________________________________________________________________________________________________
max_pooling2d_462 (MaxPooling2D (None, 10, 10, 128)  0           conv2d_462[0][0]                 
__________________________________________________________________________________________________
max_pooling2d_465 (MaxPooling2D (None, 10, 10, 128)  0           conv2d_465[0][0]                 
__________________________________________________________________________________________________
max_pooling2d_468 (MaxPooling2D (None, 10, 10, 128)  0           conv2d_468[0][0]                 
__________________________________________________________________________________________________
max_pooling2d_471 (MaxPooling2D (None, 10, 10, 128)  0           conv2d_471[0][0]                 
__________________________________________________________________________________________________
max_pooling2d_474 (MaxPooling2D (None, 10, 10, 128)  0           conv2d_474[0][0]                 
__________________________________________________________________________________________________
concatenate_27 (Concatenate)    (None, 10, 10, 640)  0           max_pooling2d_462[0][0]          
                                                                 max_pooling2d_465[0][0]          
                                                                 max_pooling2d_468[0][0]          
                                                                 max_pooling2d_471[0][0]          
                                                                 max_pooling2d_474[0][0]          
__________________________________________________________________________________________________
flatten_1107 (Flatten)          (None, 64000)        0           concatenate_27[0][0]             
==================================================================================================
Total params: 481,248
Trainable params: 481,248
Non-trainable params: 0
__________________________________________________________________________________________________
get cnn model
(1052, 64000)
[  0.         0.       126.86148   22.825636 216.17691  178.2869
…
