program start
seed set
[PhysicalDevice(name='/physical_device:GPU:0', device_type='GPU')]
Model: "model_56"
__________________________________________________________________________________________________
Layer (type)                    Output Shape         Param #     Connected to                     
==================================================================================================
input_29 (InputLayer)           [(None, 150, 150, 7) 0                                            
__________________________________________________________________________________________________
lambda_140 (Lambda)             (None, 150, 150, 7)  0           input_29[0][0]                   
__________________________________________________________________________________________________
conv2d_476 (Conv2D)             (None, 150, 150, 32) 2048        lambda_140[0][0]                 
__________________________________________________________________________________________________
max_pooling2d_476 (MaxPooling2D (None, 75, 75, 32)   0           conv2d_476[0][0]                 
__________________________________________________________________________________________________
lambda_141 (Lambda)             (None, 75, 75, 7)    0           lambda_140[0][0]                 
__________________________________________________________________________________________________
lambda_142 (Lambda)             (None, 75, 75, 7)    0           lambda_140[0][0]                 
__________________________________________________________________________________________________
lambda_143 (Lambda)             (None, 75, 75, 7)    0           lambda_140[0][0]                 
__________________________________________________________________________________________________
lambda_144 (Lambda)             (None, 75, 75, 7)    0           lambda_140[0][0]                 
__________________________________________________________________________________________________
conv2d_477 (Conv2D)             (None, 75, 75, 32)   9248        max_pooling2d_476[0][0]          
__________________________________________________________________________________________________
conv2d_480 (Conv2D)             (None, 75, 75, 32)   2048        lambda_141[0][0]                 
__________________________________________________________________________________________________
conv2d_483 (Conv2D)             (None, 75, 75, 32)   2048        lambda_142[0][0]                 
__________________________________________________________________________________________________
conv2d_486 (Conv2D)             (None, 75, 75, 32)   2048        lambda_143[0][0]                 
__________________________________________________________________________________________________
conv2d_489 (Conv2D)             (None, 75, 75, 32)   2048        lambda_144[0][0]                 
__________________________________________________________________________________________________
max_pooling2d_477 (MaxPooling2D (None, 38, 38, 32)   0           conv2d_477[0][0]                 
__________________________________________________________________________________________________
max_pooling2d_480 (MaxPooling2D (None, 38, 38, 32)   0           conv2d_480[0][0]                 
__________________________________________________________________________________________________
max_pooling2d_483 (MaxPooling2D (None, 38, 38, 32)   0           conv2d_483[0][0]                 
__________________________________________________________________________________________________
max_pooling2d_486 (MaxPooling2D (None, 38, 38, 32)   0           conv2d_486[0][0]                 
__________________________________________________________________________________________________
max_pooling2d_489 (MaxPooling2D (None, 38, 38, 32)   0           conv2d_489[0][0]                 
__________________________________________________________________________________________________
conv2d_478 (Conv2D)             (None, 38, 38, 64)   18496       max_pooling2d_477[0][0]          
__________________________________________________________________________________________________
conv2d_481 (Conv2D)             (None, 38, 38, 64)   18496       max_pooling2d_480[0][0]          
__________________________________________________________________________________________________
conv2d_484 (Conv2D)             (None, 38, 38, 64)   18496       max_pooling2d_483[0][0]          
__________________________________________________________________________________________________
conv2d_487 (Conv2D)             (None, 38, 38, 64)   18496       max_pooling2d_486[0][0]          
__________________________________________________________________________________________________
conv2d_490 (Conv2D)             (None, 38, 38, 64)   18496       max_pooling2d_489[0][0]          
__________________________________________________________________________________________________
max_pooling2d_478 (MaxPooling2D (None, 19, 19, 64)   0           conv2d_478[0][0]                 
__________________________________________________________________________________________________
max_pooling2d_481 (MaxPooling2D (None, 19, 19, 64)   0           conv2d_481[0][0]                 
__________________________________________________________________________________________________
max_pooling2d_484 (MaxPooling2D (None, 19, 19, 64)   0           conv2d_484[0][0]                 
__________________________________________________________________________________________________
max_pooling2d_487 (MaxPooling2D (None, 19, 19, 64)   0           conv2d_487[0][0]                 
__________________________________________________________________________________________________
max_pooling2d_490 (MaxPooling2D (None, 19, 19, 64)   0           conv2d_490[0][0]                 
__________________________________________________________________________________________________
conv2d_479 (Conv2D)             (None, 19, 19, 128)  73856       max_pooling2d_478[0][0]          
__________________________________________________________________________________________________
conv2d_482 (Conv2D)             (None, 19, 19, 128)  73856       max_pooling2d_481[0][0]          
__________________________________________________________________________________________________
conv2d_485 (Conv2D)             (None, 19, 19, 128)  73856       max_pooling2d_484[0][0]          
__________________________________________________________________________________________________
conv2d_488 (Conv2D)             (None, 19, 19, 128)  73856       max_pooling2d_487[0][0]          
__________________________________________________________________________________________________
conv2d_491 (Conv2D)             (None, 19, 19, 128)  73856       max_pooling2d_490[0][0]          
__________________________________________________________________________________________________
max_pooling2d_479 (MaxPooling2D (None, 10, 10, 128)  0           conv2d_479[0][0]                 
__________________________________________________________________________________________________
max_pooling2d_482 (MaxPooling2D (None, 10, 10, 128)  0           conv2d_482[0][0]                 
__________________________________________________________________________________________________
max_pooling2d_485 (MaxPooling2D (None, 10, 10, 128)  0           conv2d_485[0][0]                 
__________________________________________________________________________________________________
max_pooling2d_488 (MaxPooling2D (None, 10, 10, 128)  0           conv2d_488[0][0]                 
__________________________________________________________________________________________________
max_pooling2d_491 (MaxPooling2D (None, 10, 10, 128)  0           conv2d_491[0][0]                 
__________________________________________________________________________________________________
concatenate_28 (Concatenate)    (None, 10, 10, 640)  0           max_pooling2d_479[0][0]          
                                                                 max_pooling2d_482[0][0]          
                                                                 max_pooling2d_485[0][0]          
                                                                 max_pooling2d_488[0][0]          
                                                                 max_pooling2d_491[0][0]          
__________________________________________________________________________________________________
flatten_1148 (Flatten)          (None, 64000)        0           concatenate_28[0][0]             
__________________________________________________________________________________________________
dense_84 (Dense)                (None, 1024)         65537024    flatten_1148[0][0]               
__________________________________________________________________________________________________
dropout_56 (Dropout)            (None, 1024)         0           dense_84[0][0]                   
__________________________________________________________________________________________________
dense_85 (Dense)                (None, 1024)         1049600     dropout_56[0][0]                 
__________________________________________________________________________________________________
dropout_57 (Dropout)            (None, 1024)         0           dense_85[0][0]                   
__________________________________________________________________________________________________
dense_86 (Dense)                (None, 5)            5125        dropout_57[0][0]                 
==================================================================================================
Total params: 67,072,997
Trainable params: 67,072,997
Non-trainable params: 0
__________________________________________________________________________________________________
start loading dataset ...
load "Big" complete
load "Long" complete
load "Mitotic" complete
…
avg': {'precision': 0.8059644449118133, 'recall': 0.7621671707288145, 'f1-score': 0.7061766508730015, 'support': 260.0}, 'weighted avg': {'precision': 0.8340016641028787, 'recall': 0.7538461538461538, 'f1-score': 0.7135837990746012, 'support': 260.0}}
Model: "model_57"
__________________________________________________________________________________________________
Layer (type)                    Output Shape         Param #     Connected to                     
==================================================================================================
input_29 (InputLayer)           [(None, 150, 150, 7) 0                                            
__________________________________________________________________________________________________
lambda_140 (Lambda)             (None, 150, 150, 7)  0           input_29[0][0]                   
__________________________________________________________________________________________________
conv2d_476 (Conv2D)             (None, 150, 150, 32) 2048        lambda_140[0][0]                 
__________________________________________________________________________________________________
max_pooling2d_476 (MaxPooling2D (None, 75, 75, 32)   0           conv2d_476[0][0]                 
__________________________________________________________________________________________________
lambda_141 (Lambda)             (None, 75, 75, 7)    0           lambda_140[0][0]                 
__________________________________________________________________________________________________
lambda_142 (Lambda)             (None, 75, 75, 7)    0           lambda_140[0][0]                 
__________________________________________________________________________________________________
lambda_143 (Lambda)             (None, 75, 75, 7)    0           lambda_140[0][0]                 
__________________________________________________________________________________________________
lambda_144 (Lambda)             (None, 75, 75, 7)    0           lambda_140[0][0]                 
__________________________________________________________________________________________________
conv2d_477 (Conv2D)             (None, 75, 75, 32)   9248        max_pooling2d_476[0][0]          
__________________________________________________________________________________________________
conv2d_480 (Conv2D)             (None, 75, 75, 32)   2048        lambda_141[0][0]                 
__________________________________________________________________________________________________
conv2d_483 (Conv2D)             (None, 75, 75, 32)   2048        lambda_142[0][0]                 
__________________________________________________________________________________________________
conv2d_486 (Conv2D)             (None, 75, 75, 32)   2048        lambda_143[0][0]                 
__________________________________________________________________________________________________
conv2d_489 (Conv2D)             (None, 75, 75, 32)   2048        lambda_144[0][0]                 
__________________________________________________________________________________________________
max_pooling2d_477 (MaxPooling2D (None, 38, 38, 32)   0           conv2d_477[0][0]                 
__________________________________________________________________________________________________
max_pooling2d_480 (MaxPooling2D (None, 38, 38, 32)   0           conv2d_480[0][0]                 
__________________________________________________________________________________________________
max_pooling2d_483 (MaxPooling2D (None, 38, 38, 32)   0           conv2d_483[0][0]                 
__________________________________________________________________________________________________
max_pooling2d_486 (MaxPooling2D (None, 38, 38, 32)   0           conv2d_486[0][0]                 
__________________________________________________________________________________________________
max_pooling2d_489 (MaxPooling2D (None, 38, 38, 32)   0           conv2d_489[0][0]                 
__________________________________________________________________________________________________
conv2d_478 (Conv2D)             (None, 38, 38, 64)   18496       max_pooling2d_477[0][0]          
__________________________________________________________________________________________________
conv2d_481 (Conv2D)             (None, 38, 38, 64)   18496       max_pooling2d_480[0][0]          
__________________________________________________________________________________________________
conv2d_484 (Conv2D)             (None, 38, 38, 64)   18496       max_pooling2d_483[0][0]          
__________________________________________________________________________________________________
conv2d_487 (Conv2D)             (None, 38, 38, 64)   18496       max_pooling2d_486[0][0]          
__________________________________________________________________________________________________
conv2d_490 (Conv2D)             (None, 38, 38, 64)   18496       max_pooling2d_489[0][0]          
__________________________________________________________________________________________________
max_pooling2d_478 (MaxPooling2D (None, 19, 19, 64)   0           conv2d_478[0][0]                 
__________________________________________________________________________________________________
max_pooling2d_481 (MaxPooling2D (None, 19, 19, 64)   0           conv2d_481[0][0]                 
__________________________________________________________________________________________________
max_pooling2d_484 (MaxPooling2D (None, 19, 19, 64)   0           conv2d_484[0][0]                 
__________________________________________________________________________________________________
max_pooling2d_487 (MaxPooling2D (None, 19, 19, 64)   0           conv2d_487[0][0]                 
__________________________________________________________________________________________________
max_pooling2d_490 (MaxPooling2D (None, 19, 19, 64)   0           conv2d_490[0][0]                 
__________________________________________________________________________________________________
conv2d_479 (Conv2D)             (None, 19, 19, 128)  73856       max_pooling2d_478[0][0]          
__________________________________________________________________________________________________
conv2d_482 (Conv2D)             (None, 19, 19, 128)  73856       max_pooling2d_481[0][0]          
__________________________________________________________________________________________________
conv2d_485 (Conv2D)             (None, 19, 19, 128)  73856       max_pooling2d_484[0][0]          
__________________________________________________________________________________________________
conv2d_488 (Conv2D)             (None, 19, 19, 128)  73856       max_pooling2d_487[0][0]          
__________________________________________________________________________________________________
conv2d_491 (Conv2D)             (None, 19, 19, 128)  73856       max_pooling2d_490[0][0]          
__________________________________________________________________________________________________
max_pooling2d_479 (MaxPooling2D (None, 10, 10, 128)  0           conv2d_479[0][0]                 
__________________________________________________________________________________________________
max_pooling2d_482 (MaxPooling2D (None, 10, 10, 128)  0           conv2d_482[0][0]                 
__________________________________________________________________________________________________
max_pooling2d_485 (MaxPooling2D (None, 10, 10, 128)  0           conv2d_485[0][0]                 
__________________________________________________________________________________________________
max_pooling2d_488 (MaxPooling2D (None, 10, 10, 128)  0           conv2d_488[0][0]                 
__________________________________________________________________________________________________
max_pooling2d_491 (MaxPooling2D (None, 10, 10, 128)  0           conv2d_491[0][0]                 
__________________________________________________________________________________________________
concatenate_28 (Concatenate)    (None, 10, 10, 640)  0           max_pooling2d_479[0][0]          
                                                                 max_pooling2d_482[0][0]          
                                                                 max_pooling2d_485[0][0]          
                                                                 max_pooling2d_488[0][0]          
                                                                 max_pooling2d_491[0][0]          
__________________________________________________________________________________________________
flatten_1148 (Flatten)          (None, 64000)        0           concatenate_28[0][0]             
==================================================================================================
Total params: 481,248
Trainable params: 481,248
Non-trainable params: 0
__________________________________________________________________________________________________
get cnn model
(1052, 64000)
[ 81.31674  312.9422    26.5517   147.16068   45.85779   18.64218
…
