program start
seed set
[PhysicalDevice(name='/physical_device:GPU:0', device_type='GPU')]
Model: "model_58"
__________________________________________________________________________________________________
Layer (type)                    Output Shape         Param #     Connected to                     
==================================================================================================
input_30 (InputLayer)           [(None, 150, 150, 7) 0                                            
__________________________________________________________________________________________________
lambda_145 (Lambda)             (None, 150, 150, 7)  0           input_30[0][0]                   
__________________________________________________________________________________________________
conv2d_493 (Conv2D)             (None, 150, 150, 32) 2048        lambda_145[0][0]                 
__________________________________________________________________________________________________
max_pooling2d_493 (MaxPooling2D (None, 75, 75, 32)   0           conv2d_493[0][0]                 
__________________________________________________________________________________________________
lambda_146 (Lambda)             (None, 75, 75, 7)    0           lambda_145[0][0]                 
__________________________________________________________________________________________________
lambda_147 (Lambda)             (None, 75, 75, 7)    0           lambda_145[0][0]                 
__________________________________________________________________________________________________
lambda_148 (Lambda)             (None, 75, 75, 7)    0           lambda_145[0][0]                 
__________________________________________________________________________________________________
lambda_149 (Lambda)             (None, 75, 75, 7)    0           lambda_145[0][0]                 
__________________________________________________________________________________________________
conv2d_494 (Conv2D)             (None, 75, 75, 32)   9248        max_pooling2d_493[0][0]          
__________________________________________________________________________________________________
conv2d_497 (Conv2D)             (None, 75, 75, 32)   2048        lambda_146[0][0]                 
__________________________________________________________________________________________________
conv2d_500 (Conv2D)             (None, 75, 75, 32)   2048        lambda_147[0][0]                 
__________________________________________________________________________________________________
conv2d_503 (Conv2D)             (None, 75, 75, 32)   2048        lambda_148[0][0]                 
__________________________________________________________________________________________________
conv2d_506 (Conv2D)             (None, 75, 75, 32)   2048        lambda_149[0][0]                 
__________________________________________________________________________________________________
max_pooling2d_494 (MaxPooling2D (None, 38, 38, 32)   0           conv2d_494[0][0]                 
__________________________________________________________________________________________________
max_pooling2d_497 (MaxPooling2D (None, 38, 38, 32)   0           conv2d_497[0][0]                 
__________________________________________________________________________________________________
max_pooling2d_500 (MaxPooling2D (None, 38, 38, 32)   0           conv2d_500[0][0]                 
__________________________________________________________________________________________________
max_pooling2d_503 (MaxPooling2D (None, 38, 38, 32)   0           conv2d_503[0][0]                 
__________________________________________________________________________________________________
max_pooling2d_506 (MaxPooling2D (None, 38, 38, 32)   0           conv2d_506[0][0]                 
__________________________________________________________________________________________________
conv2d_495 (Conv2D)             (None, 38, 38, 64)   18496       max_pooling2d_494[0][0]          
__________________________________________________________________________________________________
conv2d_498 (Conv2D)             (None, 38, 38, 64)   18496       max_pooling2d_497[0][0]          
__________________________________________________________________________________________________
conv2d_501 (Conv2D)             (None, 38, 38, 64)   18496       max_pooling2d_500[0][0]          
__________________________________________________________________________________________________
conv2d_504 (Conv2D)             (None, 38, 38, 64)   18496       max_pooling2d_503[0][0]          
__________________________________________________________________________________________________
conv2d_507 (Conv2D)             (None, 38, 38, 64)   18496       max_pooling2d_506[0][0]          
__________________________________________________________________________________________________
max_pooling2d_495 (MaxPooling2D (None, 19, 19, 64)   0           conv2d_495[0][0]                 
__________________________________________________________________________________________________
max_pooling2d_498 (MaxPooling2D (None, 19, 19, 64)   0           conv2d_498[0][0]                 
__________________________________________________________________________________________________
max_pooling2d_501 (MaxPooling2D (None, 19, 19, 64)   0           conv2d_501[0][0]                 
__________________________________________________________________________________________________
max_pooling2d_504 (MaxPooling2D (None, 19, 19, 64)   0           conv2d_504[0][0]                 
__________________________________________________________________________________________________
max_pooling2d_507 (MaxPooling2D (None, 19, 19, 64)   0           conv2d_507[0][0]                 
__________________________________________________________________________________________________
conv2d_496 (Conv2D)             (None, 19, 19, 128)  73856       max_pooling2d_495[0][0]          
__________________________________________________________________________________________________
conv2d_499 (Conv2D)             (None, 19, 19, 128)  73856       max_pooling2d_498[0][0]          
__________________________________________________________________________________________________
conv2d_502 (Conv2D)             (None, 19, 19, 128)  73856       max_pooling2d_501[0][0]          
__________________________________________________________________________________________________
conv2d_505 (Conv2D)             (None, 19, 19, 128)  73856       max_pooling2d_504[0][0]          
__________________________________________________________________________________________________
conv2d_508 (Conv2D)             (None, 19, 19, 128)  73856       max_pooling2d_507[0][0]          
__________________________________________________________________________________________________
max_pooling2d_496 (MaxPooling2D (None, 10, 10, 128)  0           conv2d_496[0][0]                 
__________________________________________________________________________________________________
max_pooling2d_499 (MaxPooling2D (None, 10, 10, 128)  0           conv2d_499[0][0]                 
__________________________________________________________________________________________________
max_pooling2d_502 (MaxPooling2D (None, 10, 10, 128)  0           conv2d_502[0][0]                 
__________________________________________________________________________________________________
max_pooling2d_505 (MaxPooling2D (None, 10, 10, 128)  0           conv2d_505[0][0]                 
__________________________________________________________________________________________________
max_pooling2d_508 (MaxPooling2D (None, 10, 10, 128)  0           conv2d_508[0][0]                 
__________________________________________________________________________________________________
concatenate_29 (Concatenate)    (None, 10, 10, 640)  0           max_pooling2d_496[0][0]          
                                                                 max_pooling2d_499[0][0]          
                                                                 max_pooling2d_502[0][0]          
                                                                 max_pooling2d_505[0][0]          
                                                                 max_pooling2d_508[0][0]          
__________________________________________________________________________________________________
flatten_1189 (Flatten)          (None, 64000)        0           concatenate_29[0][0]             
__________________________________________________________________________________________________
dense_87 (Dense)                (None, 1024)         65537024    flatten_1189[0][0]               
__________________________________________________________________________________________________
dropout_58 (Dropout)            (None, 1024)         0           dense_87[0][0]                   
__________________________________________________________________________________________________
dense_88 (Dense)                (None, 1024)         1049600     dropout_58[0][0]                 
__________________________________________________________________________________________________
dropout_59 (Dropout)            (None, 1024)         0           dense_88[0][0]                   
__________________________________________________________________________________________________
dense_89 (Dense)                (None, 5)            5125        dropout_59[0][0]                 
==================================================================================================
Total params: 67,072,997
Trainable params: 67,072,997
Non-trainable params: 0
__________________________________________________________________________________________________
start loading dataset ...
load "Big" complete
load "Long" complete
load "Mitotic" complete
…
           3       0.55      1.00      0.71        56
           4       1.00      0.02      0.04        56

    accuracy                           0.68       260
   macro avg       0.77      0.65      0.59       260
weighted avg       0.77      0.68      0.60       260

Model: "model_59"
__________________________________________________________________________________________________
Layer (type)                    Output Shape         Param #     Connected to                     
==================================================================================================
input_30 (InputLayer)           [(None, 150, 150, 7) 0                                            
__________________________________________________________________________________________________
lambda_145 (Lambda)             (None, 150, 150, 7)  0           input_30[0][0]                   
__________________________________________________________________________________________________
conv2d_493 (Conv2D)             (None, 150, 150, 32) 2048        lambda_145[0][0]                 
__________________________________________________________________________________________________
max_pooling2d_493 (MaxPooling2D (None, 75, 75, 32)   0           conv2d_493[0][0]                 
__________________________________________________________________________________________________
lambda_146 (Lambda)             (None, 75, 75, 7)    0           lambda_145[0][0]                 
__________________________________________________________________________________________________
lambda_147 (Lambda)             (None, 75, 75, 7)    0           lambda_145[0][0]                 
__________________________________________________________________________________________________
lambda_148 (Lambda)             (None, 75, 75, 7)    0           lambda_145[0][0]                 
__________________________________________________________________________________________________
lambda_149 (Lambda)             (None, 75, 75, 7)    0           lambda_145[0][0]                 
__________________________________________________________________________________________________
conv2d_494 (Conv2D)             (None, 75, 75, 32)   9248        max_pooling2d_493[0][0]          
__________________________________________________________________________________________________
conv2d_497 (Conv2D)             (None, 75, 75, 32)   2048        lambda_146[0][0]                 
__________________________________________________________________________________________________
conv2d_500 (Conv2D)             (None, 75, 75, 32)   2048        lambda_147[0][0]                 
__________________________________________________________________________________________________
conv2d_503 (Conv2D)             (None, 75, 75, 32)   2048        lambda_148[0][0]                 
__________________________________________________________________________________________________
conv2d_506 (Conv2D)             (None, 75, 75, 32)   2048        lambda_149[0][0]                 
__________________________________________________________________________________________________
max_pooling2d_494 (MaxPooling2D (None, 38, 38, 32)   0           conv2d_494[0][0]                 
__________________________________________________________________________________________________
max_pooling2d_497 (MaxPooling2D (None, 38, 38, 32)   0           conv2d_497[0][0]                 
__________________________________________________________________________________________________
max_pooling2d_500 (MaxPooling2D (None, 38, 38, 32)   0           conv2d_500[0][0]                 
__________________________________________________________________________________________________
max_pooling2d_503 (MaxPooling2D (None, 38, 38, 32)   0           conv2d_503[0][0]                 
__________________________________________________________________________________________________
max_pooling2d_506 (MaxPooling2D (None, 38, 38, 32)   0           conv2d_506[0][0]                 
__________________________________________________________________________________________________
conv2d_495 (Conv2D)             (None, 38, 38, 64)   18496       max_pooling2d_494[0][0]          
__________________________________________________________________________________________________
conv2d_498 (Conv2D)             (None, 38, 38, 64)   18496       max_pooling2d_497[0][0]          
__________________________________________________________________________________________________
conv2d_501 (Conv2D)             (None, 38, 38, 64)   18496       max_pooling2d_500[0][0]          
__________________________________________________________________________________________________
conv2d_504 (Conv2D)             (None, 38, 38, 64)   18496       max_pooling2d_503[0][0]          
__________________________________________________________________________________________________
conv2d_507 (Conv2D)             (None, 38, 38, 64)   18496       max_pooling2d_506[0][0]          
__________________________________________________________________________________________________
max_pooling2d_495 (MaxPooling2D (None, 19, 19, 64)   0           conv2d_495[0][0]                 
__________________________________________________________________________________________________
max_pooling2d_498 (MaxPooling2D (None, 19, 19, 64)   0           conv2d_498[0][0]                 
__________________________________________________________________________________________________
max_pooling2d_501 (MaxPooling2D (None, 19, 19, 64)   0           conv2d_501[0][0]                 
__________________________________________________________________________________________________
max_pooling2d_504 (MaxPooling2D (None, 19, 19, 64)   0           conv2d_504[0][0]                 
__________________________________________________________________________________________________
max_pooling2d_507 (MaxPooling2D (None, 19, 19, 64)   0           conv2d_507[0][0]                 
__________________________________________________________________________________________________
conv2d_496 (Conv2D)             (None, 19, 19, 128)  73856       max_pooling2d_495[0][0]          
__________________________________________________________________________________________________
conv2d_499 (Conv2D)             (None, 19, 19, 128)  73856       max_pooling2d_498[0][0]          
__________________________________________________________________________________________________
conv2d_502 (Conv2D)             (None, 19, 19, 128)  73856       max_pooling2d_501[0][0]          
__________________________________________________________________________________________________
conv2d_505 (Conv2D)             (None, 19, 19, 128)  73856       max_pooling2d_504[0][0]          
__________________________________________________________________________________________________
conv2d_508 (Conv2D)             (None, 19, 19, 128)  73856       max_pooling2d_507[0][0]          
__________________________________________________________________________________________________
max_pooling2d_496 (MaxPooling2D (None, 10, 10, 128)  0           conv2d_496[0][0]                 
__________________________________________________________________________________________________
max_pooling2d_499 (MaxPooling2D (None, 10, 10, 128)  0           conv2d_499[0][0]                 
__________________________________________________________________________________________________
max_pooling2d_502 (MaxPooling2D (None, 10, 10, 128)  0           conv2d_502[0][0]                 
__________________________________________________________________________________________________
max_pooling2d_505 (MaxPooling2D (None, 10, 10, 128)  0           conv2d_505[0][0]                 
__________________________________________________________________________________________________
max_pooling2d_508 (MaxPooling2D (None, 10, 10, 128)  0           conv2d_508[0][0]                 
__________________________________________________________________________________________________
concatenate_29 (Concatenate)    (None, 10, 10, 640)  0           max_pooling2d_496[0][0]          
                                                                 max_pooling2d_499[0][0]          
                                                                 max_pooling2d_502[0][0]          
                                                                 max_pooling2d_505[0][0]          
                                                                 max_pooling2d_508[0][0]          
__________________________________________________________________________________________________
flatten_1189 (Flatten)          (None, 64000)        0           concatenate_29[0][0]             
==================================================================================================
Total params: 481,248
Trainable params: 481,248
Non-trainable params: 0
__________________________________________________________________________________________________
get cnn model
(1052, 64000)
[ 86.4892   72.73126   0.       71.21496 316.45932 246.01561 189.45164
…
