program start
seed set
[PhysicalDevice(name='/physical_device:GPU:0', device_type='GPU')]
Model: "model_60"
__________________________________________________________________________________________________
Layer (type)                    Output Shape         Param #     Connected to                     
==================================================================================================
input_31 (InputLayer)           [(None, 150, 150, 7) 0                                            
__________________________________________________________________________________________________
lambda_150 (Lambda)             (None, 150, 150, 7)  0           input_31[0][0]                   
__________________________________________________________________________________________________
conv2d_510 (Conv2D)             (None, 150, 150, 32) 2048        lambda_150[0][0]                 
__________________________________________________________________________________________________
max_pooling2d_510 (MaxPooling2D (None, 75, 75, 32)   0           conv2d_510[0][0]                 
__________________________________________________________________________________________________
lambda_151 (Lambda)             (None, 75, 75, 7)    0           lambda_150[0][0]                 
__________________________________________________________________________________________________
lambda_152 (Lambda)             (None, 75, 75, 7)    0           lambda_150[0][0]                 
__________________________________________________________________________________________________
lambda_153 (Lambda)             (None, 75, 75, 7)    0           lambda_150[0][0]                 
__________________________________________________________________________________________________
lambda_154 (Lambda)             (None, 75, 75, 7)    0           lambda_150[0][0]                 
__________________________________________________________________________________________________
conv2d_511 (Conv2D)             (None, 75, 75, 32)   9248        max_pooling2d_510[0][0]          
__________________________________________________________________________________________________
conv2d_514 (Conv2D)             (None, 75, 75, 32)   2048        lambda_151[0][0]                 
__________________________________________________________________________________________________
conv2d_517 (Conv2D)             (None, 75, 75, 32)   2048        lambda_152[0][0]                 
__________________________________________________________________________________________________
conv2d_520 (Conv2D)             (None, 75, 75, 32)   2048        lambda_153[0][0]                 
__________________________________________________________________________________________________
conv2d_523 (Conv2D)             (None, 75, 75, 32)   2048        lambda_154[0][0]                 
__________________________________________________________________________________________________
max_pooling2d_511 (MaxPooling2D (None, 38, 38, 32)   0           conv2d_511[0][0]                 
__________________________________________________________________________________________________
max_pooling2d_514 (MaxPooling2D (None, 38, 38, 32)   0           conv2d_514[0][0]                 
__________________________________________________________________________________________________
max_pooling2d_517 (MaxPooling2D (None, 38, 38, 32)   0           conv2d_517[0][0]                 
__________________________________________________________________________________________________
max_pooling2d_520 (MaxPooling2D (None, 38, 38, 32)   0           conv2d_520[0][0]                 
__________________________________________________________________________________________________
max_pooling2d_523 (MaxPooling2D (None, 38, 38, 32)   0           conv2d_523[0][0]                 
__________________________________________________________________________________________________
conv2d_512 (Conv2D)             (None, 38, 38, 64)   18496       max_pooling2d_511[0][0]          
__________________________________________________________________________________________________
conv2d_515 (Conv2D)             (None, 38, 38, 64)   18496       max_pooling2d_514[0][0]          
__________________________________________________________________________________________________
conv2d_518 (Conv2D)             (None, 38, 38, 64)   18496       max_pooling2d_517[0][0]          
__________________________________________________________________________________________________
conv2d_521 (Conv2D)             (None, 38, 38, 64)   18496       max_pooling2d_520[0][0]          
__________________________________________________________________________________________________
conv2d_524 (Conv2D)             (None, 38, 38, 64)   18496       max_pooling2d_523[0][0]          
__________________________________________________________________________________________________
max_pooling2d_512 (MaxPooling2D (None, 19, 19, 64)   0           conv2d_512[0][0]                 
__________________________________________________________________________________________________
max_pooling2d_515 (MaxPooling2D (None, 19, 19, 64)   0           conv2d_515[0][0]                 
__________________________________________________________________________________________________
max_pooling2d_518 (MaxPooling2D (None, 19, 19, 64)   0           conv2d_518[0][0]                 
__________________________________________________________________________________________________
max_pooling2d_521 (MaxPooling2D (None, 19, 19, 64)   0           conv2d_521[0][0]                 
__________________________________________________________________________________________________
max_pooling2d_524 (MaxPooling2D (None, 19, 19, 64)   0           conv2d_524[0][0]                 
__________________________________________________________________________________________________
conv2d_513 (Conv2D)             (None, 19, 19, 128)  73856       max_pooling2d_512[0][0]          
__________________________________________________________________________________________________
conv2d_516 (Conv2D)             (None, 19, 19, 128)  73856       max_pooling2d_515[0][0]          
__________________________________________________________________________________________________
conv2d_519 (Conv2D)             (None, 19, 19, 128)  73856       max_pooling2d_518[0][0]          
__________________________________________________________________________________________________
conv2d_522 (Conv2D)             (None, 19, 19, 128)  73856       max_pooling2d_521[0][0]          
__________________________________________________________________________________________________
conv2d_525 (Conv2D)             (None, 19, 19, 128)  73856       max_pooling2d_524[0][0]          
__________________________________________________________________________________________________
max_pooling2d_513 (MaxPooling2D (None, 10, 10, 128)  0           conv2d_513[0][0]                 
__________________________________________________________________________________________________
max_pooling2d_516 (MaxPooling2D (None, 10, 10, 128)  0           conv2d_516[0][0]                 
__________________________________________________________________________________________________
max_pooling2d_519 (MaxPooling2D (None, 10, 10, 128)  0           conv2d_519[0][0]                 
__________________________________________________________________________________________________
max_pooling2d_522 (MaxPooling2D (None, 10, 10, 128)  0           conv2d_522[0][0]                 
__________________________________________________________________________________________________
max_pooling2d_525 (MaxPooling2D (None, 10, 10, 128)  0           conv2d_525[0][0]                 
__________________________________________________________________________________________________
concatenate_30 (Concatenate)    (None, 10, 10, 640)  0           max_pooling2d_513[0][0]          
                                                                 max_pooling2d_516[0][0]          
                                                                 max_pooling2d_519[0][0]          
                                                                 max_pooling2d_522[0][0]          
                                                                 max_pooling2d_525[0][0]          
__________________________________________________________________________________________________
flatten_1230 (Flatten)          (None, 64000)        0           concatenate_30[0][0]             
__________________________________________________________________________________________________
dense_90 (Dense)                (None, 1024)         65537024    flatten_1230[0][0]               
__________________________________________________________________________________________________
dropout_60 (Dropout)            (None, 1024)         0           dense_90[0][0]                   
__________________________________________________________________________________________________
dense_91 (Dense)                (None, 1024)         1049600     dropout_60[0][0]                 
__________________________________________________________________________________________________
dropout_61 (Dropout)            (None, 1024)         0           dense_91[0][0]                   
__________________________________________________________________________________________________
dense_92 (Dense)                (None, 5)            5125        dropout_61[0][0]                 
==================================================================================================
Total params: 67,072,997
Trainable params: 67,072,997
Non-trainable params: 0
__________________________________________________________________________________________________
start loading dataset ...
load "Big" complete
load "Long" complete
load "Mitotic" complete
…
           3       1.00      0.71      0.83        56
           4       0.86      0.11      0.19        56

    accuracy                           0.73       260
   macro avg       0.80      0.76      0.69       260
weighted avg       0.82      0.73      0.69       260

Model: "model_61"
__________________________________________________________________________________________________
Layer (type)                    Output Shape         Param #     Connected to                     
==================================================================================================
input_31 (InputLayer)           [(None, 150, 150, 7) 0                                            
__________________________________________________________________________________________________
lambda_150 (Lambda)             (None, 150, 150, 7)  0           input_31[0][0]                   
__________________________________________________________________________________________________
conv2d_510 (Conv2D)             (None, 150, 150, 32) 2048        lambda_150[0][0]                 
__________________________________________________________________________________________________
max_pooling2d_510 (MaxPooling2D (None, 75, 75, 32)   0           conv2d_510[0][0]                 
__________________________________________________________________________________________________
lambda_151 (Lambda)             (None, 75, 75, 7)    0           lambda_150[0][0]                 
__________________________________________________________________________________________________
lambda_152 (Lambda)             (None, 75, 75, 7)    0           lambda_150[0][0]                 
__________________________________________________________________________________________________
lambda_153 (Lambda)             (None, 75, 75, 7)    0           lambda_150[0][0]                 
__________________________________________________________________________________________________
lambda_154 (Lambda)             (None, 75, 75, 7)    0           lambda_150[0][0]                 
__________________________________________________________________________________________________
conv2d_511 (Conv2D)             (None, 75, 75, 32)   9248        max_pooling2d_510[0][0]          
__________________________________________________________________________________________________
conv2d_514 (Conv2D)             (None, 75, 75, 32)   2048        lambda_151[0][0]                 
__________________________________________________________________________________________________
conv2d_517 (Conv2D)             (None, 75, 75, 32)   2048        lambda_152[0][0]                 
__________________________________________________________________________________________________
conv2d_520 (Conv2D)             (None, 75, 75, 32)   2048        lambda_153[0][0]                 
__________________________________________________________________________________________________
conv2d_523 (Conv2D)             (None, 75, 75, 32)   2048        lambda_154[0][0]                 
__________________________________________________________________________________________________
max_pooling2d_511 (MaxPooling2D (None, 38, 38, 32)   0           conv2d_511[0][0]                 
__________________________________________________________________________________________________
max_pooling2d_514 (MaxPooling2D (None, 38, 38, 32)   0           conv2d_514[0][0]                 
__________________________________________________________________________________________________
max_pooling2d_517 (MaxPooling2D (None, 38, 38, 32)   0           conv2d_517[0][0]                 
__________________________________________________________________________________________________
max_pooling2d_520 (MaxPooling2D (None, 38, 38, 32)   0           conv2d_520[0][0]                 
__________________________________________________________________________________________________
max_pooling2d_523 (MaxPooling2D (None, 38, 38, 32)   0           conv2d_523[0][0]                 
__________________________________________________________________________________________________
conv2d_512 (Conv2D)             (None, 38, 38, 64)   18496       max_pooling2d_511[0][0]          
__________________________________________________________________________________________________
conv2d_515 (Conv2D)             (None, 38, 38, 64)   18496       max_pooling2d_514[0][0]          
__________________________________________________________________________________________________
conv2d_518 (Conv2D)             (None, 38, 38, 64)   18496       max_pooling2d_517[0][0]          
__________________________________________________________________________________________________
conv2d_521 (Conv2D)             (None, 38, 38, 64)   18496       max_pooling2d_520[0][0]          
__________________________________________________________________________________________________
conv2d_524 (Conv2D)             (None, 38, 38, 64)   18496       max_pooling2d_523[0][0]          
__________________________________________________________________________________________________
max_pooling2d_512 (MaxPooling2D (None, 19, 19, 64)   0           conv2d_512[0][0]                 
__________________________________________________________________________________________________
max_pooling2d_515 (MaxPooling2D (None, 19, 19, 64)   0           conv2d_515[0][0]                 
__________________________________________________________________________________________________
max_pooling2d_518 (MaxPooling2D (None, 19, 19, 64)   0           conv2d_518[0][0]                 
__________________________________________________________________________________________________
max_pooling2d_521 (MaxPooling2D (None, 19, 19, 64)   0           conv2d_521[0][0]                 
__________________________________________________________________________________________________
max_pooling2d_524 (MaxPooling2D (None, 19, 19, 64)   0           conv2d_524[0][0]                 
__________________________________________________________________________________________________
conv2d_513 (Conv2D)             (None, 19, 19, 128)  73856       max_pooling2d_512[0][0]          
__________________________________________________________________________________________________
conv2d_516 (Conv2D)             (None, 19, 19, 128)  73856       max_pooling2d_515[0][0]          
__________________________________________________________________________________________________
conv2d_519 (Conv2D)             (None, 19, 19, 128)  73856       max_pooling2d_518[0][0]          
__________________________________________________________________________________________________
conv2d_522 (Conv2D)             (None, 19, 19, 128)  73856       max_pooling2d_521[0][0]          
__________________________________________________________________________________________________
conv2d_525 (Conv2D)             (None, 19, 19, 128)  73856       max_pooling2d_524[0][0]          
__________________________________________________________________________________________________
max_pooling2d_513 (MaxPooling2D (None, 10, 10, 128)  0           conv2d_513[0][0]                 
__________________________________________________________________________________________________
max_pooling2d_516 (MaxPooling2D (None, 10, 10, 128)  0           conv2d_516[0][0]                 
__________________________________________________________________________________________________
max_pooling2d_519 (MaxPooling2D (None, 10, 10, 128)  0           conv2d_519[0][0]                 
__________________________________________________________________________________________________
max_pooling2d_522 (MaxPooling2D (None, 10, 10, 128)  0           conv2d_522[0][0]                 
__________________________________________________________________________________________________
max_pooling2d_525 (MaxPooling2D (None, 10, 10, 128)  0           conv2d_525[0][0]                 
__________________________________________________________________________________________________
concatenate_30 (Concatenate)    (None, 10, 10, 640)  0           max_pooling2d_513[0][0]          
                                                                 max_pooling2d_516[0][0]          
                                                                 max_pooling2d_519[0][0]          
                                                                 max_pooling2d_522[0][0]          
                                                                 max_pooling2d_525[0][0]          
__________________________________________________________________________________________________
flatten_1230 (Flatten)          (None, 64000)        0           concatenate_30[0][0]             
==================================================================================================
Total params: 481,248
Trainable params: 481,248
Non-trainable params: 0
__________________________________________________________________________________________________
get cnn model
(1052, 64000)
[166.4391  358.00195 188.85257 268.16776 631.09186   0.      470.63464
…
