program start
seed set
[PhysicalDevice(name='/physical_device:GPU:0', device_type='GPU')]
Model: "model_62"
__________________________________________________________________________________________________
Layer (type)                    Output Shape         Param #     Connected to                     
==================================================================================================
input_32 (InputLayer)           [(None, 150, 150, 7) 0                                            
__________________________________________________________________________________________________
lambda_155 (Lambda)             (None, 150, 150, 7)  0           input_32[0][0]                   
__________________________________________________________________________________________________
conv2d_527 (Conv2D)             (None, 150, 150, 32) 2048        lambda_155[0][0]                 
__________________________________________________________________________________________________
max_pooling2d_527 (MaxPooling2D (None, 75, 75, 32)   0           conv2d_527[0][0]                 
__________________________________________________________________________________________________
lambda_156 (Lambda)             (None, 75, 75, 7)    0           lambda_155[0][0]                 
__________________________________________________________________________________________________
lambda_157 (Lambda)             (None, 75, 75, 7)    0           lambda_155[0][0]                 
__________________________________________________________________________________________________
lambda_158 (Lambda)             (None, 75, 75, 7)    0           lambda_155[0][0]                 
__________________________________________________________________________________________________
lambda_159 (Lambda)             (None, 75, 75, 7)    0           lambda_155[0][0]                 
__________________________________________________________________________________________________
conv2d_528 (Conv2D)             (None, 75, 75, 32)   9248        max_pooling2d_527[0][0]          
__________________________________________________________________________________________________
conv2d_531 (Conv2D)             (None, 75, 75, 32)   2048        lambda_156[0][0]                 
__________________________________________________________________________________________________
conv2d_534 (Conv2D)             (None, 75, 75, 32)   2048        lambda_157[0][0]                 
__________________________________________________________________________________________________
conv2d_537 (Conv2D)             (None, 75, 75, 32)   2048        lambda_158[0][0]                 
__________________________________________________________________________________________________
conv2d_540 (Conv2D)             (None, 75, 75, 32)   2048        lambda_159[0][0]                 
__________________________________________________________________________________________________
max_pooling2d_528 (MaxPooling2D (None, 38, 38, 32)   0           conv2d_528[0][0]                 
__________________________________________________________________________________________________
max_pooling2d_531 (MaxPooling2D (None, 38, 38, 32)   0           conv2d_531[0][0]                 
__________________________________________________________________________________________________
max_pooling2d_534 (MaxPooling2D (None, 38, 38, 32)   0           conv2d_534[0][0]                 
__________________________________________________________________________________________________
max_pooling2d_537 (MaxPooling2D (None, 38, 38, 32)   0           conv2d_537[0][0]                 
__________________________________________________________________________________________________
max_pooling2d_540 (MaxPooling2D (None, 38, 38, 32)   0           conv2d_540[0][0]                 
__________________________________________________________________________________________________
conv2d_529 (Conv2D)             (None, 38, 38, 64)   18496       max_pooling2d_528[0][0]          
__________________________________________________________________________________________________
conv2d_532 (Conv2D)             (None, 38, 38, 64)   18496       max_pooling2d_531[0][0]          
__________________________________________________________________________________________________
conv2d_535 (Conv2D)             (None, 38, 38, 64)   18496       max_pooling2d_534[0][0]          
__________________________________________________________________________________________________
conv2d_538 (Conv2D)             (None, 38, 38, 64)   18496       max_pooling2d_537[0][0]          
__________________________________________________________________________________________________
conv2d_541 (Conv2D)             (None, 38, 38, 64)   18496       max_pooling2d_540[0][0]          
__________________________________________________________________________________________________
max_pooling2d_529 (MaxPooling2D (None, 19, 19, 64)   0           conv2d_529[0][0]                 
__________________________________________________________________________________________________
max_pooling2d_532 (MaxPooling2D (None, 19, 19, 64)   0           conv2d_532[0][0]                 
__________________________________________________________________________________________________
max_pooling2d_535 (MaxPooling2D (None, 19, 19, 64)   0           conv2d_535[0][0]                 
__________________________________________________________________________________________________
max_pooling2d_538 (MaxPooling2D (None, 19, 19, 64)   0           conv2d_538[0][0]                 
__________________________________________________________________________________________________
max_pooling2d_541 (MaxPooling2D (None, 19, 19, 64)   0           conv2d_541[0][0]                 
__________________________________________________________________________________________________
conv2d_530 (Conv2D)             (None, 19, 19, 128)  73856       max_pooling2d_529[0][0]          
__________________________________________________________________________________________________
conv2d_533 (Conv2D)             (None, 19, 19, 128)  73856       max_pooling2d_532[0][0]          
__________________________________________________________________________________________________
conv2d_536 (Conv2D)             (None, 19, 19, 128)  73856       max_pooling2d_535[0][0]          
__________________________________________________________________________________________________
conv2d_539 (Conv2D)             (None, 19, 19, 128)  73856       max_pooling2d_538[0][0]          
__________________________________________________________________________________________________
conv2d_542 (Conv2D)             (None, 19, 19, 128)  73856       max_pooling2d_541[0][0]          
__________________________________________________________________________________________________
max_pooling2d_530 (MaxPooling2D (None, 10, 10, 128)  0           conv2d_530[0][0]                 
__________________________________________________________________________________________________
max_pooling2d_533 (MaxPooling2D (None, 10, 10, 128)  0           conv2d_533[0][0]                 
__________________________________________________________________________________________________
max_pooling2d_536 (MaxPooling2D (None, 10, 10, 128)  0           conv2d_536[0][0]                 
__________________________________________________________________________________________________
max_pooling2d_539 (MaxPooling2D (None, 10, 10, 128)  0           conv2d_539[0][0]                 
__________________________________________________________________________________________________
max_pooling2d_542 (MaxPooling2D (None, 10, 10, 128)  0           conv2d_542[0][0]                 
__________________________________________________________________________________________________
concatenate_31 (Concatenate)    (None, 10, 10, 640)  0           max_pooling2d_530[0][0]          
                                                                 max_pooling2d_533[0][0]          
                                                                 max_pooling2d_536[0][0]          
                                                                 max_pooling2d_539[0][0]          
                                                                 max_pooling2d_542[0][0]          
__________________________________________________________________________________________________
flatten_1271 (Flatten)          (None, 64000)        0           concatenate_31[0][0]             
__________________________________________________________________________________________________
dense_93 (Dense)                (None, 1024)         65537024    flatten_1271[0][0]               
__________________________________________________________________________________________________
dropout_62 (Dropout)            (None, 1024)         0           dense_93[0][0]                   
__________________________________________________________________________________________________
dense_94 (Dense)                (None, 1024)         1049600     dropout_62[0][0]                 
__________________________________________________________________________________________________
dropout_63 (Dropout)            (None, 1024)         0           dense_94[0][0]                   
__________________________________________________________________________________________________
dense_95 (Dense)                (None, 5)            5125        dropout_63[0][0]                 
==================================================================================================
Total params: 67,072,997
Trainable params: 67,072,997
Non-trainable params: 0
__________________________________________________________________________________________________
start loading dataset ...
load "Big" complete
load "Long" complete
load "Mitotic" complete
…
           3       0.96      0.86      0.91        56
           4       0.86      0.11      0.19        56

    accuracy                           0.73       260
   macro avg       0.80      0.75      0.69       260
weighted avg       0.82      0.73      0.70       260

Model: "model_63"
__________________________________________________________________________________________________
Layer (type)                    Output Shape         Param #     Connected to                     
==================================================================================================
input_32 (InputLayer)           [(None, 150, 150, 7) 0                                            
__________________________________________________________________________________________________
lambda_155 (Lambda)             (None, 150, 150, 7)  0           input_32[0][0]                   
__________________________________________________________________________________________________
conv2d_527 (Conv2D)             (None, 150, 150, 32) 2048        lambda_155[0][0]                 
__________________________________________________________________________________________________
max_pooling2d_527 (MaxPooling2D (None, 75, 75, 32)   0           conv2d_527[0][0]                 
__________________________________________________________________________________________________
lambda_156 (Lambda)             (None, 75, 75, 7)    0           lambda_155[0][0]                 
__________________________________________________________________________________________________
lambda_157 (Lambda)             (None, 75, 75, 7)    0           lambda_155[0][0]                 
__________________________________________________________________________________________________
lambda_158 (Lambda)             (None, 75, 75, 7)    0           lambda_155[0][0]                 
__________________________________________________________________________________________________
lambda_159 (Lambda)             (None, 75, 75, 7)    0           lambda_155[0][0]                 
__________________________________________________________________________________________________
conv2d_528 (Conv2D)             (None, 75, 75, 32)   9248        max_pooling2d_527[0][0]          
__________________________________________________________________________________________________
conv2d_531 (Conv2D)             (None, 75, 75, 32)   2048        lambda_156[0][0]                 
__________________________________________________________________________________________________
conv2d_534 (Conv2D)             (None, 75, 75, 32)   2048        lambda_157[0][0]                 
__________________________________________________________________________________________________
conv2d_537 (Conv2D)             (None, 75, 75, 32)   2048        lambda_158[0][0]                 
__________________________________________________________________________________________________
conv2d_540 (Conv2D)             (None, 75, 75, 32)   2048        lambda_159[0][0]                 
__________________________________________________________________________________________________
max_pooling2d_528 (MaxPooling2D (None, 38, 38, 32)   0           conv2d_528[0][0]                 
__________________________________________________________________________________________________
max_pooling2d_531 (MaxPooling2D (None, 38, 38, 32)   0           conv2d_531[0][0]                 
__________________________________________________________________________________________________
max_pooling2d_534 (MaxPooling2D (None, 38, 38, 32)   0           conv2d_534[0][0]                 
__________________________________________________________________________________________________
max_pooling2d_537 (MaxPooling2D (None, 38, 38, 32)   0           conv2d_537[0][0]                 
__________________________________________________________________________________________________
max_pooling2d_540 (MaxPooling2D (None, 38, 38, 32)   0           conv2d_540[0][0]                 
__________________________________________________________________________________________________
conv2d_529 (Conv2D)             (None, 38, 38, 64)   18496       max_pooling2d_528[0][0]          
__________________________________________________________________________________________________
conv2d_532 (Conv2D)             (None, 38, 38, 64)   18496       max_pooling2d_531[0][0]          
__________________________________________________________________________________________________
conv2d_535 (Conv2D)             (None, 38, 38, 64)   18496       max_pooling2d_534[0][0]          
__________________________________________________________________________________________________
conv2d_538 (Conv2D)             (None, 38, 38, 64)   18496       max_pooling2d_537[0][0]          
__________________________________________________________________________________________________
conv2d_541 (Conv2D)             (None, 38, 38, 64)   18496       max_pooling2d_540[0][0]          
__________________________________________________________________________________________________
max_pooling2d_529 (MaxPooling2D (None, 19, 19, 64)   0           conv2d_529[0][0]                 
__________________________________________________________________________________________________
max_pooling2d_532 (MaxPooling2D (None, 19, 19, 64)   0           conv2d_532[0][0]                 
__________________________________________________________________________________________________
max_pooling2d_535 (MaxPooling2D (None, 19, 19, 64)   0           conv2d_535[0][0]                 
__________________________________________________________________________________________________
max_pooling2d_538 (MaxPooling2D (None, 19, 19, 64)   0           conv2d_538[0][0]                 
__________________________________________________________________________________________________
max_pooling2d_541 (MaxPooling2D (None, 19, 19, 64)   0           conv2d_541[0][0]                 
__________________________________________________________________________________________________
conv2d_530 (Conv2D)             (None, 19, 19, 128)  73856       max_pooling2d_529[0][0]          
__________________________________________________________________________________________________
conv2d_533 (Conv2D)             (None, 19, 19, 128)  73856       max_pooling2d_532[0][0]          
__________________________________________________________________________________________________
conv2d_536 (Conv2D)             (None, 19, 19, 128)  73856       max_pooling2d_535[0][0]          
__________________________________________________________________________________________________
conv2d_539 (Conv2D)             (None, 19, 19, 128)  73856       max_pooling2d_538[0][0]          
__________________________________________________________________________________________________
conv2d_542 (Conv2D)             (None, 19, 19, 128)  73856       max_pooling2d_541[0][0]          
__________________________________________________________________________________________________
max_pooling2d_530 (MaxPooling2D (None, 10, 10, 128)  0           conv2d_530[0][0]                 
__________________________________________________________________________________________________
max_pooling2d_533 (MaxPooling2D (None, 10, 10, 128)  0           conv2d_533[0][0]                 
__________________________________________________________________________________________________
max_pooling2d_536 (MaxPooling2D (None, 10, 10, 128)  0           conv2d_536[0][0]                 
__________________________________________________________________________________________________
max_pooling2d_539 (MaxPooling2D (None, 10, 10, 128)  0           conv2d_539[0][0]                 
__________________________________________________________________________________________________
max_pooling2d_542 (MaxPooling2D (None, 10, 10, 128)  0           conv2d_542[0][0]                 
__________________________________________________________________________________________________
concatenate_31 (Concatenate)    (None, 10, 10, 640)  0           max_pooling2d_530[0][0]          
                                                                 max_pooling2d_533[0][0]          
                                                                 max_pooling2d_536[0][0]          
                                                                 max_pooling2d_539[0][0]          
                                                                 max_pooling2d_542[0][0]          
__________________________________________________________________________________________________
flatten_1271 (Flatten)          (None, 64000)        0           concatenate_31[0][0]             
==================================================================================================
Total params: 481,248
Trainable params: 481,248
Non-trainable params: 0
__________________________________________________________________________________________________
get cnn model
(1052, 64000)
[  0.        30.829334  60.185936   0.        27.035458 192.42212
…
