program start
seed set
[PhysicalDevice(name='/physical_device:GPU:0', device_type='GPU')]
Model: "model_66"
__________________________________________________________________________________________________
Layer (type)                    Output Shape         Param #     Connected to                     
==================================================================================================
input_34 (InputLayer)           [(None, 150, 150, 7) 0                                            
__________________________________________________________________________________________________
lambda_165 (Lambda)             (None, 150, 150, 7)  0           input_34[0][0]                   
__________________________________________________________________________________________________
conv2d_561 (Conv2D)             (None, 150, 150, 32) 2048        lambda_165[0][0]                 
__________________________________________________________________________________________________
max_pooling2d_561 (MaxPooling2D (None, 75, 75, 32)   0           conv2d_561[0][0]                 
__________________________________________________________________________________________________
lambda_166 (Lambda)             (None, 75, 75, 7)    0           lambda_165[0][0]                 
__________________________________________________________________________________________________
lambda_167 (Lambda)             (None, 75, 75, 7)    0           lambda_165[0][0]                 
__________________________________________________________________________________________________
lambda_168 (Lambda)             (None, 75, 75, 7)    0           lambda_165[0][0]                 
__________________________________________________________________________________________________
lambda_169 (Lambda)             (None, 75, 75, 7)    0           lambda_165[0][0]                 
__________________________________________________________________________________________________
conv2d_562 (Conv2D)             (None, 75, 75, 32)   9248        max_pooling2d_561[0][0]          
__________________________________________________________________________________________________
conv2d_565 (Conv2D)             (None, 75, 75, 32)   2048        lambda_166[0][0]                 
__________________________________________________________________________________________________
conv2d_568 (Conv2D)             (None, 75, 75, 32)   2048        lambda_167[0][0]                 
__________________________________________________________________________________________________
conv2d_571 (Conv2D)             (None, 75, 75, 32)   2048        lambda_168[0][0]                 
__________________________________________________________________________________________________
conv2d_574 (Conv2D)             (None, 75, 75, 32)   2048        lambda_169[0][0]                 
__________________________________________________________________________________________________
max_pooling2d_562 (MaxPooling2D (None, 38, 38, 32)   0           conv2d_562[0][0]                 
__________________________________________________________________________________________________
max_pooling2d_565 (MaxPooling2D (None, 38, 38, 32)   0           conv2d_565[0][0]                 
__________________________________________________________________________________________________
max_pooling2d_568 (MaxPooling2D (None, 38, 38, 32)   0           conv2d_568[0][0]                 
__________________________________________________________________________________________________
max_pooling2d_571 (MaxPooling2D (None, 38, 38, 32)   0           conv2d_571[0][0]                 
__________________________________________________________________________________________________
max_pooling2d_574 (MaxPooling2D (None, 38, 38, 32)   0           conv2d_574[0][0]                 
__________________________________________________________________________________________________
conv2d_563 (Conv2D)             (None, 38, 38, 64)   18496       max_pooling2d_562[0][0]          
__________________________________________________________________________________________________
conv2d_566 (Conv2D)             (None, 38, 38, 64)   18496       max_pooling2d_565[0][0]          
__________________________________________________________________________________________________
conv2d_569 (Conv2D)             (None, 38, 38, 64)   18496       max_pooling2d_568[0][0]          
__________________________________________________________________________________________________
conv2d_572 (Conv2D)             (None, 38, 38, 64)   18496       max_pooling2d_571[0][0]          
__________________________________________________________________________________________________
conv2d_575 (Conv2D)             (None, 38, 38, 64)   18496       max_pooling2d_574[0][0]          
__________________________________________________________________________________________________
max_pooling2d_563 (MaxPooling2D (None, 19, 19, 64)   0           conv2d_563[0][0]                 
__________________________________________________________________________________________________
max_pooling2d_566 (MaxPooling2D (None, 19, 19, 64)   0           conv2d_566[0][0]                 
__________________________________________________________________________________________________
max_pooling2d_569 (MaxPooling2D (None, 19, 19, 64)   0           conv2d_569[0][0]                 
__________________________________________________________________________________________________
max_pooling2d_572 (MaxPooling2D (None, 19, 19, 64)   0           conv2d_572[0][0]                 
__________________________________________________________________________________________________
max_pooling2d_575 (MaxPooling2D (None, 19, 19, 64)   0           conv2d_575[0][0]                 
__________________________________________________________________________________________________
conv2d_564 (Conv2D)             (None, 19, 19, 128)  73856       max_pooling2d_563[0][0]          
__________________________________________________________________________________________________
conv2d_567 (Conv2D)             (None, 19, 19, 128)  73856       max_pooling2d_566[0][0]          
__________________________________________________________________________________________________
conv2d_570 (Conv2D)             (None, 19, 19, 128)  73856       max_pooling2d_569[0][0]          
__________________________________________________________________________________________________
conv2d_573 (Conv2D)             (None, 19, 19, 128)  73856       max_pooling2d_572[0][0]          
__________________________________________________________________________________________________
conv2d_576 (Conv2D)             (None, 19, 19, 128)  73856       max_pooling2d_575[0][0]          
__________________________________________________________________________________________________
max_pooling2d_564 (MaxPooling2D (None, 10, 10, 128)  0           conv2d_564[0][0]                 
__________________________________________________________________________________________________
max_pooling2d_567 (MaxPooling2D (None, 10, 10, 128)  0           conv2d_567[0][0]                 
__________________________________________________________________________________________________
max_pooling2d_570 (MaxPooling2D (None, 10, 10, 128)  0           conv2d_570[0][0]                 
__________________________________________________________________________________________________
max_pooling2d_573 (MaxPooling2D (None, 10, 10, 128)  0           conv2d_573[0][0]                 
__________________________________________________________________________________________________
max_pooling2d_576 (MaxPooling2D (None, 10, 10, 128)  0           conv2d_576[0][0]                 
__________________________________________________________________________________________________
concatenate_33 (Concatenate)    (None, 10, 10, 640)  0           max_pooling2d_564[0][0]          
                                                                 max_pooling2d_567[0][0]          
                                                                 max_pooling2d_570[0][0]          
                                                                 max_pooling2d_573[0][0]          
                                                                 max_pooling2d_576[0][0]          
__________________________________________________________________________________________________
flatten_1353 (Flatten)          (None, 64000)        0           concatenate_33[0][0]             
__________________________________________________________________________________________________
dense_99 (Dense)                (None, 1024)         65537024    flatten_1353[0][0]               
__________________________________________________________________________________________________
dropout_66 (Dropout)            (None, 1024)         0           dense_99[0][0]                   
__________________________________________________________________________________________________
dense_100 (Dense)               (None, 1024)         1049600     dropout_66[0][0]                 
__________________________________________________________________________________________________
dropout_67 (Dropout)            (None, 1024)         0           dense_100[0][0]                  
__________________________________________________________________________________________________
dense_101 (Dense)               (None, 5)            5125        dropout_67[0][0]                 
==================================================================================================
Total params: 67,072,997
Trainable params: 67,072,997
Non-trainable params: 0
__________________________________________________________________________________________________
start loading dataset ...
load "Big" complete
load "Long" complete
load "Mitotic" complete
…
           3       0.97      0.50      0.66        56
           4       1.00      0.12      0.22        56

    accuracy                           0.68       260
   macro avg       0.79      0.70      0.64       260
weighted avg       0.80      0.68      0.64       260

Model: "model_67"
__________________________________________________________________________________________________
Layer (type)                    Output Shape         Param #     Connected to                     
==================================================================================================
input_34 (InputLayer)           [(None, 150, 150, 7) 0                                            
__________________________________________________________________________________________________
lambda_165 (Lambda)             (None, 150, 150, 7)  0           input_34[0][0]                   
__________________________________________________________________________________________________
conv2d_561 (Conv2D)             (None, 150, 150, 32) 2048        lambda_165[0][0]                 
__________________________________________________________________________________________________
max_pooling2d_561 (MaxPooling2D (None, 75, 75, 32)   0           conv2d_561[0][0]                 
__________________________________________________________________________________________________
lambda_166 (Lambda)             (None, 75, 75, 7)    0           lambda_165[0][0]                 
__________________________________________________________________________________________________
lambda_167 (Lambda)             (None, 75, 75, 7)    0           lambda_165[0][0]                 
__________________________________________________________________________________________________
lambda_168 (Lambda)             (None, 75, 75, 7)    0           lambda_165[0][0]                 
__________________________________________________________________________________________________
lambda_169 (Lambda)             (None, 75, 75, 7)    0           lambda_165[0][0]                 
__________________________________________________________________________________________________
conv2d_562 (Conv2D)             (None, 75, 75, 32)   9248        max_pooling2d_561[0][0]          
__________________________________________________________________________________________________
conv2d_565 (Conv2D)             (None, 75, 75, 32)   2048        lambda_166[0][0]                 
__________________________________________________________________________________________________
conv2d_568 (Conv2D)             (None, 75, 75, 32)   2048        lambda_167[0][0]                 
__________________________________________________________________________________________________
conv2d_571 (Conv2D)             (None, 75, 75, 32)   2048        lambda_168[0][0]                 
__________________________________________________________________________________________________
conv2d_574 (Conv2D)             (None, 75, 75, 32)   2048        lambda_169[0][0]                 
__________________________________________________________________________________________________
max_pooling2d_562 (MaxPooling2D (None, 38, 38, 32)   0           conv2d_562[0][0]                 
__________________________________________________________________________________________________
max_pooling2d_565 (MaxPooling2D (None, 38, 38, 32)   0           conv2d_565[0][0]                 
__________________________________________________________________________________________________
max_pooling2d_568 (MaxPooling2D (None, 38, 38, 32)   0           conv2d_568[0][0]                 
__________________________________________________________________________________________________
max_pooling2d_571 (MaxPooling2D (None, 38, 38, 32)   0           conv2d_571[0][0]                 
__________________________________________________________________________________________________
max_pooling2d_574 (MaxPooling2D (None, 38, 38, 32)   0           conv2d_574[0][0]                 
__________________________________________________________________________________________________
conv2d_563 (Conv2D)             (None, 38, 38, 64)   18496       max_pooling2d_562[0][0]          
__________________________________________________________________________________________________
conv2d_566 (Conv2D)             (None, 38, 38, 64)   18496       max_pooling2d_565[0][0]          
__________________________________________________________________________________________________
conv2d_569 (Conv2D)             (None, 38, 38, 64)   18496       max_pooling2d_568[0][0]          
__________________________________________________________________________________________________
conv2d_572 (Conv2D)             (None, 38, 38, 64)   18496       max_pooling2d_571[0][0]          
__________________________________________________________________________________________________
conv2d_575 (Conv2D)             (None, 38, 38, 64)   18496       max_pooling2d_574[0][0]          
__________________________________________________________________________________________________
max_pooling2d_563 (MaxPooling2D (None, 19, 19, 64)   0           conv2d_563[0][0]                 
__________________________________________________________________________________________________
max_pooling2d_566 (MaxPooling2D (None, 19, 19, 64)   0           conv2d_566[0][0]                 
__________________________________________________________________________________________________
max_pooling2d_569 (MaxPooling2D (None, 19, 19, 64)   0           conv2d_569[0][0]                 
__________________________________________________________________________________________________
max_pooling2d_572 (MaxPooling2D (None, 19, 19, 64)   0           conv2d_572[0][0]                 
__________________________________________________________________________________________________
max_pooling2d_575 (MaxPooling2D (None, 19, 19, 64)   0           conv2d_575[0][0]                 
__________________________________________________________________________________________________
conv2d_564 (Conv2D)             (None, 19, 19, 128)  73856       max_pooling2d_563[0][0]          
__________________________________________________________________________________________________
conv2d_567 (Conv2D)             (None, 19, 19, 128)  73856       max_pooling2d_566[0][0]          
__________________________________________________________________________________________________
conv2d_570 (Conv2D)             (None, 19, 19, 128)  73856       max_pooling2d_569[0][0]          
__________________________________________________________________________________________________
conv2d_573 (Conv2D)             (None, 19, 19, 128)  73856       max_pooling2d_572[0][0]          
__________________________________________________________________________________________________
conv2d_576 (Conv2D)             (None, 19, 19, 128)  73856       max_pooling2d_575[0][0]          
__________________________________________________________________________________________________
max_pooling2d_564 (MaxPooling2D (None, 10, 10, 128)  0           conv2d_564[0][0]                 
__________________________________________________________________________________________________
max_pooling2d_567 (MaxPooling2D (None, 10, 10, 128)  0           conv2d_567[0][0]                 
__________________________________________________________________________________________________
max_pooling2d_570 (MaxPooling2D (None, 10, 10, 128)  0           conv2d_570[0][0]                 
__________________________________________________________________________________________________
max_pooling2d_573 (MaxPooling2D (None, 10, 10, 128)  0           conv2d_573[0][0]                 
__________________________________________________________________________________________________
max_pooling2d_576 (MaxPooling2D (None, 10, 10, 128)  0           conv2d_576[0][0]                 
__________________________________________________________________________________________________
concatenate_33 (Concatenate)    (None, 10, 10, 640)  0           max_pooling2d_564[0][0]          
                                                                 max_pooling2d_567[0][0]          
                                                                 max_pooling2d_570[0][0]          
                                                                 max_pooling2d_573[0][0]          
                                                                 max_pooling2d_576[0][0]          
__________________________________________________________________________________________________
flatten_1353 (Flatten)          (None, 64000)        0           concatenate_33[0][0]             
==================================================================================================
Total params: 481,248
Trainable params: 481,248
Non-trainable params: 0
__________________________________________________________________________________________________
get cnn model
(1052, 64000)
[127.315315 220.07475  227.194     65.50157  164.03293  210.41568
…
